…
I1203 10:55:27.148921 18121 net.cpp:322] The NetState phase (0) differed from the phase (1) specified by a rule in layer accuracy
I1203 10:55:27.149107 18121 net.cpp:58] Initializing net from parameters: 
name: "VideoPopularityCaffeNet"
state {
  phase: TRAIN
  level: 0
  stage: ""
}
layer {
  name: "data"
  type: "Data"
  top: "data"
  top: "label"
  include {
    phase: TRAIN
  }
  transform_param {
    mirror: true
    crop_size: 227
    mean_file: "/home/tbochens/Nets/FineTuning/imagenet_mean.binaryproto"
  }
  data_param {
    source: "/home/tbochens/Nets/FineTuning/Facebook/thumb_2/train_thumb_2_lmdb"
    batch_size: 64
    backend: LMDB
  }
}
layer {
  name: "conv1"
  type: "Convolution"
  bottom: "data"
  top: "conv1"
  param {
    lr_mult: 1
    decay_mult: 1
  }
  param {
    lr_mult: 2
    decay_mult: 0
  }
  convolution_param {
    num_output: 96
    kernel_size: 11
    stride: 4
    weight_filler {
      type: "gaussian"
      std: 0.01
    }
    bias_filler {
      type: "constant"
      value: 0
    }
  }
}
layer {
  name: "relu1"
  type: "ReLU"
  bottom: "conv1"
  top: "conv1"
}
layer {
  name: "pool1"
  type: "Pooling"
  bottom: "conv1"
  top: "pool1"
  pooling_param {
    pool: MAX
    kernel_size: 3
    stride: 2
  }
}
layer {
  name: "norm1"
  type: "LRN"
  bottom: "pool1"
  top: "norm1"
  lrn_param {
    local_size: 5
    alpha: 0.0001
    beta: 0.75
  }
}
layer {
  name: "conv2"
  type: "Convolution"
  bottom: "norm1"
  top: "conv2"
  param {
    lr_mult: 1
    decay_mult: 1
  }
  param {
    lr_mult: 2
    decay_mult: 0
  }
  convolution_param {
    num_output: 256
    pad: 2
    kernel_size: 5
    group: 2
    weight_filler {
      type: "gaussian"
      std: 0.01
    }
    bias_filler {
      type: "constant"
      value: 1
    }
  }
}
layer {
  name: "relu2"
  type: "ReLU"
  bottom: "conv2"
  top: "conv2"
}
layer {
  name: "pool2"
  type: "Pooling"
  bottom: "conv2"
  top: "pool2"
  pooling_param {
    pool: MAX
    kernel_size: 3
    stride: 2
  }
}
layer {
  name: "norm2"
  type: "LRN"
  bottom: "pool2"
  top: "norm2"
  lrn_param {
    local_size: 5
    alpha: 0.0001
    beta: 0.75
  }
}
layer {
  name: "conv3"
  type: "Convolution"
  bottom: "norm2"
  top: "conv3"
  param {
    lr_mult: 1
    decay_mult: 1
  }
  param {
    lr_mult: 2
    decay_mult: 0
  }
  convolution_param {
    num_output: 384
    pad: 1
    kernel_size: 3
    weight_filler {
      type: "gaussian"
      std: 0.01
    }
    bias_filler {
      type: "constant"
      value: 0
    }
  }
}
layer {
  name: "relu3"
  type: "ReLU"
  bottom: "conv3"
  top: "conv3"
}
layer {
  name: "conv4"
  type: "Convolution"
  bottom: "conv3"
  top: "conv4"
  param {
    lr_mult: 1
    decay_mult: 1
  }
  param {
    lr_mult: 2
    decay_mult: 0
  }
  convolution_param {
    num_output: 384
    pad: 1
    kernel_size: 3
    group: 2
    weight_filler {
      type: "gaussian"
      std: 0.01
    }
    bias_filler {
      type: "constant"
      value: 1
    }
  }
}
layer {
  name: "relu4"
  type: "ReLU"
  bottom: "conv4"
  top: "conv4"
}
layer {
  name: "conv5"
  type: "Convolution"
  bottom: "conv4"
  top: "conv5"
  param {
    lr_mult: 1
    decay_mult: 1
  }
  param {
    lr_mult: 2
    decay_mult: 0
  }
  convolution_param {
    num_output: 256
    pad: 1
    kernel_size: 3
    group: 2
    weight_filler {
      type: "gaussian"
      std: 0.01
    }
    bias_filler {
      type: "constant"
      value: 1
    }
  }
}
layer {
  name: "relu5"
  type: "ReLU"
  bottom: "conv5"
  top: "conv5"
}
layer {
  name: "pool5"
  type: "Pooling"
  bottom: "conv5"
  top: "pool5"
  pooling_param {
    pool: MAX
    kernel_size: 3
    stride: 2
  }
}
layer {
  name: "fc6"
  type: "InnerProduct"
  bottom: "pool5"
  top: "fc6"
  param {
    lr_mult: 1
    decay_mult: 1
  }
  param {
    lr_mult: 2
    decay_mult: 0
  }
  inner_product_param {
    num_output: 4096
    weight_filler {
      type: "gaussian"
      std: 0.005
    }
    bias_filler {
      type: "constant"
      value: 1
    }
  }
}
layer {
  name: "relu6"
  type: "ReLU"
  bottom: "fc6"
  top: "fc6"
}
layer {
  name: "drop6"
  type: "Dropout"
  bottom: "fc6"
  top: "fc6"
  dropout_param {
    dropout_ratio: 0.5
  }
}
layer {
  name: "fc7"
  type: "InnerProduct"
  bottom: "fc6"
  top: "fc7"
  param {
    lr_mult: 1
    decay_mult: 1
  }
  param {
    lr_mult: 2
    decay_mult: 0
  }
  inner_product_param {
    num_output: 4096
    weight_filler {
      type: "gaussian"
      std: 0.005
    }
    bias_filler {
      type: "constant"
      value: 1
    }
  }
}
layer {
  name: "relu7"
  type: "ReLU"
  bottom: "fc7"
  top: "fc7"
}
layer {
  name: "drop7"
  type: "Dropout"
  bottom: "fc7"
  top: "fc7"
  dropout_param {
    dropout_ratio: 0.5
  }
}
layer {
  name: "fc8_2"
  type: "InnerProduct"
  bottom: "fc7"
  top: "fc8_2"
  param {
    lr_mult: 5
    decay_mult: 1
  }
  param {
    lr_mult: 10
    decay_mult: 0
  }
  inner_product_param {
    num_output: 2
    weight_filler {
      type: "gaussian"
      std: 0.01
    }
    bias_filler {
      type: "constant"
      value: 0
    }
  }
}
layer {
  name: "loss"
  type: "SoftmaxWithLoss"
  bottom: "fc8_2"
  bottom: "label"
  top: "loss"
}
I1203 10:55:27.149265 18121 layer_factory.hpp:77] Creating layer data
I1203 10:55:27.149456 18121 net.cpp:100] Creating Layer data
I1203 10:55:27.149471 18121 net.cpp:408] data -> data
I1203 10:55:27.149502 18121 net.cpp:408] data -> label
I1203 10:55:27.149547 18121 data_transformer.cpp:25] Loading mean file from: /home/tbochens/Nets/FineTuning/imagenet_mean.binaryproto
I1203 10:55:27.151268 18129 db_lmdb.cpp:35] Opened lmdb /home/tbochens/Nets/FineTuning/Facebook/thumb_2/train_thumb_2_lmdb
I1203 10:55:27.170496 18121 data_layer.cpp:41] output data size: 64,3,227,227
I1203 10:55:27.266697 18121 net.cpp:150] Setting up data
I1203 10:55:27.266749 18121 net.cpp:157] Top shape: 64 3 227 227 (9893568)
I1203 10:55:27.266760 18121 net.cpp:157] Top shape: 64 (64)
I1203 10:55:27.266767 18121 net.cpp:165] Memory required for data: 39574528
I1203 10:55:27.266785 18121 layer_factory.hpp:77] Creating layer conv1
I1203 10:55:27.266829 18121 net.cpp:100] Creating Layer conv1
I1203 10:55:27.266840 18121 net.cpp:434] conv1 <- data
I1203 10:55:27.266868 18121 net.cpp:408] conv1 -> conv1
I1203 10:55:27.600236 18121 net.cpp:150] Setting up conv1
I1203 10:55:27.600280 18121 net.cpp:157] Top shape: 64 96 55 55 (18585600)
I1203 10:55:27.600283 18121 net.cpp:165] Memory required for data: 113916928
I1203 10:55:27.600318 18121 layer_factory.hpp:77] Creating layer relu1
I1203 10:55:27.600335 18121 net.cpp:100] Creating Layer relu1
I1203 10:55:27.600340 18121 net.cpp:434] relu1 <- conv1
I1203 10:55:27.600347 18121 net.cpp:395] relu1 -> conv1 (in-place)
I1203 10:55:27.600720 18121 net.cpp:150] Setting up relu1
I1203 10:55:27.600738 18121 net.cpp:157] Top shape: 64 96 55 55 (18585600)
I1203 10:55:27.600741 18121 net.cpp:165] Memory required for data: 188259328
I1203 10:55:27.600745 18121 layer_factory.hpp:77] Creating layer pool1
I1203 10:55:27.600754 18121 net.cpp:100] Creating Layer pool1
I1203 10:55:27.600757 18121 net.cpp:434] pool1 <- conv1
I1203 10:55:27.600764 18121 net.cpp:408] pool1 -> pool1
I1203 10:55:27.600826 18121 net.cpp:150] Setting up pool1
I1203 10:55:27.600833 18121 net.cpp:157] Top shape: 64 96 27 27 (4478976)
I1203 10:55:27.600836 18121 net.cpp:165] Memory required for data: 206175232
I1203 10:55:27.600864 18121 layer_factory.hpp:77] Creating layer norm1
I1203 10:55:27.600878 18121 net.cpp:100] Creating Layer norm1
I1203 10:55:27.600881 18121 net.cpp:434] norm1 <- pool1
I1203 10:55:27.600888 18121 net.cpp:408] norm1 -> norm1
I1203 10:55:27.601117 18121 net.cpp:150] Setting up norm1
I1203 10:55:27.601132 18121 net.cpp:157] Top shape: 64 96 27 27 (4478976)
I1203 10:55:27.601135 18121 net.cpp:165] Memory required for data: 224091136
I1203 10:55:27.601140 18121 layer_factory.hpp:77] Creating layer conv2
I1203 10:55:27.601153 18121 net.cpp:100] Creating Layer conv2
I1203 10:55:27.601157 18121 net.cpp:434] conv2 <- norm1
I1203 10:55:27.601162 18121 net.cpp:408] conv2 -> conv2
I1203 10:55:27.608115 18121 net.cpp:150] Setting up conv2
I1203 10:55:27.608135 18121 net.cpp:157] Top shape: 64 256 27 27 (11943936)
I1203 10:55:27.608139 18121 net.cpp:165] Memory required for data: 271866880
I1203 10:55:27.608150 18121 layer_factory.hpp:77] Creating layer relu2
I1203 10:55:27.608157 18121 net.cpp:100] Creating Layer relu2
I1203 10:55:27.608160 18121 net.cpp:434] relu2 <- conv2
I1203 10:55:27.608165 18121 net.cpp:395] relu2 -> conv2 (in-place)
I1203 10:55:27.608364 18121 net.cpp:150] Setting up relu2
I1203 10:55:27.608377 18121 net.cpp:157] Top shape: 64 256 27 27 (11943936)
I1203 10:55:27.608381 18121 net.cpp:165] Memory required for data: 319642624
I1203 10:55:27.608383 18121 layer_factory.hpp:77] Creating layer pool2
I1203 10:55:27.608391 18121 net.cpp:100] Creating Layer pool2
I1203 10:55:27.608393 18121 net.cpp:434] pool2 <- conv2
I1203 10:55:27.608398 18121 net.cpp:408] pool2 -> pool2
I1203 10:55:27.608446 18121 net.cpp:150] Setting up pool2
I1203 10:55:27.608456 18121 net.cpp:157] Top shape: 64 256 13 13 (2768896)
I1203 10:55:27.608459 18121 net.cpp:165] Memory required for data: 330718208
I1203 10:55:27.608463 18121 layer_factory.hpp:77] Creating layer norm2
I1203 10:55:27.608470 18121 net.cpp:100] Creating Layer norm2
I1203 10:55:27.608474 18121 net.cpp:434] norm2 <- pool2
I1203 10:55:27.608479 18121 net.cpp:408] norm2 -> norm2
I1203 10:55:27.608871 18121 net.cpp:150] Setting up norm2
I1203 10:55:27.608886 18121 net.cpp:157] Top shape: 64 256 13 13 (2768896)
I1203 10:55:27.608889 18121 net.cpp:165] Memory required for data: 341793792
I1203 10:55:27.608893 18121 layer_factory.hpp:77] Creating layer conv3
I1203 10:55:27.608904 18121 net.cpp:100] Creating Layer conv3
I1203 10:55:27.608907 18121 net.cpp:434] conv3 <- norm2
I1203 10:55:27.608913 18121 net.cpp:408] conv3 -> conv3
I1203 10:55:27.621942 18121 net.cpp:150] Setting up conv3
I1203 10:55:27.621959 18121 net.cpp:157] Top shape: 64 384 13 13 (4153344)
I1203 10:55:27.621963 18121 net.cpp:165] Memory required for data: 358407168
I1203 10:55:27.621973 18121 layer_factory.hpp:77] Creating layer relu3
I1203 10:55:27.621980 18121 net.cpp:100] Creating Layer relu3
I1203 10:55:27.621984 18121 net.cpp:434] relu3 <- conv3
I1203 10:55:27.621989 18121 net.cpp:395] relu3 -> conv3 (in-place)
I1203 10:55:27.622181 18121 net.cpp:150] Setting up relu3
I1203 10:55:27.622195 18121 net.cpp:157] Top shape: 64 384 13 13 (4153344)
I1203 10:55:27.622197 18121 net.cpp:165] Memory required for data: 375020544
I1203 10:55:27.622200 18121 layer_factory.hpp:77] Creating layer conv4
I1203 10:55:27.622210 18121 net.cpp:100] Creating Layer conv4
I1203 10:55:27.622213 18121 net.cpp:434] conv4 <- conv3
I1203 10:55:27.622220 18121 net.cpp:408] conv4 -> conv4
I1203 10:55:27.632606 18121 net.cpp:150] Setting up conv4
I1203 10:55:27.632624 18121 net.cpp:157] Top shape: 64 384 13 13 (4153344)
I1203 10:55:27.632627 18121 net.cpp:165] Memory required for data: 391633920
I1203 10:55:27.632634 18121 layer_factory.hpp:77] Creating layer relu4
I1203 10:55:27.632642 18121 net.cpp:100] Creating Layer relu4
I1203 10:55:27.632644 18121 net.cpp:434] relu4 <- conv4
I1203 10:55:27.632649 18121 net.cpp:395] relu4 -> conv4 (in-place)
I1203 10:55:27.632854 18121 net.cpp:150] Setting up relu4
I1203 10:55:27.632868 18121 net.cpp:157] Top shape: 64 384 13 13 (4153344)
I1203 10:55:27.632885 18121 net.cpp:165] Memory required for data: 408247296
I1203 10:55:27.632889 18121 layer_factory.hpp:77] Creating layer conv5
I1203 10:55:27.632901 18121 net.cpp:100] Creating Layer conv5
I1203 10:55:27.632905 18121 net.cpp:434] conv5 <- conv4
I1203 10:55:27.632912 18121 net.cpp:408] conv5 -> conv5
I1203 10:55:27.640830 18121 net.cpp:150] Setting up conv5
I1203 10:55:27.640848 18121 net.cpp:157] Top shape: 64 256 13 13 (2768896)
I1203 10:55:27.640852 18121 net.cpp:165] Memory required for data: 419322880
I1203 10:55:27.640861 18121 layer_factory.hpp:77] Creating layer relu5
I1203 10:55:27.640871 18121 net.cpp:100] Creating Layer relu5
I1203 10:55:27.640875 18121 net.cpp:434] relu5 <- conv5
I1203 10:55:27.640880 18121 net.cpp:395] relu5 -> conv5 (in-place)
I1203 10:55:27.641232 18121 net.cpp:150] Setting up relu5
I1203 10:55:27.641248 18121 net.cpp:157] Top shape: 64 256 13 13 (2768896)
I1203 10:55:27.641250 18121 net.cpp:165] Memory required for data: 430398464
I1203 10:55:27.641254 18121 layer_factory.hpp:77] Creating layer pool5
I1203 10:55:27.641260 18121 net.cpp:100] Creating Layer pool5
I1203 10:55:27.641263 18121 net.cpp:434] pool5 <- conv5
I1203 10:55:27.641268 18121 net.cpp:408] pool5 -> pool5
I1203 10:55:27.641322 18121 net.cpp:150] Setting up pool5
I1203 10:55:27.641330 18121 net.cpp:157] Top shape: 64 256 6 6 (589824)
I1203 10:55:27.641331 18121 net.cpp:165] Memory required for data: 432757760
I1203 10:55:27.641335 18121 layer_factory.hpp:77] Creating layer fc6
I1203 10:55:27.641351 18121 net.cpp:100] Creating Layer fc6
I1203 10:55:27.641353 18121 net.cpp:434] fc6 <- pool5
I1203 10:55:27.641358 18121 net.cpp:408] fc6 -> fc6
I1203 10:55:28.149118 18121 net.cpp:150] Setting up fc6
I1203 10:55:28.149158 18121 net.cpp:157] Top shape: 64 4096 (262144)
I1203 10:55:28.149163 18121 net.cpp:165] Memory required for data: 433806336
I1203 10:55:28.149181 18121 layer_factory.hpp:77] Creating layer relu6
I1203 10:55:28.149204 18121 net.cpp:100] Creating Layer relu6
I1203 10:55:28.149207 18121 net.cpp:434] relu6 <- fc6
I1203 10:55:28.149217 18121 net.cpp:395] relu6 -> fc6 (in-place)
I1203 10:55:28.149683 18121 net.cpp:150] Setting up relu6
I1203 10:55:28.149696 18121 net.cpp:157] Top shape: 64 4096 (262144)
I1203 10:55:28.149699 18121 net.cpp:165] Memory required for data: 434854912
I1203 10:55:28.149703 18121 layer_factory.hpp:77] Creating layer drop6
I1203 10:55:28.149718 18121 net.cpp:100] Creating Layer drop6
I1203 10:55:28.149721 18121 net.cpp:434] drop6 <- fc6
I1203 10:55:28.149729 18121 net.cpp:395] drop6 -> fc6 (in-place)
I1203 10:55:28.149772 18121 net.cpp:150] Setting up drop6
I1203 10:55:28.149778 18121 net.cpp:157] Top shape: 64 4096 (262144)
I1203 10:55:28.149781 18121 net.cpp:165] Memory required for data: 435903488
I1203 10:55:28.149785 18121 layer_factory.hpp:77] Creating layer fc7
I1203 10:55:28.149796 18121 net.cpp:100] Creating Layer fc7
I1203 10:55:28.149799 18121 net.cpp:434] fc7 <- fc6
I1203 10:55:28.149806 18121 net.cpp:408] fc7 -> fc7
I1203 10:55:28.373082 18121 net.cpp:150] Setting up fc7
I1203 10:55:28.373119 18121 net.cpp:157] Top shape: 64 4096 (262144)
I1203 10:55:28.373122 18121 net.cpp:165] Memory required for data: 436952064
I1203 10:55:28.373136 18121 layer_factory.hpp:77] Creating layer relu7
I1203 10:55:28.373150 18121 net.cpp:100] Creating Layer relu7
I1203 10:55:28.373154 18121 net.cpp:434] relu7 <- fc7
I1203 10:55:28.373163 18121 net.cpp:395] relu7 -> fc7 (in-place)
I1203 10:55:28.373733 18121 net.cpp:150] Setting up relu7
I1203 10:55:28.373747 18121 net.cpp:157] Top shape: 64 4096 (262144)
I1203 10:55:28.373750 18121 net.cpp:165] Memory required for data: 438000640
I1203 10:55:28.373754 18121 layer_factory.hpp:77] Creating layer drop7
I1203 10:55:28.373767 18121 net.cpp:100] Creating Layer drop7
I1203 10:55:28.373770 18121 net.cpp:434] drop7 <- fc7
I1203 10:55:28.373775 18121 net.cpp:395] drop7 -> fc7 (in-place)
I1203 10:55:28.373812 18121 net.cpp:150] Setting up drop7
I1203 10:55:28.373818 18121 net.cpp:157] Top shape: 64 4096 (262144)
I1203 10:55:28.373842 18121 net.cpp:165] Memory required for data: 439049216
I1203 10:55:28.373847 18121 layer_factory.hpp:77] Creating layer fc8_2
I1203 10:55:28.373859 18121 net.cpp:100] Creating Layer fc8_2
I1203 10:55:28.373862 18121 net.cpp:434] fc8_2 <- fc7
I1203 10:55:28.373867 18121 net.cpp:408] fc8_2 -> fc8_2
I1203 10:55:28.374791 18121 net.cpp:150] Setting up fc8_2
I1203 10:55:28.374805 18121 net.cpp:157] Top shape: 64 2 (128)
I1203 10:55:28.374809 18121 net.cpp:165] Memory required for data: 439049728
I1203 10:55:28.374815 18121 layer_factory.hpp:77] Creating layer loss
I1203 10:55:28.374822 18121 net.cpp:100] Creating Layer loss
I1203 10:55:28.374825 18121 net.cpp:434] loss <- fc8_2
I1203 10:55:28.374830 18121 net.cpp:434] loss <- label
I1203 10:55:28.374840 18121 net.cpp:408] loss -> loss
I1203 10:55:28.374861 18121 layer_factory.hpp:77] Creating layer loss
…
I1203 10:55:28.375766 18121 net.cpp:322] The NetState phase (1) differed from the phase (0) specified by a rule in layer data
I1203 10:55:28.375949 18121 net.cpp:58] Initializing net from parameters: 
name: "VideoPopularityCaffeNet"
state {
  phase: TEST
}
layer {
  name: "data"
  type: "Data"
  top: "data"
  top: "label"
  include {
    phase: TEST
  }
  transform_param {
    mirror: false
    crop_size: 227
    mean_file: "/home/tbochens/Nets/FineTuning/imagenet_mean.binaryproto"
  }
  data_param {
    source: "/home/tbochens/Nets/FineTuning/Facebook/thumb_2/val_thumb_2_lmdb"
    batch_size: 64
    backend: LMDB
  }
}
layer {
  name: "conv1"
  type: "Convolution"
  bottom: "data"
  top: "conv1"
  param {
    lr_mult: 1
    decay_mult: 1
  }
  param {
    lr_mult: 2
    decay_mult: 0
  }
  convolution_param {
    num_output: 96
    kernel_size: 11
    stride: 4
    weight_filler {
      type: "gaussian"
      std: 0.01
    }
    bias_filler {
      type: "constant"
      value: 0
    }
  }
}
layer {
  name: "relu1"
  type: "ReLU"
  bottom: "conv1"
  top: "conv1"
}
layer {
  name: "pool1"
  type: "Pooling"
  bottom: "conv1"
  top: "pool1"
  pooling_param {
    pool: MAX
    kernel_size: 3
    stride: 2
  }
}
layer {
  name: "norm1"
  type: "LRN"
  bottom: "pool1"
  top: "norm1"
  lrn_param {
    local_size: 5
    alpha: 0.0001
    beta: 0.75
  }
}
layer {
  name: "conv2"
  type: "Convolution"
  bottom: "norm1"
  top: "conv2"
  param {
    lr_mult: 1
    decay_mult: 1
  }
  param {
    lr_mult: 2
    decay_mult: 0
  }
  convolution_param {
    num_output: 256
    pad: 2
    kernel_size: 5
    group: 2
    weight_filler {
      type: "gaussian"
      std: 0.01
    }
    bias_filler {
      type: "constant"
      value: 1
    }
  }
}
layer {
  name: "relu2"
  type: "ReLU"
  bottom: "conv2"
  top: "conv2"
}
layer {
  name: "pool2"
  type: "Pooling"
  bottom: "conv2"
  top: "pool2"
  pooling_param {
    pool: MAX
    kernel_size: 3
    stride: 2
  }
}
layer {
  name: "norm2"
  type: "LRN"
  bottom: "pool2"
  top: "norm2"
  lrn_param {
    local_size: 5
    alpha: 0.0001
    beta: 0.75
  }
}
layer {
  name: "conv3"
  type: "Convolution"
  bottom: "norm2"
  top: "conv3"
  param {
    lr_mult: 1
    decay_mult: 1
  }
  param {
    lr_mult: 2
    decay_mult: 0
  }
  convolution_param {
    num_output: 384
    pad: 1
    kernel_size: 3
    weight_filler {
      type: "gaussian"
      std: 0.01
    }
    bias_filler {
      type: "constant"
      value: 0
    }
  }
}
layer {
  name: "relu3"
  type: "ReLU"
  bottom: "conv3"
  top: "conv3"
}
layer {
  name: "conv4"
  type: "Convolution"
  bottom: "conv3"
  top: "conv4"
  param {
    lr_mult: 1
    decay_mult: 1
  }
  param {
    lr_mult: 2
    decay_mult: 0
  }
  convolution_param {
    num_output: 384
    pad: 1
    kernel_size: 3
    group: 2
    weight_filler {
      type: "gaussian"
      std: 0.01
    }
    bias_filler {
      type: "constant"
      value: 1
    }
  }
}
layer {
  name: "relu4"
  type: "ReLU"
  bottom: "conv4"
  top: "conv4"
}
layer {
  name: "conv5"
  type: "Convolution"
  bottom: "conv4"
  top: "conv5"
  param {
    lr_mult: 1
    decay_mult: 1
  }
  param {
    lr_mult: 2
    decay_mult: 0
  }
  convolution_param {
    num_output: 256
    pad: 1
    kernel_size: 3
    group: 2
    weight_filler {
      type: "gaussian"
      std: 0.01
    }
    bias_filler {
      type: "constant"
      value: 1
    }
  }
}
layer {
  name: "relu5"
  type: "ReLU"
  bottom: "conv5"
  top: "conv5"
}
layer {
  name: "pool5"
  type: "Pooling"
  bottom: "conv5"
  top: "pool5"
  pooling_param {
    pool: MAX
    kernel_size: 3
    stride: 2
  }
}
layer {
  name: "fc6"
  type: "InnerProduct"
  bottom: "pool5"
  top: "fc6"
  param {
    lr_mult: 1
    decay_mult: 1
  }
  param {
    lr_mult: 2
    decay_mult: 0
  }
  inner_product_param {
    num_output: 4096
    weight_filler {
      type: "gaussian"
      std: 0.005
    }
    bias_filler {
      type: "constant"
      value: 1
    }
  }
}
layer {
  name: "relu6"
  type: "ReLU"
  bottom: "fc6"
  top: "fc6"
}
layer {
  name: "drop6"
  type: "Dropout"
  bottom: "fc6"
  top: "fc6"
  dropout_param {
    dropout_ratio: 0.5
  }
}
layer {
  name: "fc7"
  type: "InnerProduct"
  bottom: "fc6"
  top: "fc7"
  param {
    lr_mult: 1
    decay_mult: 1
  }
  param {
    lr_mult: 2
    decay_mult: 0
  }
  inner_product_param {
    num_output: 4096
    weight_filler {
      type: "gaussian"
      std: 0.005
    }
    bias_filler {
      type: "constant"
      value: 1
    }
  }
}
layer {
  name: "relu7"
  type: "ReLU"
  bottom: "fc7"
  top: "fc7"
}
layer {
  name: "drop7"
  type: "Dropout"
  bottom: "fc7"
  top: "fc7"
  dropout_param {
    dropout_ratio: 0.5
  }
}
layer {
  name: "fc8_2"
  type: "InnerProduct"
  bottom: "fc7"
  top: "fc8_2"
  param {
    lr_mult: 5
    decay_mult: 1
  }
  param {
    lr_mult: 10
    decay_mult: 0
  }
  inner_product_param {
    num_output: 2
    weight_filler {
      type: "gaussian"
      std: 0.01
    }
    bias_filler {
      type: "constant"
      value: 0
    }
  }
}
layer {
  name: "accuracy"
  type: "Accuracy"
  bottom: "fc8_2"
  bottom: "label"
  top: "accuracy"
  include {
    phase: TEST
  }
}
layer {
  name: "loss"
  type: "SoftmaxWithLoss"
  bottom: "fc8_2"
  bottom: "label"
  top: "loss"
}
I1203 10:55:28.376091 18121 layer_factory.hpp:77] Creating layer data
I1203 10:55:28.376211 18121 net.cpp:100] Creating Layer data
I1203 10:55:28.376219 18121 net.cpp:408] data -> data
I1203 10:55:28.376231 18121 net.cpp:408] data -> label
I1203 10:55:28.376240 18121 data_transformer.cpp:25] Loading mean file from: /home/tbochens/Nets/FineTuning/imagenet_mean.binaryproto
I1203 10:55:28.378263 18131 db_lmdb.cpp:35] Opened lmdb /home/tbochens/Nets/FineTuning/Facebook/thumb_2/val_thumb_2_lmdb
I1203 10:55:28.379401 18121 data_layer.cpp:41] output data size: 64,3,227,227
I1203 10:55:28.466259 18121 net.cpp:150] Setting up data
I1203 10:55:28.466306 18121 net.cpp:157] Top shape: 64 3 227 227 (9893568)
I1203 10:55:28.466310 18121 net.cpp:157] Top shape: 64 (64)
I1203 10:55:28.466312 18121 net.cpp:165] Memory required for data: 39574528
I1203 10:55:28.466341 18121 layer_factory.hpp:77] Creating layer label_data_1_split
I1203 10:55:28.466436 18121 net.cpp:100] Creating Layer label_data_1_split
I1203 10:55:28.466444 18121 net.cpp:434] label_data_1_split <- label
I1203 10:55:28.466454 18121 net.cpp:408] label_data_1_split -> label_data_1_split_0
I1203 10:55:28.466465 18121 net.cpp:408] label_data_1_split -> label_data_1_split_1
I1203 10:55:28.466853 18121 net.cpp:150] Setting up label_data_1_split
I1203 10:55:28.466861 18121 net.cpp:157] Top shape: 64 (64)
I1203 10:55:28.466874 18121 net.cpp:157] Top shape: 64 (64)
I1203 10:55:28.466876 18121 net.cpp:165] Memory required for data: 39575040
I1203 10:55:28.466879 18121 layer_factory.hpp:77] Creating layer conv1
I1203 10:55:28.466897 18121 net.cpp:100] Creating Layer conv1
I1203 10:55:28.466900 18121 net.cpp:434] conv1 <- data
I1203 10:55:28.466907 18121 net.cpp:408] conv1 -> conv1
I1203 10:55:28.468637 18121 net.cpp:150] Setting up conv1
I1203 10:55:28.468662 18121 net.cpp:157] Top shape: 64 96 55 55 (18585600)
I1203 10:55:28.468664 18121 net.cpp:165] Memory required for data: 113917440
I1203 10:55:28.468677 18121 layer_factory.hpp:77] Creating layer relu1
I1203 10:55:28.468734 18121 net.cpp:100] Creating Layer relu1
I1203 10:55:28.468739 18121 net.cpp:434] relu1 <- conv1
I1203 10:55:28.468744 18121 net.cpp:395] relu1 -> conv1 (in-place)
I1203 10:55:28.469240 18121 net.cpp:150] Setting up relu1
I1203 10:55:28.469251 18121 net.cpp:157] Top shape: 64 96 55 55 (18585600)
I1203 10:55:28.469264 18121 net.cpp:165] Memory required for data: 188259840
I1203 10:55:28.469267 18121 layer_factory.hpp:77] Creating layer pool1
I1203 10:55:28.469277 18121 net.cpp:100] Creating Layer pool1
I1203 10:55:28.469280 18121 net.cpp:434] pool1 <- conv1
I1203 10:55:28.469285 18121 net.cpp:408] pool1 -> pool1
I1203 10:55:28.475785 18121 net.cpp:150] Setting up pool1
I1203 10:55:28.475800 18121 net.cpp:157] Top shape: 64 96 27 27 (4478976)
I1203 10:55:28.475803 18121 net.cpp:165] Memory required for data: 206175744
I1203 10:55:28.475806 18121 layer_factory.hpp:77] Creating layer norm1
I1203 10:55:28.475817 18121 net.cpp:100] Creating Layer norm1
I1203 10:55:28.475821 18121 net.cpp:434] norm1 <- pool1
I1203 10:55:28.475826 18121 net.cpp:408] norm1 -> norm1
I1203 10:55:28.476043 18121 net.cpp:150] Setting up norm1
I1203 10:55:28.476054 18121 net.cpp:157] Top shape: 64 96 27 27 (4478976)
I1203 10:55:28.476058 18121 net.cpp:165] Memory required for data: 224091648
I1203 10:55:28.476059 18121 layer_factory.hpp:77] Creating layer conv2
I1203 10:55:28.476070 18121 net.cpp:100] Creating Layer conv2
I1203 10:55:28.476073 18121 net.cpp:434] conv2 <- norm1
I1203 10:55:28.476080 18121 net.cpp:408] conv2 -> conv2
I1203 10:55:28.480918 18121 net.cpp:150] Setting up conv2
I1203 10:55:28.480931 18121 net.cpp:157] Top shape: 64 256 27 27 (11943936)
I1203 10:55:28.480934 18121 net.cpp:165] Memory required for data: 271867392
I1203 10:55:28.480962 18121 layer_factory.hpp:77] Creating layer relu2
I1203 10:55:28.480968 18121 net.cpp:100] Creating Layer relu2
I1203 10:55:28.480970 18121 net.cpp:434] relu2 <- conv2
I1203 10:55:28.480975 18121 net.cpp:395] relu2 -> conv2 (in-place)
I1203 10:55:28.481160 18121 net.cpp:150] Setting up relu2
I1203 10:55:28.481170 18121 net.cpp:157] Top shape: 64 256 27 27 (11943936)
I1203 10:55:28.481173 18121 net.cpp:165] Memory required for data: 319643136
I1203 10:55:28.481175 18121 layer_factory.hpp:77] Creating layer pool2
I1203 10:55:28.481183 18121 net.cpp:100] Creating Layer pool2
I1203 10:55:28.481185 18121 net.cpp:434] pool2 <- conv2
I1203 10:55:28.481190 18121 net.cpp:408] pool2 -> pool2
I1203 10:55:28.481235 18121 net.cpp:150] Setting up pool2
I1203 10:55:28.481243 18121 net.cpp:157] Top shape: 64 256 13 13 (2768896)
I1203 10:55:28.481246 18121 net.cpp:165] Memory required for data: 330718720
I1203 10:55:28.481248 18121 layer_factory.hpp:77] Creating layer norm2
I1203 10:55:28.481256 18121 net.cpp:100] Creating Layer norm2
I1203 10:55:28.481258 18121 net.cpp:434] norm2 <- pool2
I1203 10:55:28.481263 18121 net.cpp:408] norm2 -> norm2
I1203 10:55:28.481582 18121 net.cpp:150] Setting up norm2
I1203 10:55:28.481604 18121 net.cpp:157] Top shape: 64 256 13 13 (2768896)
I1203 10:55:28.481606 18121 net.cpp:165] Memory required for data: 341794304
I1203 10:55:28.481609 18121 layer_factory.hpp:77] Creating layer conv3
I1203 10:55:28.481618 18121 net.cpp:100] Creating Layer conv3
I1203 10:55:28.481621 18121 net.cpp:434] conv3 <- norm2
I1203 10:55:28.481628 18121 net.cpp:408] conv3 -> conv3
I1203 10:55:28.491180 18121 net.cpp:150] Setting up conv3
I1203 10:55:28.491194 18121 net.cpp:157] Top shape: 64 384 13 13 (4153344)
I1203 10:55:28.491196 18121 net.cpp:165] Memory required for data: 358407680
I1203 10:55:28.491204 18121 layer_factory.hpp:77] Creating layer relu3
I1203 10:55:28.491210 18121 net.cpp:100] Creating Layer relu3
I1203 10:55:28.491214 18121 net.cpp:434] relu3 <- conv3
I1203 10:55:28.491217 18121 net.cpp:395] relu3 -> conv3 (in-place)
I1203 10:55:28.491387 18121 net.cpp:150] Setting up relu3
I1203 10:55:28.491396 18121 net.cpp:157] Top shape: 64 384 13 13 (4153344)
I1203 10:55:28.491400 18121 net.cpp:165] Memory required for data: 375021056
I1203 10:55:28.491401 18121 layer_factory.hpp:77] Creating layer conv4
I1203 10:55:28.491412 18121 net.cpp:100] Creating Layer conv4
I1203 10:55:28.491415 18121 net.cpp:434] conv4 <- conv3
I1203 10:55:28.491420 18121 net.cpp:408] conv4 -> conv4
I1203 10:55:28.499699 18121 net.cpp:150] Setting up conv4
I1203 10:55:28.499712 18121 net.cpp:157] Top shape: 64 384 13 13 (4153344)
I1203 10:55:28.499716 18121 net.cpp:165] Memory required for data: 391634432
I1203 10:55:28.499721 18121 layer_factory.hpp:77] Creating layer relu4
I1203 10:55:28.499725 18121 net.cpp:100] Creating Layer relu4
I1203 10:55:28.499728 18121 net.cpp:434] relu4 <- conv4
I1203 10:55:28.499733 18121 net.cpp:395] relu4 -> conv4 (in-place)
I1203 10:55:28.499927 18121 net.cpp:150] Setting up relu4
I1203 10:55:28.499936 18121 net.cpp:157] Top shape: 64 384 13 13 (4153344)
I1203 10:55:28.499938 18121 net.cpp:165] Memory required for data: 408247808
I1203 10:55:28.499940 18121 layer_factory.hpp:77] Creating layer conv5
I1203 10:55:28.499949 18121 net.cpp:100] Creating Layer conv5
I1203 10:55:28.499953 18121 net.cpp:434] conv5 <- conv4
I1203 10:55:28.499958 18121 net.cpp:408] conv5 -> conv5
I1203 10:55:28.506057 18121 net.cpp:150] Setting up conv5
I1203 10:55:28.506070 18121 net.cpp:157] Top shape: 64 256 13 13 (2768896)
I1203 10:55:28.506073 18121 net.cpp:165] Memory required for data: 419323392
I1203 10:55:28.506083 18121 layer_factory.hpp:77] Creating layer relu5
I1203 10:55:28.506088 18121 net.cpp:100] Creating Layer relu5
I1203 10:55:28.506091 18121 net.cpp:434] relu5 <- conv5
I1203 10:55:28.506098 18121 net.cpp:395] relu5 -> conv5 (in-place)
I1203 10:55:28.506281 18121 net.cpp:150] Setting up relu5
I1203 10:55:28.506294 18121 net.cpp:157] Top shape: 64 256 13 13 (2768896)
I1203 10:55:28.506307 18121 net.cpp:165] Memory required for data: 430398976
I1203 10:55:28.506311 18121 layer_factory.hpp:77] Creating layer pool5
I1203 10:55:28.506321 18121 net.cpp:100] Creating Layer pool5
I1203 10:55:28.506325 18121 net.cpp:434] pool5 <- conv5
I1203 10:55:28.506328 18121 net.cpp:408] pool5 -> pool5
I1203 10:55:28.506395 18121 net.cpp:150] Setting up pool5
I1203 10:55:28.506402 18121 net.cpp:157] Top shape: 64 256 6 6 (589824)
I1203 10:55:28.506403 18121 net.cpp:165] Memory required for data: 432758272
I1203 10:55:28.506405 18121 layer_factory.hpp:77] Creating layer fc6
I1203 10:55:28.506412 18121 net.cpp:100] Creating Layer fc6
I1203 10:55:28.506414 18121 net.cpp:434] fc6 <- pool5
I1203 10:55:28.506420 18121 net.cpp:408] fc6 -> fc6
I1203 10:55:28.890359 18121 net.cpp:150] Setting up fc6
I1203 10:55:28.890406 18121 net.cpp:157] Top shape: 64 4096 (262144)
I1203 10:55:28.890409 18121 net.cpp:165] Memory required for data: 433806848
I1203 10:55:28.890420 18121 layer_factory.hpp:77] Creating layer relu6
I1203 10:55:28.890432 18121 net.cpp:100] Creating Layer relu6
I1203 10:55:28.890436 18121 net.cpp:434] relu6 <- fc6
I1203 10:55:28.890445 18121 net.cpp:395] relu6 -> fc6 (in-place)
I1203 10:55:28.890996 18121 net.cpp:150] Setting up relu6
I1203 10:55:28.891007 18121 net.cpp:157] Top shape: 64 4096 (262144)
I1203 10:55:28.891021 18121 net.cpp:165] Memory required for data: 434855424
I1203 10:55:28.891023 18121 layer_factory.hpp:77] Creating layer drop6
I1203 10:55:28.891031 18121 net.cpp:100] Creating Layer drop6
I1203 10:55:28.891033 18121 net.cpp:434] drop6 <- fc6
I1203 10:55:28.891039 18121 net.cpp:395] drop6 -> fc6 (in-place)
I1203 10:55:28.891079 18121 net.cpp:150] Setting up drop6
I1203 10:55:28.891085 18121 net.cpp:157] Top shape: 64 4096 (262144)
I1203 10:55:28.891088 18121 net.cpp:165] Memory required for data: 435904000
I1203 10:55:28.891090 18121 layer_factory.hpp:77] Creating layer fc7
I1203 10:55:28.891098 18121 net.cpp:100] Creating Layer fc7
I1203 10:55:28.891100 18121 net.cpp:434] fc7 <- fc6
I1203 10:55:28.891105 18121 net.cpp:408] fc7 -> fc7
I1203 10:55:29.064345 18121 net.cpp:150] Setting up fc7
I1203 10:55:29.064378 18121 net.cpp:157] Top shape: 64 4096 (262144)
I1203 10:55:29.064380 18121 net.cpp:165] Memory required for data: 436952576
I1203 10:55:29.064393 18121 layer_factory.hpp:77] Creating layer relu7
I1203 10:55:29.064404 18121 net.cpp:100] Creating Layer relu7
I1203 10:55:29.064407 18121 net.cpp:434] relu7 <- fc7
I1203 10:55:29.064416 18121 net.cpp:395] relu7 -> fc7 (in-place)
I1203 10:55:29.064676 18121 net.cpp:150] Setting up relu7
I1203 10:55:29.064685 18121 net.cpp:157] Top shape: 64 4096 (262144)
I1203 10:55:29.064687 18121 net.cpp:165] Memory required for data: 438001152
I1203 10:55:29.064690 18121 layer_factory.hpp:77] Creating layer drop7
I1203 10:55:29.064697 18121 net.cpp:100] Creating Layer drop7
I1203 10:55:29.064699 18121 net.cpp:434] drop7 <- fc7
I1203 10:55:29.064704 18121 net.cpp:395] drop7 -> fc7 (in-place)
I1203 10:55:29.064733 18121 net.cpp:150] Setting up drop7
I1203 10:55:29.064738 18121 net.cpp:157] Top shape: 64 4096 (262144)
I1203 10:55:29.064740 18121 net.cpp:165] Memory required for data: 439049728
I1203 10:55:29.064743 18121 layer_factory.hpp:77] Creating layer fc8_2
I1203 10:55:29.064751 18121 net.cpp:100] Creating Layer fc8_2
I1203 10:55:29.064754 18121 net.cpp:434] fc8_2 <- fc7
I1203 10:55:29.064759 18121 net.cpp:408] fc8_2 -> fc8_2
I1203 10:55:29.064939 18121 net.cpp:150] Setting up fc8_2
I1203 10:55:29.064946 18121 net.cpp:157] Top shape: 64 2 (128)
I1203 10:55:29.064949 18121 net.cpp:165] Memory required for data: 439050240
I1203 10:55:29.064954 18121 layer_factory.hpp:77] Creating layer fc8_2_fc8_2_0_split
I1203 10:55:29.064960 18121 net.cpp:100] Creating Layer fc8_2_fc8_2_0_split
I1203 10:55:29.064961 18121 net.cpp:434] fc8_2_fc8_2_0_split <- fc8_2
I1203 10:55:29.064967 18121 net.cpp:408] fc8_2_fc8_2_0_split -> fc8_2_fc8_2_0_split_0
I1203 10:55:29.064972 18121 net.cpp:408] fc8_2_fc8_2_0_split -> fc8_2_fc8_2_0_split_1
I1203 10:55:29.065008 18121 net.cpp:150] Setting up fc8_2_fc8_2_0_split
I1203 10:55:29.065032 18121 net.cpp:157] Top shape: 64 2 (128)
I1203 10:55:29.065034 18121 net.cpp:157] Top shape: 64 2 (128)
I1203 10:55:29.065037 18121 net.cpp:165] Memory required for data: 439051264
I1203 10:55:29.065038 18121 layer_factory.hpp:77] Creating layer accuracy
I1203 10:55:29.065047 18121 net.cpp:100] Creating Layer accuracy
I1203 10:55:29.065050 18121 net.cpp:434] accuracy <- fc8_2_fc8_2_0_split_0
I1203 10:55:29.065053 18121 net.cpp:434] accuracy <- label_data_1_split_0
I1203 10:55:29.065058 18121 net.cpp:408] accuracy -> accuracy
…
