…
I1201 02:05:54.736043  8254 net.cpp:322] The NetState phase (0) differed from the phase (1) specified by a rule in layer accuracy
I1201 02:05:54.736232  8254 net.cpp:58] Initializing net from parameters: 
name: "VideoPopularityCaffeNet"
state {
  phase: TRAIN
  level: 0
  stage: ""
}
layer {
  name: "data"
  type: "Data"
  top: "data"
  top: "label"
  include {
    phase: TRAIN
  }
  transform_param {
    mirror: true
    crop_size: 227
    mean_file: "/home/tbochens/Nets/FineTuning/imagenet_mean.binaryproto"
  }
  data_param {
    source: "/home/tbochens/Nets/FineTuning/Facebook/thumb_2/train_thumb_2_lmdb"
    batch_size: 64
    backend: LMDB
  }
}
layer {
  name: "conv1"
  type: "Convolution"
  bottom: "data"
  top: "conv1"
  param {
    lr_mult: 1
    decay_mult: 1
  }
  param {
    lr_mult: 2
    decay_mult: 0
  }
  convolution_param {
    num_output: 96
    kernel_size: 11
    stride: 4
    weight_filler {
      type: "gaussian"
      std: 0.01
    }
    bias_filler {
      type: "constant"
      value: 0
    }
  }
}
layer {
  name: "relu1"
  type: "ReLU"
  bottom: "conv1"
  top: "conv1"
}
layer {
  name: "pool1"
  type: "Pooling"
  bottom: "conv1"
  top: "pool1"
  pooling_param {
    pool: MAX
    kernel_size: 3
    stride: 2
  }
}
layer {
  name: "norm1"
  type: "LRN"
  bottom: "pool1"
  top: "norm1"
  lrn_param {
    local_size: 5
    alpha: 0.0001
    beta: 0.75
  }
}
layer {
  name: "conv2"
  type: "Convolution"
  bottom: "norm1"
  top: "conv2"
  param {
    lr_mult: 1
    decay_mult: 1
  }
  param {
    lr_mult: 2
    decay_mult: 0
  }
  convolution_param {
    num_output: 256
    pad: 2
    kernel_size: 5
    group: 2
    weight_filler {
      type: "gaussian"
      std: 0.01
    }
    bias_filler {
      type: "constant"
      value: 1
    }
  }
}
layer {
  name: "relu2"
  type: "ReLU"
  bottom: "conv2"
  top: "conv2"
}
layer {
  name: "pool2"
  type: "Pooling"
  bottom: "conv2"
  top: "pool2"
  pooling_param {
    pool: MAX
    kernel_size: 3
    stride: 2
  }
}
layer {
  name: "norm2"
  type: "LRN"
  bottom: "pool2"
  top: "norm2"
  lrn_param {
    local_size: 5
    alpha: 0.0001
    beta: 0.75
  }
}
layer {
  name: "conv3"
  type: "Convolution"
  bottom: "norm2"
  top: "conv3"
  param {
    lr_mult: 1
    decay_mult: 1
  }
  param {
    lr_mult: 2
    decay_mult: 0
  }
  convolution_param {
    num_output: 384
    pad: 1
    kernel_size: 3
    weight_filler {
      type: "gaussian"
      std: 0.01
    }
    bias_filler {
      type: "constant"
      value: 0
    }
  }
}
layer {
  name: "relu3"
  type: "ReLU"
  bottom: "conv3"
  top: "conv3"
}
layer {
  name: "conv4"
  type: "Convolution"
  bottom: "conv3"
  top: "conv4"
  param {
    lr_mult: 1
    decay_mult: 1
  }
  param {
    lr_mult: 2
    decay_mult: 0
  }
  convolution_param {
    num_output: 384
    pad: 1
    kernel_size: 3
    group: 2
    weight_filler {
      type: "gaussian"
      std: 0.01
    }
    bias_filler {
      type: "constant"
      value: 1
    }
  }
}
layer {
  name: "relu4"
  type: "ReLU"
  bottom: "conv4"
  top: "conv4"
}
layer {
  name: "conv5"
  type: "Convolution"
  bottom: "conv4"
  top: "conv5"
  param {
    lr_mult: 1
    decay_mult: 1
  }
  param {
    lr_mult: 2
    decay_mult: 0
  }
  convolution_param {
    num_output: 256
    pad: 1
    kernel_size: 3
    group: 2
    weight_filler {
      type: "gaussian"
      std: 0.01
    }
    bias_filler {
      type: "constant"
      value: 1
    }
  }
}
layer {
  name: "relu5"
  type: "ReLU"
  bottom: "conv5"
  top: "conv5"
}
layer {
  name: "pool5"
  type: "Pooling"
  bottom: "conv5"
  top: "pool5"
  pooling_param {
    pool: MAX
    kernel_size: 3
    stride: 2
  }
}
layer {
  name: "fc6"
  type: "InnerProduct"
  bottom: "pool5"
  top: "fc6"
  param {
    lr_mult: 1
    decay_mult: 1
  }
  param {
    lr_mult: 2
    decay_mult: 0
  }
  inner_product_param {
    num_output: 4096
    weight_filler {
      type: "gaussian"
      std: 0.005
    }
    bias_filler {
      type: "constant"
      value: 1
    }
  }
}
layer {
  name: "relu6"
  type: "ReLU"
  bottom: "fc6"
  top: "fc6"
}
layer {
  name: "drop6"
  type: "Dropout"
  bottom: "fc6"
  top: "fc6"
  dropout_param {
    dropout_ratio: 0.5
  }
}
layer {
  name: "fc7"
  type: "InnerProduct"
  bottom: "fc6"
  top: "fc7"
  param {
    lr_mult: 1
    decay_mult: 1
  }
  param {
    lr_mult: 2
    decay_mult: 0
  }
  inner_product_param {
    num_output: 4096
    weight_filler {
      type: "gaussian"
      std: 0.005
    }
    bias_filler {
      type: "constant"
      value: 1
    }
  }
}
layer {
  name: "relu7"
  type: "ReLU"
  bottom: "fc7"
  top: "fc7"
}
layer {
  name: "drop7"
  type: "Dropout"
  bottom: "fc7"
  top: "fc7"
  dropout_param {
    dropout_ratio: 0.5
  }
}
layer {
  name: "fc8_2"
  type: "InnerProduct"
  bottom: "fc7"
  top: "fc8_2"
  param {
    lr_mult: 5
    decay_mult: 1
  }
  param {
    lr_mult: 10
    decay_mult: 0
  }
  inner_product_param {
    num_output: 2
    weight_filler {
      type: "gaussian"
      std: 0.01
    }
    bias_filler {
      type: "constant"
      value: 0
    }
  }
}
layer {
  name: "loss"
  type: "SoftmaxWithLoss"
  bottom: "fc8_2"
  bottom: "label"
  top: "loss"
}
I1201 02:05:54.736361  8254 layer_factory.hpp:77] Creating layer data
I1201 02:05:54.736532  8254 net.cpp:100] Creating Layer data
I1201 02:05:54.736546  8254 net.cpp:408] data -> data
I1201 02:05:54.736577  8254 net.cpp:408] data -> label
I1201 02:05:54.736634  8254 data_transformer.cpp:25] Loading mean file from: /home/tbochens/Nets/FineTuning/imagenet_mean.binaryproto
I1201 02:05:54.738340  8261 db_lmdb.cpp:35] Opened lmdb /home/tbochens/Nets/FineTuning/Facebook/thumb_2/train_thumb_2_lmdb
I1201 02:05:54.761567  8254 data_layer.cpp:41] output data size: 64,3,227,227
I1201 02:05:54.861943  8254 net.cpp:150] Setting up data
I1201 02:05:54.861984  8254 net.cpp:157] Top shape: 64 3 227 227 (9893568)
I1201 02:05:54.861989  8254 net.cpp:157] Top shape: 64 (64)
I1201 02:05:54.861992  8254 net.cpp:165] Memory required for data: 39574528
I1201 02:05:54.862007  8254 layer_factory.hpp:77] Creating layer conv1
I1201 02:05:54.862041  8254 net.cpp:100] Creating Layer conv1
I1201 02:05:54.862047  8254 net.cpp:434] conv1 <- data
I1201 02:05:54.862066  8254 net.cpp:408] conv1 -> conv1
I1201 02:05:55.120065  8254 net.cpp:150] Setting up conv1
I1201 02:05:55.120115  8254 net.cpp:157] Top shape: 64 96 55 55 (18585600)
I1201 02:05:55.120120  8254 net.cpp:165] Memory required for data: 113916928
I1201 02:05:55.120164  8254 layer_factory.hpp:77] Creating layer relu1
I1201 02:05:55.120237  8254 net.cpp:100] Creating Layer relu1
I1201 02:05:55.120256  8254 net.cpp:434] relu1 <- conv1
I1201 02:05:55.120262  8254 net.cpp:395] relu1 -> conv1 (in-place)
I1201 02:05:55.120614  8254 net.cpp:150] Setting up relu1
I1201 02:05:55.120628  8254 net.cpp:157] Top shape: 64 96 55 55 (18585600)
I1201 02:05:55.120631  8254 net.cpp:165] Memory required for data: 188259328
I1201 02:05:55.120635  8254 layer_factory.hpp:77] Creating layer pool1
I1201 02:05:55.120651  8254 net.cpp:100] Creating Layer pool1
I1201 02:05:55.120656  8254 net.cpp:434] pool1 <- conv1
I1201 02:05:55.120661  8254 net.cpp:408] pool1 -> pool1
I1201 02:05:55.120723  8254 net.cpp:150] Setting up pool1
I1201 02:05:55.120729  8254 net.cpp:157] Top shape: 64 96 27 27 (4478976)
I1201 02:05:55.120733  8254 net.cpp:165] Memory required for data: 206175232
I1201 02:05:55.120759  8254 layer_factory.hpp:77] Creating layer norm1
I1201 02:05:55.120774  8254 net.cpp:100] Creating Layer norm1
I1201 02:05:55.120776  8254 net.cpp:434] norm1 <- pool1
I1201 02:05:55.120781  8254 net.cpp:408] norm1 -> norm1
I1201 02:05:55.120990  8254 net.cpp:150] Setting up norm1
I1201 02:05:55.121002  8254 net.cpp:157] Top shape: 64 96 27 27 (4478976)
I1201 02:05:55.121006  8254 net.cpp:165] Memory required for data: 224091136
I1201 02:05:55.121011  8254 layer_factory.hpp:77] Creating layer conv2
I1201 02:05:55.121043  8254 net.cpp:100] Creating Layer conv2
I1201 02:05:55.121057  8254 net.cpp:434] conv2 <- norm1
I1201 02:05:55.121063  8254 net.cpp:408] conv2 -> conv2
I1201 02:05:55.127619  8254 net.cpp:150] Setting up conv2
I1201 02:05:55.127636  8254 net.cpp:157] Top shape: 64 256 27 27 (11943936)
I1201 02:05:55.127640  8254 net.cpp:165] Memory required for data: 271866880
I1201 02:05:55.127650  8254 layer_factory.hpp:77] Creating layer relu2
I1201 02:05:55.127656  8254 net.cpp:100] Creating Layer relu2
I1201 02:05:55.127660  8254 net.cpp:434] relu2 <- conv2
I1201 02:05:55.127667  8254 net.cpp:395] relu2 -> conv2 (in-place)
I1201 02:05:55.127877  8254 net.cpp:150] Setting up relu2
I1201 02:05:55.127888  8254 net.cpp:157] Top shape: 64 256 27 27 (11943936)
I1201 02:05:55.127892  8254 net.cpp:165] Memory required for data: 319642624
I1201 02:05:55.127894  8254 layer_factory.hpp:77] Creating layer pool2
I1201 02:05:55.127903  8254 net.cpp:100] Creating Layer pool2
I1201 02:05:55.127907  8254 net.cpp:434] pool2 <- conv2
I1201 02:05:55.127912  8254 net.cpp:408] pool2 -> pool2
I1201 02:05:55.127957  8254 net.cpp:150] Setting up pool2
I1201 02:05:55.127969  8254 net.cpp:157] Top shape: 64 256 13 13 (2768896)
I1201 02:05:55.127970  8254 net.cpp:165] Memory required for data: 330718208
I1201 02:05:55.127974  8254 layer_factory.hpp:77] Creating layer norm2
I1201 02:05:55.127982  8254 net.cpp:100] Creating Layer norm2
I1201 02:05:55.127985  8254 net.cpp:434] norm2 <- pool2
I1201 02:05:55.127990  8254 net.cpp:408] norm2 -> norm2
I1201 02:05:55.128357  8254 net.cpp:150] Setting up norm2
I1201 02:05:55.128373  8254 net.cpp:157] Top shape: 64 256 13 13 (2768896)
I1201 02:05:55.128376  8254 net.cpp:165] Memory required for data: 341793792
I1201 02:05:55.128381  8254 layer_factory.hpp:77] Creating layer conv3
I1201 02:05:55.128394  8254 net.cpp:100] Creating Layer conv3
I1201 02:05:55.128397  8254 net.cpp:434] conv3 <- norm2
I1201 02:05:55.128403  8254 net.cpp:408] conv3 -> conv3
I1201 02:05:55.140966  8254 net.cpp:150] Setting up conv3
I1201 02:05:55.140985  8254 net.cpp:157] Top shape: 64 384 13 13 (4153344)
I1201 02:05:55.140988  8254 net.cpp:165] Memory required for data: 358407168
I1201 02:05:55.140998  8254 layer_factory.hpp:77] Creating layer relu3
I1201 02:05:55.141005  8254 net.cpp:100] Creating Layer relu3
I1201 02:05:55.141008  8254 net.cpp:434] relu3 <- conv3
I1201 02:05:55.141013  8254 net.cpp:395] relu3 -> conv3 (in-place)
I1201 02:05:55.141213  8254 net.cpp:150] Setting up relu3
I1201 02:05:55.141225  8254 net.cpp:157] Top shape: 64 384 13 13 (4153344)
I1201 02:05:55.141227  8254 net.cpp:165] Memory required for data: 375020544
I1201 02:05:55.141232  8254 layer_factory.hpp:77] Creating layer conv4
I1201 02:05:55.141242  8254 net.cpp:100] Creating Layer conv4
I1201 02:05:55.141245  8254 net.cpp:434] conv4 <- conv3
I1201 02:05:55.141253  8254 net.cpp:408] conv4 -> conv4
I1201 02:05:55.151748  8254 net.cpp:150] Setting up conv4
I1201 02:05:55.151767  8254 net.cpp:157] Top shape: 64 384 13 13 (4153344)
I1201 02:05:55.151769  8254 net.cpp:165] Memory required for data: 391633920
I1201 02:05:55.151777  8254 layer_factory.hpp:77] Creating layer relu4
I1201 02:05:55.151784  8254 net.cpp:100] Creating Layer relu4
I1201 02:05:55.151787  8254 net.cpp:434] relu4 <- conv4
I1201 02:05:55.151793  8254 net.cpp:395] relu4 -> conv4 (in-place)
I1201 02:05:55.151998  8254 net.cpp:150] Setting up relu4
I1201 02:05:55.152009  8254 net.cpp:157] Top shape: 64 384 13 13 (4153344)
I1201 02:05:55.152027  8254 net.cpp:165] Memory required for data: 408247296
I1201 02:05:55.152030  8254 layer_factory.hpp:77] Creating layer conv5
I1201 02:05:55.152042  8254 net.cpp:100] Creating Layer conv5
I1201 02:05:55.152045  8254 net.cpp:434] conv5 <- conv4
I1201 02:05:55.152053  8254 net.cpp:408] conv5 -> conv5
I1201 02:05:55.159936  8254 net.cpp:150] Setting up conv5
I1201 02:05:55.159953  8254 net.cpp:157] Top shape: 64 256 13 13 (2768896)
I1201 02:05:55.159956  8254 net.cpp:165] Memory required for data: 419322880
I1201 02:05:55.159968  8254 layer_factory.hpp:77] Creating layer relu5
I1201 02:05:55.159976  8254 net.cpp:100] Creating Layer relu5
I1201 02:05:55.159978  8254 net.cpp:434] relu5 <- conv5
I1201 02:05:55.159983  8254 net.cpp:395] relu5 -> conv5 (in-place)
I1201 02:05:55.160333  8254 net.cpp:150] Setting up relu5
I1201 02:05:55.160348  8254 net.cpp:157] Top shape: 64 256 13 13 (2768896)
I1201 02:05:55.160351  8254 net.cpp:165] Memory required for data: 430398464
I1201 02:05:55.160354  8254 layer_factory.hpp:77] Creating layer pool5
I1201 02:05:55.160365  8254 net.cpp:100] Creating Layer pool5
I1201 02:05:55.160369  8254 net.cpp:434] pool5 <- conv5
I1201 02:05:55.160377  8254 net.cpp:408] pool5 -> pool5
I1201 02:05:55.160426  8254 net.cpp:150] Setting up pool5
I1201 02:05:55.160434  8254 net.cpp:157] Top shape: 64 256 6 6 (589824)
I1201 02:05:55.160437  8254 net.cpp:165] Memory required for data: 432757760
I1201 02:05:55.160440  8254 layer_factory.hpp:77] Creating layer fc6
I1201 02:05:55.160451  8254 net.cpp:100] Creating Layer fc6
I1201 02:05:55.160454  8254 net.cpp:434] fc6 <- pool5
I1201 02:05:55.160459  8254 net.cpp:408] fc6 -> fc6
I1201 02:05:55.609352  8254 net.cpp:150] Setting up fc6
I1201 02:05:55.609416  8254 net.cpp:157] Top shape: 64 4096 (262144)
I1201 02:05:55.609417  8254 net.cpp:165] Memory required for data: 433806336
I1201 02:05:55.609429  8254 layer_factory.hpp:77] Creating layer relu6
I1201 02:05:55.609444  8254 net.cpp:100] Creating Layer relu6
I1201 02:05:55.609447  8254 net.cpp:434] relu6 <- fc6
I1201 02:05:55.609454  8254 net.cpp:395] relu6 -> fc6 (in-place)
I1201 02:05:55.609791  8254 net.cpp:150] Setting up relu6
I1201 02:05:55.609800  8254 net.cpp:157] Top shape: 64 4096 (262144)
I1201 02:05:55.609802  8254 net.cpp:165] Memory required for data: 434854912
I1201 02:05:55.609807  8254 layer_factory.hpp:77] Creating layer drop6
I1201 02:05:55.609812  8254 net.cpp:100] Creating Layer drop6
I1201 02:05:55.609814  8254 net.cpp:434] drop6 <- fc6
I1201 02:05:55.609820  8254 net.cpp:395] drop6 -> fc6 (in-place)
I1201 02:05:55.609869  8254 net.cpp:150] Setting up drop6
I1201 02:05:55.609887  8254 net.cpp:157] Top shape: 64 4096 (262144)
I1201 02:05:55.609889  8254 net.cpp:165] Memory required for data: 435903488
I1201 02:05:55.609892  8254 layer_factory.hpp:77] Creating layer fc7
I1201 02:05:55.609900  8254 net.cpp:100] Creating Layer fc7
I1201 02:05:55.609902  8254 net.cpp:434] fc7 <- fc6
I1201 02:05:55.609907  8254 net.cpp:408] fc7 -> fc7
I1201 02:05:55.785228  8254 net.cpp:150] Setting up fc7
I1201 02:05:55.785259  8254 net.cpp:157] Top shape: 64 4096 (262144)
I1201 02:05:55.785261  8254 net.cpp:165] Memory required for data: 436952064
I1201 02:05:55.785272  8254 layer_factory.hpp:77] Creating layer relu7
I1201 02:05:55.785284  8254 net.cpp:100] Creating Layer relu7
I1201 02:05:55.785287  8254 net.cpp:434] relu7 <- fc7
I1201 02:05:55.785301  8254 net.cpp:395] relu7 -> fc7 (in-place)
I1201 02:05:55.785832  8254 net.cpp:150] Setting up relu7
I1201 02:05:55.785843  8254 net.cpp:157] Top shape: 64 4096 (262144)
I1201 02:05:55.785845  8254 net.cpp:165] Memory required for data: 438000640
I1201 02:05:55.785848  8254 layer_factory.hpp:77] Creating layer drop7
I1201 02:05:55.785854  8254 net.cpp:100] Creating Layer drop7
I1201 02:05:55.785857  8254 net.cpp:434] drop7 <- fc7
I1201 02:05:55.785862  8254 net.cpp:395] drop7 -> fc7 (in-place)
I1201 02:05:55.785888  8254 net.cpp:150] Setting up drop7
I1201 02:05:55.785892  8254 net.cpp:157] Top shape: 64 4096 (262144)
I1201 02:05:55.785924  8254 net.cpp:165] Memory required for data: 439049216
I1201 02:05:55.785926  8254 layer_factory.hpp:77] Creating layer fc8_2
I1201 02:05:55.785935  8254 net.cpp:100] Creating Layer fc8_2
I1201 02:05:55.785938  8254 net.cpp:434] fc8_2 <- fc7
I1201 02:05:55.785943  8254 net.cpp:408] fc8_2 -> fc8_2
I1201 02:05:55.786710  8254 net.cpp:150] Setting up fc8_2
I1201 02:05:55.786720  8254 net.cpp:157] Top shape: 64 2 (128)
I1201 02:05:55.786722  8254 net.cpp:165] Memory required for data: 439049728
I1201 02:05:55.786728  8254 layer_factory.hpp:77] Creating layer loss
I1201 02:05:55.786733  8254 net.cpp:100] Creating Layer loss
I1201 02:05:55.786736  8254 net.cpp:434] loss <- fc8_2
I1201 02:05:55.786739  8254 net.cpp:434] loss <- label
I1201 02:05:55.786747  8254 net.cpp:408] loss -> loss
I1201 02:05:55.786797  8254 layer_factory.hpp:77] Creating layer loss
…
I1201 02:05:55.787739  8254 net.cpp:322] The NetState phase (1) differed from the phase (0) specified by a rule in layer data
I1201 02:05:55.787886  8254 net.cpp:58] Initializing net from parameters: 
name: "VideoPopularityCaffeNet"
state {
  phase: TEST
}
layer {
  name: "data"
  type: "Data"
  top: "data"
  top: "label"
  include {
    phase: TEST
  }
  transform_param {
    mirror: false
    crop_size: 227
    mean_file: "/home/tbochens/Nets/FineTuning/imagenet_mean.binaryproto"
  }
  data_param {
    source: "/home/tbochens/Nets/FineTuning/Facebook/thumb_2/val_thumb_2_lmdb"
    batch_size: 64
    backend: LMDB
  }
}
layer {
  name: "conv1"
  type: "Convolution"
  bottom: "data"
  top: "conv1"
  param {
    lr_mult: 1
    decay_mult: 1
  }
  param {
    lr_mult: 2
    decay_mult: 0
  }
  convolution_param {
    num_output: 96
    kernel_size: 11
    stride: 4
    weight_filler {
      type: "gaussian"
      std: 0.01
    }
    bias_filler {
      type: "constant"
      value: 0
    }
  }
}
layer {
  name: "relu1"
  type: "ReLU"
  bottom: "conv1"
  top: "conv1"
}
layer {
  name: "pool1"
  type: "Pooling"
  bottom: "conv1"
  top: "pool1"
  pooling_param {
    pool: MAX
    kernel_size: 3
    stride: 2
  }
}
layer {
  name: "norm1"
  type: "LRN"
  bottom: "pool1"
  top: "norm1"
  lrn_param {
    local_size: 5
    alpha: 0.0001
    beta: 0.75
  }
}
layer {
  name: "conv2"
  type: "Convolution"
  bottom: "norm1"
  top: "conv2"
  param {
    lr_mult: 1
    decay_mult: 1
  }
  param {
    lr_mult: 2
    decay_mult: 0
  }
  convolution_param {
    num_output: 256
    pad: 2
    kernel_size: 5
    group: 2
    weight_filler {
      type: "gaussian"
      std: 0.01
    }
    bias_filler {
      type: "constant"
      value: 1
    }
  }
}
layer {
  name: "relu2"
  type: "ReLU"
  bottom: "conv2"
  top: "conv2"
}
layer {
  name: "pool2"
  type: "Pooling"
  bottom: "conv2"
  top: "pool2"
  pooling_param {
    pool: MAX
    kernel_size: 3
    stride: 2
  }
}
layer {
  name: "norm2"
  type: "LRN"
  bottom: "pool2"
  top: "norm2"
  lrn_param {
    local_size: 5
    alpha: 0.0001
    beta: 0.75
  }
}
layer {
  name: "conv3"
  type: "Convolution"
  bottom: "norm2"
  top: "conv3"
  param {
    lr_mult: 1
    decay_mult: 1
  }
  param {
    lr_mult: 2
    decay_mult: 0
  }
  convolution_param {
    num_output: 384
    pad: 1
    kernel_size: 3
    weight_filler {
      type: "gaussian"
      std: 0.01
    }
    bias_filler {
      type: "constant"
      value: 0
    }
  }
}
layer {
  name: "relu3"
  type: "ReLU"
  bottom: "conv3"
  top: "conv3"
}
layer {
  name: "conv4"
  type: "Convolution"
  bottom: "conv3"
  top: "conv4"
  param {
    lr_mult: 1
    decay_mult: 1
  }
  param {
    lr_mult: 2
    decay_mult: 0
  }
  convolution_param {
    num_output: 384
    pad: 1
    kernel_size: 3
    group: 2
    weight_filler {
      type: "gaussian"
      std: 0.01
    }
    bias_filler {
      type: "constant"
      value: 1
    }
  }
}
layer {
  name: "relu4"
  type: "ReLU"
  bottom: "conv4"
  top: "conv4"
}
layer {
  name: "conv5"
  type: "Convolution"
  bottom: "conv4"
  top: "conv5"
  param {
    lr_mult: 1
    decay_mult: 1
  }
  param {
    lr_mult: 2
    decay_mult: 0
  }
  convolution_param {
    num_output: 256
    pad: 1
    kernel_size: 3
    group: 2
    weight_filler {
      type: "gaussian"
      std: 0.01
    }
    bias_filler {
      type: "constant"
      value: 1
    }
  }
}
layer {
  name: "relu5"
  type: "ReLU"
  bottom: "conv5"
  top: "conv5"
}
layer {
  name: "pool5"
  type: "Pooling"
  bottom: "conv5"
  top: "pool5"
  pooling_param {
    pool: MAX
    kernel_size: 3
    stride: 2
  }
}
layer {
  name: "fc6"
  type: "InnerProduct"
  bottom: "pool5"
  top: "fc6"
  param {
    lr_mult: 1
    decay_mult: 1
  }
  param {
    lr_mult: 2
    decay_mult: 0
  }
  inner_product_param {
    num_output: 4096
    weight_filler {
      type: "gaussian"
      std: 0.005
    }
    bias_filler {
      type: "constant"
      value: 1
    }
  }
}
layer {
  name: "relu6"
  type: "ReLU"
  bottom: "fc6"
  top: "fc6"
}
layer {
  name: "drop6"
  type: "Dropout"
  bottom: "fc6"
  top: "fc6"
  dropout_param {
    dropout_ratio: 0.5
  }
}
layer {
  name: "fc7"
  type: "InnerProduct"
  bottom: "fc6"
  top: "fc7"
  param {
    lr_mult: 1
    decay_mult: 1
  }
  param {
    lr_mult: 2
    decay_mult: 0
  }
  inner_product_param {
    num_output: 4096
    weight_filler {
      type: "gaussian"
      std: 0.005
    }
    bias_filler {
      type: "constant"
      value: 1
    }
  }
}
layer {
  name: "relu7"
  type: "ReLU"
  bottom: "fc7"
  top: "fc7"
}
layer {
  name: "drop7"
  type: "Dropout"
  bottom: "fc7"
  top: "fc7"
  dropout_param {
    dropout_ratio: 0.5
  }
}
layer {
  name: "fc8_2"
  type: "InnerProduct"
  bottom: "fc7"
  top: "fc8_2"
  param {
    lr_mult: 5
    decay_mult: 1
  }
  param {
    lr_mult: 10
    decay_mult: 0
  }
  inner_product_param {
    num_output: 2
    weight_filler {
      type: "gaussian"
      std: 0.01
    }
    bias_filler {
      type: "constant"
      value: 0
    }
  }
}
layer {
  name: "accuracy"
  type: "Accuracy"
  bottom: "fc8_2"
  bottom: "label"
  top: "accuracy"
  include {
    phase: TEST
  }
}
layer {
  name: "loss"
  type: "SoftmaxWithLoss"
  bottom: "fc8_2"
  bottom: "label"
  top: "loss"
}
I1201 02:05:55.788012  8254 layer_factory.hpp:77] Creating layer data
I1201 02:05:55.788575  8254 net.cpp:100] Creating Layer data
I1201 02:05:55.788583  8254 net.cpp:408] data -> data
I1201 02:05:55.788589  8254 net.cpp:408] data -> label
I1201 02:05:55.788595  8254 data_transformer.cpp:25] Loading mean file from: /home/tbochens/Nets/FineTuning/imagenet_mean.binaryproto
I1201 02:05:55.790979  8263 db_lmdb.cpp:35] Opened lmdb /home/tbochens/Nets/FineTuning/Facebook/thumb_2/val_thumb_2_lmdb
I1201 02:05:55.791592  8254 data_layer.cpp:41] output data size: 64,3,227,227
I1201 02:05:55.872812  8254 net.cpp:150] Setting up data
I1201 02:05:55.872856  8254 net.cpp:157] Top shape: 64 3 227 227 (9893568)
I1201 02:05:55.872860  8254 net.cpp:157] Top shape: 64 (64)
I1201 02:05:55.872864  8254 net.cpp:165] Memory required for data: 39574528
I1201 02:05:55.872870  8254 layer_factory.hpp:77] Creating layer label_data_1_split
I1201 02:05:55.872886  8254 net.cpp:100] Creating Layer label_data_1_split
I1201 02:05:55.872889  8254 net.cpp:434] label_data_1_split <- label
I1201 02:05:55.872907  8254 net.cpp:408] label_data_1_split -> label_data_1_split_0
I1201 02:05:55.872918  8254 net.cpp:408] label_data_1_split -> label_data_1_split_1
I1201 02:05:55.872973  8254 net.cpp:150] Setting up label_data_1_split
I1201 02:05:55.872984  8254 net.cpp:157] Top shape: 64 (64)
I1201 02:05:55.872987  8254 net.cpp:157] Top shape: 64 (64)
I1201 02:05:55.872999  8254 net.cpp:165] Memory required for data: 39575040
I1201 02:05:55.873003  8254 layer_factory.hpp:77] Creating layer conv1
I1201 02:05:55.873015  8254 net.cpp:100] Creating Layer conv1
I1201 02:05:55.873018  8254 net.cpp:434] conv1 <- data
I1201 02:05:55.873023  8254 net.cpp:408] conv1 -> conv1
I1201 02:05:55.874708  8254 net.cpp:150] Setting up conv1
I1201 02:05:55.874733  8254 net.cpp:157] Top shape: 64 96 55 55 (18585600)
I1201 02:05:55.874737  8254 net.cpp:165] Memory required for data: 113917440
I1201 02:05:55.874747  8254 layer_factory.hpp:77] Creating layer relu1
I1201 02:05:55.874763  8254 net.cpp:100] Creating Layer relu1
I1201 02:05:55.874765  8254 net.cpp:434] relu1 <- conv1
I1201 02:05:55.874769  8254 net.cpp:395] relu1 -> conv1 (in-place)
I1201 02:05:55.874929  8254 net.cpp:150] Setting up relu1
I1201 02:05:55.874938  8254 net.cpp:157] Top shape: 64 96 55 55 (18585600)
I1201 02:05:55.874940  8254 net.cpp:165] Memory required for data: 188259840
I1201 02:05:55.874943  8254 layer_factory.hpp:77] Creating layer pool1
I1201 02:05:55.874951  8254 net.cpp:100] Creating Layer pool1
I1201 02:05:55.874953  8254 net.cpp:434] pool1 <- conv1
I1201 02:05:55.874958  8254 net.cpp:408] pool1 -> pool1
I1201 02:05:55.875001  8254 net.cpp:150] Setting up pool1
I1201 02:05:55.875008  8254 net.cpp:157] Top shape: 64 96 27 27 (4478976)
I1201 02:05:55.875010  8254 net.cpp:165] Memory required for data: 206175744
I1201 02:05:55.875012  8254 layer_factory.hpp:77] Creating layer norm1
I1201 02:05:55.875020  8254 net.cpp:100] Creating Layer norm1
I1201 02:05:55.875022  8254 net.cpp:434] norm1 <- pool1
I1201 02:05:55.875026  8254 net.cpp:408] norm1 -> norm1
I1201 02:05:55.875677  8254 net.cpp:150] Setting up norm1
I1201 02:05:55.875686  8254 net.cpp:157] Top shape: 64 96 27 27 (4478976)
I1201 02:05:55.875699  8254 net.cpp:165] Memory required for data: 224091648
I1201 02:05:55.875702  8254 layer_factory.hpp:77] Creating layer conv2
I1201 02:05:55.875710  8254 net.cpp:100] Creating Layer conv2
I1201 02:05:55.875712  8254 net.cpp:434] conv2 <- norm1
I1201 02:05:55.875718  8254 net.cpp:408] conv2 -> conv2
I1201 02:05:55.887006  8254 net.cpp:150] Setting up conv2
I1201 02:05:55.887022  8254 net.cpp:157] Top shape: 64 256 27 27 (11943936)
I1201 02:05:55.887035  8254 net.cpp:165] Memory required for data: 271867392
I1201 02:05:55.887061  8254 layer_factory.hpp:77] Creating layer relu2
I1201 02:05:55.887079  8254 net.cpp:100] Creating Layer relu2
I1201 02:05:55.887082  8254 net.cpp:434] relu2 <- conv2
I1201 02:05:55.887087  8254 net.cpp:395] relu2 -> conv2 (in-place)
I1201 02:05:55.887259  8254 net.cpp:150] Setting up relu2
I1201 02:05:55.887269  8254 net.cpp:157] Top shape: 64 256 27 27 (11943936)
I1201 02:05:55.887270  8254 net.cpp:165] Memory required for data: 319643136
I1201 02:05:55.887272  8254 layer_factory.hpp:77] Creating layer pool2
I1201 02:05:55.887280  8254 net.cpp:100] Creating Layer pool2
I1201 02:05:55.887284  8254 net.cpp:434] pool2 <- conv2
I1201 02:05:55.887287  8254 net.cpp:408] pool2 -> pool2
I1201 02:05:55.887329  8254 net.cpp:150] Setting up pool2
I1201 02:05:55.887336  8254 net.cpp:157] Top shape: 64 256 13 13 (2768896)
I1201 02:05:55.887338  8254 net.cpp:165] Memory required for data: 330718720
I1201 02:05:55.887341  8254 layer_factory.hpp:77] Creating layer norm2
I1201 02:05:55.887346  8254 net.cpp:100] Creating Layer norm2
I1201 02:05:55.887348  8254 net.cpp:434] norm2 <- pool2
I1201 02:05:55.887352  8254 net.cpp:408] norm2 -> norm2
I1201 02:05:55.887671  8254 net.cpp:150] Setting up norm2
I1201 02:05:55.887684  8254 net.cpp:157] Top shape: 64 256 13 13 (2768896)
I1201 02:05:55.887686  8254 net.cpp:165] Memory required for data: 341794304
I1201 02:05:55.887688  8254 layer_factory.hpp:77] Creating layer conv3
I1201 02:05:55.887698  8254 net.cpp:100] Creating Layer conv3
I1201 02:05:55.887701  8254 net.cpp:434] conv3 <- norm2
I1201 02:05:55.887718  8254 net.cpp:408] conv3 -> conv3
I1201 02:05:55.897184  8254 net.cpp:150] Setting up conv3
I1201 02:05:55.897198  8254 net.cpp:157] Top shape: 64 384 13 13 (4153344)
I1201 02:05:55.897212  8254 net.cpp:165] Memory required for data: 358407680
I1201 02:05:55.897220  8254 layer_factory.hpp:77] Creating layer relu3
I1201 02:05:55.897227  8254 net.cpp:100] Creating Layer relu3
I1201 02:05:55.897229  8254 net.cpp:434] relu3 <- conv3
I1201 02:05:55.897233  8254 net.cpp:395] relu3 -> conv3 (in-place)
I1201 02:05:55.897403  8254 net.cpp:150] Setting up relu3
I1201 02:05:55.897413  8254 net.cpp:157] Top shape: 64 384 13 13 (4153344)
I1201 02:05:55.897414  8254 net.cpp:165] Memory required for data: 375021056
I1201 02:05:55.897416  8254 layer_factory.hpp:77] Creating layer conv4
I1201 02:05:55.897425  8254 net.cpp:100] Creating Layer conv4
I1201 02:05:55.897428  8254 net.cpp:434] conv4 <- conv3
I1201 02:05:55.897433  8254 net.cpp:408] conv4 -> conv4
I1201 02:05:55.905633  8254 net.cpp:150] Setting up conv4
I1201 02:05:55.905645  8254 net.cpp:157] Top shape: 64 384 13 13 (4153344)
I1201 02:05:55.905648  8254 net.cpp:165] Memory required for data: 391634432
I1201 02:05:55.905653  8254 layer_factory.hpp:77] Creating layer relu4
I1201 02:05:55.905658  8254 net.cpp:100] Creating Layer relu4
I1201 02:05:55.905661  8254 net.cpp:434] relu4 <- conv4
I1201 02:05:55.905665  8254 net.cpp:395] relu4 -> conv4 (in-place)
I1201 02:05:55.905833  8254 net.cpp:150] Setting up relu4
I1201 02:05:55.905843  8254 net.cpp:157] Top shape: 64 384 13 13 (4153344)
I1201 02:05:55.905844  8254 net.cpp:165] Memory required for data: 408247808
I1201 02:05:55.905846  8254 layer_factory.hpp:77] Creating layer conv5
I1201 02:05:55.905854  8254 net.cpp:100] Creating Layer conv5
I1201 02:05:55.905858  8254 net.cpp:434] conv5 <- conv4
I1201 02:05:55.905864  8254 net.cpp:408] conv5 -> conv5
I1201 02:05:55.912189  8254 net.cpp:150] Setting up conv5
I1201 02:05:55.912204  8254 net.cpp:157] Top shape: 64 256 13 13 (2768896)
I1201 02:05:55.912217  8254 net.cpp:165] Memory required for data: 419323392
I1201 02:05:55.912225  8254 layer_factory.hpp:77] Creating layer relu5
I1201 02:05:55.912232  8254 net.cpp:100] Creating Layer relu5
I1201 02:05:55.912235  8254 net.cpp:434] relu5 <- conv5
I1201 02:05:55.912240  8254 net.cpp:395] relu5 -> conv5 (in-place)
I1201 02:05:55.912439  8254 net.cpp:150] Setting up relu5
I1201 02:05:55.912448  8254 net.cpp:157] Top shape: 64 256 13 13 (2768896)
I1201 02:05:55.912461  8254 net.cpp:165] Memory required for data: 430398976
I1201 02:05:55.912464  8254 layer_factory.hpp:77] Creating layer pool5
I1201 02:05:55.912472  8254 net.cpp:100] Creating Layer pool5
I1201 02:05:55.912475  8254 net.cpp:434] pool5 <- conv5
I1201 02:05:55.912478  8254 net.cpp:408] pool5 -> pool5
I1201 02:05:55.912523  8254 net.cpp:150] Setting up pool5
I1201 02:05:55.912528  8254 net.cpp:157] Top shape: 64 256 6 6 (589824)
I1201 02:05:55.912529  8254 net.cpp:165] Memory required for data: 432758272
I1201 02:05:55.912531  8254 layer_factory.hpp:77] Creating layer fc6
I1201 02:05:55.912539  8254 net.cpp:100] Creating Layer fc6
I1201 02:05:55.912540  8254 net.cpp:434] fc6 <- pool5
I1201 02:05:55.912545  8254 net.cpp:408] fc6 -> fc6
I1201 02:05:56.310684  8254 net.cpp:150] Setting up fc6
I1201 02:05:56.310736  8254 net.cpp:157] Top shape: 64 4096 (262144)
I1201 02:05:56.310739  8254 net.cpp:165] Memory required for data: 433806848
I1201 02:05:56.310751  8254 layer_factory.hpp:77] Creating layer relu6
I1201 02:05:56.310763  8254 net.cpp:100] Creating Layer relu6
I1201 02:05:56.310767  8254 net.cpp:434] relu6 <- fc6
I1201 02:05:56.310775  8254 net.cpp:395] relu6 -> fc6 (in-place)
I1201 02:05:56.311331  8254 net.cpp:150] Setting up relu6
I1201 02:05:56.311343  8254 net.cpp:157] Top shape: 64 4096 (262144)
I1201 02:05:56.311357  8254 net.cpp:165] Memory required for data: 434855424
I1201 02:05:56.311359  8254 layer_factory.hpp:77] Creating layer drop6
I1201 02:05:56.311367  8254 net.cpp:100] Creating Layer drop6
I1201 02:05:56.311372  8254 net.cpp:434] drop6 <- fc6
I1201 02:05:56.311378  8254 net.cpp:395] drop6 -> fc6 (in-place)
I1201 02:05:56.311419  8254 net.cpp:150] Setting up drop6
I1201 02:05:56.311424  8254 net.cpp:157] Top shape: 64 4096 (262144)
I1201 02:05:56.311426  8254 net.cpp:165] Memory required for data: 435904000
I1201 02:05:56.311429  8254 layer_factory.hpp:77] Creating layer fc7
I1201 02:05:56.311437  8254 net.cpp:100] Creating Layer fc7
I1201 02:05:56.311439  8254 net.cpp:434] fc7 <- fc6
I1201 02:05:56.311445  8254 net.cpp:408] fc7 -> fc7
I1201 02:05:56.493073  8254 net.cpp:150] Setting up fc7
I1201 02:05:56.493105  8254 net.cpp:157] Top shape: 64 4096 (262144)
I1201 02:05:56.493108  8254 net.cpp:165] Memory required for data: 436952576
I1201 02:05:56.493120  8254 layer_factory.hpp:77] Creating layer relu7
I1201 02:05:56.493132  8254 net.cpp:100] Creating Layer relu7
I1201 02:05:56.493147  8254 net.cpp:434] relu7 <- fc7
I1201 02:05:56.493155  8254 net.cpp:395] relu7 -> fc7 (in-place)
I1201 02:05:56.493410  8254 net.cpp:150] Setting up relu7
I1201 02:05:56.493419  8254 net.cpp:157] Top shape: 64 4096 (262144)
I1201 02:05:56.493422  8254 net.cpp:165] Memory required for data: 438001152
I1201 02:05:56.493425  8254 layer_factory.hpp:77] Creating layer drop7
I1201 02:05:56.493432  8254 net.cpp:100] Creating Layer drop7
I1201 02:05:56.493435  8254 net.cpp:434] drop7 <- fc7
I1201 02:05:56.493440  8254 net.cpp:395] drop7 -> fc7 (in-place)
I1201 02:05:56.493469  8254 net.cpp:150] Setting up drop7
I1201 02:05:56.493474  8254 net.cpp:157] Top shape: 64 4096 (262144)
I1201 02:05:56.493475  8254 net.cpp:165] Memory required for data: 439049728
I1201 02:05:56.493477  8254 layer_factory.hpp:77] Creating layer fc8_2
I1201 02:05:56.493486  8254 net.cpp:100] Creating Layer fc8_2
I1201 02:05:56.493489  8254 net.cpp:434] fc8_2 <- fc7
I1201 02:05:56.493494  8254 net.cpp:408] fc8_2 -> fc8_2
I1201 02:05:56.493693  8254 net.cpp:150] Setting up fc8_2
I1201 02:05:56.493701  8254 net.cpp:157] Top shape: 64 2 (128)
I1201 02:05:56.493705  8254 net.cpp:165] Memory required for data: 439050240
I1201 02:05:56.493708  8254 layer_factory.hpp:77] Creating layer fc8_2_fc8_2_0_split
I1201 02:05:56.493716  8254 net.cpp:100] Creating Layer fc8_2_fc8_2_0_split
I1201 02:05:56.493718  8254 net.cpp:434] fc8_2_fc8_2_0_split <- fc8_2
I1201 02:05:56.493724  8254 net.cpp:408] fc8_2_fc8_2_0_split -> fc8_2_fc8_2_0_split_0
I1201 02:05:56.493731  8254 net.cpp:408] fc8_2_fc8_2_0_split -> fc8_2_fc8_2_0_split_1
I1201 02:05:56.493764  8254 net.cpp:150] Setting up fc8_2_fc8_2_0_split
I1201 02:05:56.493798  8254 net.cpp:157] Top shape: 64 2 (128)
I1201 02:05:56.493801  8254 net.cpp:157] Top shape: 64 2 (128)
I1201 02:05:56.493803  8254 net.cpp:165] Memory required for data: 439051264
I1201 02:05:56.493805  8254 layer_factory.hpp:77] Creating layer accuracy
I1201 02:05:56.493825  8254 net.cpp:100] Creating Layer accuracy
I1201 02:05:56.493829  8254 net.cpp:434] accuracy <- fc8_2_fc8_2_0_split_0
I1201 02:05:56.493832  8254 net.cpp:434] accuracy <- label_data_1_split_0
I1201 02:05:56.493837  8254 net.cpp:408] accuracy -> accuracy
…
