…
I1223 20:34:54.596040 47803 net.cpp:322] The NetState phase (0) differed from the phase (1) specified by a rule in layer reshape-label
I1223 20:34:54.596057 47803 net.cpp:322] The NetState phase (0) differed from the phase (1) specified by a rule in layer reshape-cm
I1223 20:34:54.596343 47803 net.cpp:58] Initializing net from parameters: 
name: "lstm_joints"
state {
  phase: TRAIN
  level: 0
  stage: ""
}
layer {
  name: "data"
  type: "Python"
  top: "data"
  top: "label"
  top: "clip_markers"
  include {
    phase: TRAIN
  }
  python_param {
    module: "frame_sequence_layer"
    layer: "videoReadTrain_RGB"
  }
}
layer {
  name: "conv1"
  type: "Convolution"
  bottom: "data"
  top: "conv1"
  param {
    lr_mult: 1
    decay_mult: 1
  }
  param {
    lr_mult: 2
    decay_mult: 0
  }
  convolution_param {
    num_output: 96
    kernel_size: 7
    stride: 2
    weight_filler {
      type: "gaussian"
      std: 0.01
    }
    bias_filler {
      type: "constant"
      value: 0.1
    }
  }
}
layer {
  name: "relu1"
  type: "ReLU"
  bottom: "conv1"
  top: "conv1"
}
layer {
  name: "pool1"
  type: "Pooling"
  bottom: "conv1"
  top: "pool1"
  pooling_param {
    pool: MAX
    kernel_size: 3
    stride: 2
  }
}
layer {
  name: "norm1"
  type: "LRN"
  bottom: "pool1"
  top: "norm1"
  lrn_param {
    local_size: 5
    alpha: 0.0001
    beta: 0.75
  }
}
layer {
  name: "conv2"
  type: "Convolution"
  bottom: "norm1"
  top: "conv2"
  param {
    lr_mult: 1
    decay_mult: 1
  }
  param {
    lr_mult: 2
    decay_mult: 0
  }
  convolution_param {
    num_output: 384
    kernel_size: 5
    group: 2
    stride: 2
    weight_filler {
      type: "gaussian"
      std: 0.01
    }
    bias_filler {
      type: "constant"
      value: 0.1
    }
  }
}
layer {
  name: "relu2"
  type: "ReLU"
  bottom: "conv2"
  top: "conv2"
}
layer {
  name: "pool2"
  type: "Pooling"
  bottom: "conv2"
  top: "pool2"
  pooling_param {
    pool: MAX
    kernel_size: 3
    stride: 2
  }
}
layer {
  name: "norm2"
  type: "LRN"
  bottom: "pool2"
  top: "norm2"
  lrn_param {
    local_size: 5
    alpha: 0.0001
    beta: 0.75
  }
}
layer {
  name: "conv3"
  type: "Convolution"
  bottom: "norm2"
  top: "conv3"
  param {
    lr_mult: 1
    decay_mult: 1
  }
  param {
    lr_mult: 2
    decay_mult: 0
  }
  convolution_param {
    num_output: 512
    pad: 1
    kernel_size: 3
    weight_filler {
      type: "gaussian"
      std: 0.01
    }
    bias_filler {
      type: "constant"
      value: 0.1
    }
  }
}
layer {
  name: "relu3"
  type: "ReLU"
  bottom: "conv3"
  top: "conv3"
}
layer {
  name: "conv4"
  type: "Convolution"
  bottom: "conv3"
  top: "conv4"
  param {
    lr_mult: 1
    decay_mult: 1
  }
  param {
    lr_mult: 2
    decay_mult: 0
  }
  convolution_param {
    num_output: 512
    pad: 1
    kernel_size: 3
    group: 2
    weight_filler {
      type: "gaussian"
      std: 0.01
    }
    bias_filler {
      type: "constant"
      value: 0.1
    }
  }
}
layer {
  name: "relu4"
  type: "ReLU"
  bottom: "conv4"
  top: "conv4"
}
layer {
  name: "conv5"
  type: "Convolution"
  bottom: "conv4"
  top: "conv5"
  param {
    lr_mult: 1
    decay_mult: 1
  }
  param {
    lr_mult: 2
    decay_mult: 0
  }
  convolution_param {
    num_output: 384
    pad: 1
    kernel_size: 3
    group: 2
    weight_filler {
      type: "gaussian"
      std: 0.01
    }
    bias_filler {
      type: "constant"
      value: 0.1
    }
  }
}
layer {
  name: "relu5"
  type: "ReLU"
  bottom: "conv5"
  top: "conv5"
}
layer {
  name: "pool5"
  type: "Pooling"
  bottom: "conv5"
  top: "pool5"
  pooling_param {
    pool: MAX
    kernel_size: 3
    stride: 2
  }
}
layer {
  name: "fc6"
  type: "InnerProduct"
  bottom: "pool5"
  top: "fc6"
  param {
    lr_mult: 1
    decay_mult: 1
  }
  param {
    lr_mult: 2
    decay_mult: 0
  }
  inner_product_param {
    num_output: 4096
    weight_filler {
      type: "gaussian"
      std: 0.01
    }
    bias_filler {
      type: "constant"
      value: 0.1
    }
  }
}
layer {
  name: "relu6"
  type: "ReLU"
  bottom: "fc6"
  top: "fc6"
}
layer {
  name: "drop6"
  type: "Dropout"
  bottom: "fc6"
  top: "fc6"
  dropout_param {
    dropout_ratio: 0.9
  }
}
layer {
  name: "reshape-data"
  type: "Reshape"
  bottom: "fc6"
  top: "fc6-reshape"
  include {
    phase: TRAIN
  }
  reshape_param {
    shape {
      dim: 16
      dim: 12
      dim: 4096
    }
  }
}
layer {
  name: "reshape-label"
  type: "Reshape"
  bottom: "label"
  top: "reshape-label"
  include {
    phase: TRAIN
  }
  reshape_param {
    shape {
      dim: 16
      dim: 12
    }
  }
}
layer {
  name: "reshape-cm"
  type: "Reshape"
  bottom: "clip_markers"
  top: "reshape-cm"
  include {
    phase: TRAIN
  }
  reshape_param {
    shape {
      dim: 16
      dim: 12
    }
  }
}
layer {
  name: "lstm1"
  type: "LSTM"
  bottom: "fc6-reshape"
  bottom: "reshape-cm"
  top: "lstm1"
  recurrent_param {
    num_output: 256
    weight_filler {
      type: "uniform"
      min: -0.01
      max: 0.01
    }
    bias_filler {
      type: "constant"
      value: 0
    }
  }
}
layer {
  name: "lstm1-drop"
  type: "Dropout"
  bottom: "lstm1"
  top: "lstm1-drop"
  dropout_param {
    dropout_ratio: 0.5
  }
}
layer {
  name: "fc8-final"
  type: "InnerProduct"
  bottom: "lstm1-drop"
  top: "fc8-final"
  param {
    lr_mult: 10
    decay_mult: 1
  }
  param {
    lr_mult: 20
    decay_mult: 0
  }
  inner_product_param {
    num_output: 2
    weight_filler {
      type: "gaussian"
      std: 0.01
    }
    bias_filler {
      type: "constant"
      value: 0
    }
    axis: 2
  }
}
layer {
  name: "loss"
  type: "SoftmaxWithLoss"
  bottom: "fc8-final"
  bottom: "reshape-label"
  top: "loss"
  softmax_param {
    axis: 2
  }
}
layer {
  name: "accuracy"
  type: "Accuracy"
  bottom: "fc8-final"
  bottom: "reshape-label"
  top: "accuracy"
  accuracy_param {
    axis: 2
  }
}
I1223 20:34:54.597939 47803 layer_factory.hpp:77] Creating layer data
I1223 20:34:55.528478 47803 net.cpp:100] Creating Layer data
I1223 20:34:55.528527 47803 net.cpp:408] data -> data
I1223 20:34:55.528556 47803 net.cpp:408] data -> label
I1223 20:34:55.528571 47803 net.cpp:408] data -> clip_markers
I1223 20:35:06.025775 47803 net.cpp:150] Setting up data
I1223 20:35:06.025914 47803 net.cpp:157] Top shape: 192 3 227 227 (29680704)
I1223 20:35:06.025938 47803 net.cpp:157] Top shape: 192 (192)
I1223 20:35:06.025956 47803 net.cpp:157] Top shape: 192 (192)
I1223 20:35:06.025970 47803 net.cpp:165] Memory required for data: 118724352
I1223 20:35:06.026010 47803 layer_factory.hpp:77] Creating layer conv1
I1223 20:35:06.026069 47803 net.cpp:100] Creating Layer conv1
I1223 20:35:06.026094 47803 net.cpp:434] conv1 <- data
I1223 20:35:06.026137 47803 net.cpp:408] conv1 -> conv1
I1223 20:35:06.273052 47803 net.cpp:150] Setting up conv1
I1223 20:35:06.273175 47803 net.cpp:157] Top shape: 192 96 111 111 (227100672)
I1223 20:35:06.273195 47803 net.cpp:165] Memory required for data: 1027127040
I1223 20:35:06.273254 47803 layer_factory.hpp:77] Creating layer relu1
I1223 20:35:06.273288 47803 net.cpp:100] Creating Layer relu1
I1223 20:35:06.273306 47803 net.cpp:434] relu1 <- conv1
I1223 20:35:06.273327 47803 net.cpp:395] relu1 -> conv1 (in-place)
I1223 20:35:06.273749 47803 net.cpp:150] Setting up relu1
I1223 20:35:06.273785 47803 net.cpp:157] Top shape: 192 96 111 111 (227100672)
I1223 20:35:06.273802 47803 net.cpp:165] Memory required for data: 1935529728
I1223 20:35:06.273818 47803 layer_factory.hpp:77] Creating layer pool1
I1223 20:35:06.273838 47803 net.cpp:100] Creating Layer pool1
I1223 20:35:06.273854 47803 net.cpp:434] pool1 <- conv1
I1223 20:35:06.273874 47803 net.cpp:408] pool1 -> pool1
I1223 20:35:06.273975 47803 net.cpp:150] Setting up pool1
I1223 20:35:06.274003 47803 net.cpp:157] Top shape: 192 96 55 55 (55756800)
I1223 20:35:06.274018 47803 net.cpp:165] Memory required for data: 2158556928
I1223 20:35:06.274032 47803 layer_factory.hpp:77] Creating layer norm1
I1223 20:35:06.274057 47803 net.cpp:100] Creating Layer norm1
I1223 20:35:06.274073 47803 net.cpp:434] norm1 <- pool1
I1223 20:35:06.274091 47803 net.cpp:408] norm1 -> norm1
I1223 20:35:06.274402 47803 net.cpp:150] Setting up norm1
I1223 20:35:06.274443 47803 net.cpp:157] Top shape: 192 96 55 55 (55756800)
I1223 20:35:06.274459 47803 net.cpp:165] Memory required for data: 2381584128
I1223 20:35:06.274482 47803 layer_factory.hpp:77] Creating layer conv2
I1223 20:35:06.274513 47803 net.cpp:100] Creating Layer conv2
I1223 20:35:06.274528 47803 net.cpp:434] conv2 <- norm1
I1223 20:35:06.274549 47803 net.cpp:408] conv2 -> conv2
I1223 20:35:06.285945 47803 net.cpp:150] Setting up conv2
I1223 20:35:06.286053 47803 net.cpp:157] Top shape: 192 384 26 26 (49840128)
I1223 20:35:06.286072 47803 net.cpp:165] Memory required for data: 2580944640
I1223 20:35:06.286104 47803 layer_factory.hpp:77] Creating layer relu2
I1223 20:35:06.286133 47803 net.cpp:100] Creating Layer relu2
I1223 20:35:06.286149 47803 net.cpp:434] relu2 <- conv2
I1223 20:35:06.286170 47803 net.cpp:395] relu2 -> conv2 (in-place)
I1223 20:35:06.286458 47803 net.cpp:150] Setting up relu2
I1223 20:35:06.286494 47803 net.cpp:157] Top shape: 192 384 26 26 (49840128)
I1223 20:35:06.286509 47803 net.cpp:165] Memory required for data: 2780305152
I1223 20:35:06.286525 47803 layer_factory.hpp:77] Creating layer pool2
I1223 20:35:06.286545 47803 net.cpp:100] Creating Layer pool2
I1223 20:35:06.286561 47803 net.cpp:434] pool2 <- conv2
I1223 20:35:06.286581 47803 net.cpp:408] pool2 -> pool2
I1223 20:35:06.286655 47803 net.cpp:150] Setting up pool2
I1223 20:35:06.286681 47803 net.cpp:157] Top shape: 192 384 13 13 (12460032)
I1223 20:35:06.286696 47803 net.cpp:165] Memory required for data: 2830145280
I1223 20:35:06.286711 47803 layer_factory.hpp:77] Creating layer norm2
I1223 20:35:06.286734 47803 net.cpp:100] Creating Layer norm2
I1223 20:35:06.286751 47803 net.cpp:434] norm2 <- pool2
I1223 20:35:06.286768 47803 net.cpp:408] norm2 -> norm2
I1223 20:35:06.287235 47803 net.cpp:150] Setting up norm2
I1223 20:35:06.287271 47803 net.cpp:157] Top shape: 192 384 13 13 (12460032)
I1223 20:35:06.287286 47803 net.cpp:165] Memory required for data: 2879985408
I1223 20:35:06.287310 47803 layer_factory.hpp:77] Creating layer conv3
I1223 20:35:06.287343 47803 net.cpp:100] Creating Layer conv3
I1223 20:35:06.287359 47803 net.cpp:434] conv3 <- norm2
I1223 20:35:06.287379 47803 net.cpp:408] conv3 -> conv3
I1223 20:35:06.331629 47803 net.cpp:150] Setting up conv3
I1223 20:35:06.331735 47803 net.cpp:157] Top shape: 192 512 13 13 (16613376)
I1223 20:35:06.331756 47803 net.cpp:165] Memory required for data: 2946438912
I1223 20:35:06.331792 47803 layer_factory.hpp:77] Creating layer relu3
I1223 20:35:06.331825 47803 net.cpp:100] Creating Layer relu3
I1223 20:35:06.331846 47803 net.cpp:434] relu3 <- conv3
I1223 20:35:06.331868 47803 net.cpp:395] relu3 -> conv3 (in-place)
I1223 20:35:06.332151 47803 net.cpp:150] Setting up relu3
I1223 20:35:06.332185 47803 net.cpp:157] Top shape: 192 512 13 13 (16613376)
I1223 20:35:06.332203 47803 net.cpp:165] Memory required for data: 3012892416
I1223 20:35:06.332219 47803 layer_factory.hpp:77] Creating layer conv4
I1223 20:35:06.332252 47803 net.cpp:100] Creating Layer conv4
I1223 20:35:06.332270 47803 net.cpp:434] conv4 <- conv3
I1223 20:35:06.332304 47803 net.cpp:408] conv4 -> conv4
I1223 20:35:06.356145 47803 net.cpp:150] Setting up conv4
I1223 20:35:06.356253 47803 net.cpp:157] Top shape: 192 512 13 13 (16613376)
I1223 20:35:06.356271 47803 net.cpp:165] Memory required for data: 3079345920
I1223 20:35:06.356307 47803 layer_factory.hpp:77] Creating layer relu4
I1223 20:35:06.356338 47803 net.cpp:100] Creating Layer relu4
I1223 20:35:06.356356 47803 net.cpp:434] relu4 <- conv4
I1223 20:35:06.356377 47803 net.cpp:395] relu4 -> conv4 (in-place)
I1223 20:35:06.356632 47803 net.cpp:150] Setting up relu4
I1223 20:35:06.356662 47803 net.cpp:157] Top shape: 192 512 13 13 (16613376)
I1223 20:35:06.356678 47803 net.cpp:165] Memory required for data: 3145799424
I1223 20:35:06.356693 47803 layer_factory.hpp:77] Creating layer conv5
I1223 20:35:06.356722 47803 net.cpp:100] Creating Layer conv5
I1223 20:35:06.356739 47803 net.cpp:434] conv5 <- conv4
I1223 20:35:06.356760 47803 net.cpp:408] conv5 -> conv5
I1223 20:35:06.380282 47803 net.cpp:150] Setting up conv5
I1223 20:35:06.380395 47803 net.cpp:157] Top shape: 192 384 13 13 (12460032)
I1223 20:35:06.380416 47803 net.cpp:165] Memory required for data: 3195639552
I1223 20:35:06.380456 47803 layer_factory.hpp:77] Creating layer relu5
I1223 20:35:06.380487 47803 net.cpp:100] Creating Layer relu5
I1223 20:35:06.380506 47803 net.cpp:434] relu5 <- conv5
I1223 20:35:06.380535 47803 net.cpp:395] relu5 -> conv5 (in-place)
I1223 20:35:06.380973 47803 net.cpp:150] Setting up relu5
I1223 20:35:06.381011 47803 net.cpp:157] Top shape: 192 384 13 13 (12460032)
I1223 20:35:06.381029 47803 net.cpp:165] Memory required for data: 3245479680
I1223 20:35:06.381047 47803 layer_factory.hpp:77] Creating layer pool5
I1223 20:35:06.381072 47803 net.cpp:100] Creating Layer pool5
I1223 20:35:06.381090 47803 net.cpp:434] pool5 <- conv5
I1223 20:35:06.381114 47803 net.cpp:408] pool5 -> pool5
I1223 20:35:06.381201 47803 net.cpp:150] Setting up pool5
I1223 20:35:06.381227 47803 net.cpp:157] Top shape: 192 384 6 6 (2654208)
I1223 20:35:06.381242 47803 net.cpp:165] Memory required for data: 3256096512
I1223 20:35:06.381263 47803 layer_factory.hpp:77] Creating layer fc6
I1223 20:35:06.381296 47803 net.cpp:100] Creating Layer fc6
I1223 20:35:06.381315 47803 net.cpp:434] fc6 <- pool5
I1223 20:35:06.381335 47803 net.cpp:408] fc6 -> fc6
I1223 20:35:07.563949 47803 net.cpp:150] Setting up fc6
I1223 20:35:07.564083 47803 net.cpp:157] Top shape: 192 4096 (786432)
I1223 20:35:07.564105 47803 net.cpp:165] Memory required for data: 3259242240
I1223 20:35:07.564136 47803 layer_factory.hpp:77] Creating layer relu6
I1223 20:35:07.564168 47803 net.cpp:100] Creating Layer relu6
I1223 20:35:07.564193 47803 net.cpp:434] relu6 <- fc6
I1223 20:35:07.564215 47803 net.cpp:395] relu6 -> fc6 (in-place)
I1223 20:35:07.564601 47803 net.cpp:150] Setting up relu6
I1223 20:35:07.564632 47803 net.cpp:157] Top shape: 192 4096 (786432)
I1223 20:35:07.564649 47803 net.cpp:165] Memory required for data: 3262387968
I1223 20:35:07.564666 47803 layer_factory.hpp:77] Creating layer drop6
I1223 20:35:07.564690 47803 net.cpp:100] Creating Layer drop6
I1223 20:35:07.564708 47803 net.cpp:434] drop6 <- fc6
I1223 20:35:07.564728 47803 net.cpp:395] drop6 -> fc6 (in-place)
I1223 20:35:07.564800 47803 net.cpp:150] Setting up drop6
I1223 20:35:07.564824 47803 net.cpp:157] Top shape: 192 4096 (786432)
I1223 20:35:07.564841 47803 net.cpp:165] Memory required for data: 3265533696
I1223 20:35:07.564857 47803 layer_factory.hpp:77] Creating layer reshape-data
I1223 20:35:07.564883 47803 net.cpp:100] Creating Layer reshape-data
I1223 20:35:07.564900 47803 net.cpp:434] reshape-data <- fc6
I1223 20:35:07.564924 47803 net.cpp:408] reshape-data -> fc6-reshape
I1223 20:35:07.564995 47803 net.cpp:150] Setting up reshape-data
I1223 20:35:07.565021 47803 net.cpp:157] Top shape: 16 12 4096 (786432)
I1223 20:35:07.565037 47803 net.cpp:165] Memory required for data: 3268679424
I1223 20:35:07.565057 47803 layer_factory.hpp:77] Creating layer reshape-label
I1223 20:35:07.565076 47803 net.cpp:100] Creating Layer reshape-label
I1223 20:35:07.565109 47803 net.cpp:434] reshape-label <- label
I1223 20:35:07.565138 47803 net.cpp:408] reshape-label -> reshape-label
I1223 20:35:07.565196 47803 net.cpp:150] Setting up reshape-label
I1223 20:35:07.565218 47803 net.cpp:157] Top shape: 16 12 (192)
I1223 20:35:07.565234 47803 net.cpp:165] Memory required for data: 3268680192
I1223 20:35:07.565249 47803 layer_factory.hpp:77] Creating layer reshape-label_reshape-label_0_split
I1223 20:35:07.565273 47803 net.cpp:100] Creating Layer reshape-label_reshape-label_0_split
I1223 20:35:07.565290 47803 net.cpp:434] reshape-label_reshape-label_0_split <- reshape-label
I1223 20:35:07.565310 47803 net.cpp:408] reshape-label_reshape-label_0_split -> reshape-label_reshape-label_0_split_0
I1223 20:35:07.565337 47803 net.cpp:408] reshape-label_reshape-label_0_split -> reshape-label_reshape-label_0_split_1
I1223 20:35:07.565407 47803 net.cpp:150] Setting up reshape-label_reshape-label_0_split
I1223 20:35:07.565433 47803 net.cpp:157] Top shape: 16 12 (192)
I1223 20:35:07.565450 47803 net.cpp:157] Top shape: 16 12 (192)
I1223 20:35:07.565464 47803 net.cpp:165] Memory required for data: 3268681728
I1223 20:35:07.565480 47803 layer_factory.hpp:77] Creating layer reshape-cm
I1223 20:35:07.565500 47803 net.cpp:100] Creating Layer reshape-cm
I1223 20:35:07.565516 47803 net.cpp:434] reshape-cm <- clip_markers
I1223 20:35:07.565538 47803 net.cpp:408] reshape-cm -> reshape-cm
I1223 20:35:07.565589 47803 net.cpp:150] Setting up reshape-cm
I1223 20:35:07.565614 47803 net.cpp:157] Top shape: 16 12 (192)
I1223 20:35:07.565630 47803 net.cpp:165] Memory required for data: 3268682496
I1223 20:35:07.565651 47803 layer_factory.hpp:77] Creating layer lstm1
I1223 20:35:07.565675 47803 net.cpp:100] Creating Layer lstm1
I1223 20:35:07.565692 47803 net.cpp:434] lstm1 <- fc6-reshape
I1223 20:35:07.565709 47803 net.cpp:434] lstm1 <- reshape-cm
I1223 20:35:07.565729 47803 net.cpp:408] lstm1 -> lstm1
I1223 20:35:07.565757 47803 recurrent_layer.cpp:20] Initializing recurrent layer: assuming input batch contains 16 timesteps of 12 independent streams.
I1223 20:35:07.566792 47803 net.cpp:58] Initializing net from parameters: 
layer {
  name: "lstm1_"
  type: "Input"
  top: "x"
  top: "cont"
  input_param {
    shape {
      dim: 16
      dim: 12
      dim: 4096
    }
    shape {
      dim: 16
      dim: 12
    }
  }
}
layer {
  name: "lstm1_"
  type: "Input"
  top: "c_0"
  top: "h_0"
  input_param {
    shape {
      dim: 1
      dim: 12
      dim: 256
    }
    shape {
      dim: 1
      dim: 12
      dim: 256
    }
  }
}
layer {
  name: "lstm1_cont_slice"
  type: "Slice"
  bottom: "cont"
  top: "cont_1"
  top: "cont_2"
  top: "cont_3"
  top: "cont_4"
  top: "cont_5"
  top: "cont_6"
  top: "cont_7"
  top: "cont_8"
  top: "cont_9"
  top: "cont_10"
  top: "cont_11"
  top: "cont_12"
  top: "cont_13"
  top: "cont_14"
  top: "cont_15"
  top: "cont_16"
  slice_param {
    axis: 0
  }
}
layer {
  name: "lstm1_x_transform"
  type: "InnerProduct"
  bottom: "x"
  top: "W_xc_x"
  param {
    name: "W_xc"
  }
  param {
    name: "b_c"
  }
  propagate_down: true
  inner_product_param {
    num_output: 1024
    bias_term: true
    weight_filler {
      type: "uniform"
      min: -0.01
      max: 0.01
    }
    bias_filler {
      type: "constant"
      value: 0
    }
    axis: 2
  }
}
layer {
  name: "lstm1_W_xc_x_slice"
  type: "Slice"
  bottom: "W_xc_x"
  top: "W_xc_x_1"
  top: "W_xc_x_2"
  top: "W_xc_x_3"
  top: "W_xc_x_4"
  top: "W_xc_x_5"
  top: "W_xc_x_6"
  top: "W_xc_x_7"
  top: "W_xc_x_8"
  top: "W_xc_x_9"
  top: "W_xc_x_10"
  top: "W_xc_x_11"
  top: "W_xc_x_12"
  top: "W_xc_x_13"
  top: "W_xc_x_14"
  top: "W_xc_x_15"
  top: "W_xc_x_16"
  slice_param {
    axis: 0
  }
}
layer {
  name: "lstm1_h_conted_0"
  type: "Scale"
  bottom: "h_0"
  bottom: "cont_1"
  top: "h_conted_0"
  scale_param {
    axis: 0
  }
}
layer {
  name: "lstm1_transform_1"
  type: "InnerProduct"
  bottom: "h_conted_0"
  top: "W_hc_h_0"
  param {
    name: "W_hc"
  }
  inner_product_param {
    num_output: 1024
    bias_term: false
    weight_filler {
      type: "uniform"
      min: -0.01
      max: 0.01
    }
    axis: 2
  }
}
layer {
  name: "lstm1_gate_input_1"
  type: "Eltwise"
  bottom: "W_hc_h_0"
  bottom: "W_xc_x_1"
  top: "gate_input_1"
  eltwise_param {
    operation: SUM
  }
}
layer {
  name: "lstm1_unit_1"
  type: "LSTMUnit"
  bottom: "c_0"
  bottom: "gate_input_1"
  bottom: "cont_1"
  top: "c_1"
  top: "h_1"
}
layer {
  name: "lstm1_h_conted_1"
  type: "Scale"
  bottom: "h_1"
  bottom: "cont_2"
  top: "h_conted_1"
  scale_param {
    axis: 0
  }
}
layer {
  name: "lstm1_transform_2"
  type: "InnerProduct"
  bottom: "h_conted_1"
  top: "W_hc_h_1"
  param {
    name: "W_hc"
  }
  inner_product_param {
    num_output: 1024
    bias_term: false
    weight_filler {
      type: "uniform"
      min: -0.01
      max: 0.01
    }
    axis: 2
  }
}
layer {
  name: "lstm1_gate_input_2"
  type: "Eltwise"
  bottom: "W_hc_h_1"
  bottom: "W_xc_x_2"
  top: "gate_input_2"
  eltwise_param {
    operation: SUM
  }
}
layer {
  name: "lstm1_unit_2"
  type: "LSTMUnit"
  bottom: "c_1"
  bottom: "gate_input_2"
  bottom: "cont_2"
  top: "c_2"
  top: "h_2"
}
layer {
  name: "lstm1_h_conted_2"
  type: "Scale"
  bottom: "h_2"
  bottom: "cont_3"
  top: "h_conted_2"
  scale_param {
    axis: 0
  }
}
layer {
  name: "lstm1_transform_3"
  type: "InnerProduct"
  bottom: "h_conted_2"
  top: "W_hc_h_2"
  param {
    name: "W_hc"
  }
  inner_product_param {
    num_output: 1024
    bias_term: false
    weight_filler {
      type: "uniform"
      min: -0.01
      max: 0.01
    }
    axis: 2
  }
}
layer {
  name: "lstm1_gate_input_3"
  type: "Eltwise"
  bottom: "W_hc_h_2"
  bottom: "W_xc_x_3"
  top: "gate_input_3"
  eltwise_param {
    operation: SUM
  }
}
layer {
  name: "lstm1_unit_3"
  type: "LSTMUnit"
  bottom: "c_2"
  bottom: "gate_input_3"
  bottom: "cont_3"
  top: "c_3"
  top: "h_3"
}
layer {
  name: "lstm1_h_conted_3"
  type: "Scale"
  bottom: "h_3"
  bottom: "cont_4"
  top: "h_conted_3"
  scale_param {
    axis: 0
  }
}
layer {
  name: "lstm1_transform_4"
  type: "InnerProduct"
  bottom: "h_conted_3"
  top: "W_hc_h_3"
  param {
    name: "W_hc"
  }
  inner_product_param {
    num_output: 1024
    bias_term: false
    weight_filler {
      type: "uniform"
      min: -0.01
      max: 0.01
    }
    axis: 2
  }
}
layer {
  name: "lstm1_gate_input_4"
  type: "Eltwise"
  bottom: "W_hc_h_3"
  bottom: "W_xc_x_4"
  top: "gate_input_4"
  eltwise_param {
    operation: SUM
  }
}
layer {
  name: "lstm1_unit_4"
  type: "LSTMUnit"
  bottom: "c_3"
  bottom: "gate_input_4"
  bottom: "cont_4"
  top: "c_4"
  top: "h_4"
}
layer {
  name: "lstm1_h_conted_4"
  type: "Scale"
  bottom: "h_4"
  bottom: "cont_5"
  top: "h_conted_4"
  scale_param {
    axis: 0
  }
}
layer {
  name: "lstm1_transform_5"
  type: "InnerProduct"
  bottom: "h_conted_4"
  top: "W_hc_h_4"
  param {
    name: "W_hc"
  }
  inner_product_param {
    num_output: 1024
    bias_term: false
    weight_filler {
      type: "uniform"
      min: -0.01
      max: 0.01
    }
    axis: 2
  }
}
layer {
  name: "lstm1_gate_input_5"
  type: "Eltwise"
  bottom: "W_hc_h_4"
  bottom: "W_xc_x_5"
  top: "gate_input_5"
  eltwise_param {
    operation: SUM
  }
}
layer {
  name: "lstm1_unit_5"
  type: "LSTMUnit"
  bottom: "c_4"
  bottom: "gate_input_5"
  bottom: "cont_5"
  top: "c_5"
  top: "h_5"
}
layer {
  name: "lstm1_h_conted_5"
  type: "Scale"
  bottom: "h_5"
  bottom: "cont_6"
  top: "h_conted_5"
  scale_param {
    axis: 0
  }
}
layer {
  name: "lstm1_transform_6"
  type: "InnerProduct"
  bottom: "h_conted_5"
  top: "W_hc_h_5"
  param {
    name: "W_hc"
  }
  inner_product_param {
    num_output: 1024
    bias_term: false
    weight_filler {
      type: "uniform"
      min: -0.01
      max: 0.01
    }
    axis: 2
  }
}
layer {
  name: "lstm1_gate_input_6"
  type: "Eltwise"
  bottom: "W_hc_h_5"
  bottom: "W_xc_x_6"
  top: "gate_input_6"
  eltwise_param {
    operation: SUM
  }
}
layer {
  name: "lstm1_unit_6"
  type: "LSTMUnit"
  bottom: "c_5"
  bottom: "gate_input_6"
  bottom: "cont_6"
  top: "c_6"
  top: "h_6"
}
layer {
  name: "lstm1_h_conted_6"
  type: "Scale"
  bottom: "h_6"
  bottom: "cont_7"
  top: "h_conted_6"
  scale_param {
    axis: 0
  }
}
layer {
  name: "lstm1_transform_7"
  type: "InnerProduct"
  bottom: "h_conted_6"
  top: "W_hc_h_6"
  param {
    name: "W_hc"
  }
  inner_product_param {
    num_output: 1024
    bias_term: false
    weight_filler {
      type: "uniform"
      min: -0.01
      max: 0.01
    }
    axis: 2
  }
}
layer {
  name: "lstm1_gate_input_7"
  type: "Eltwise"
  bottom: "W_hc_h_6"
  bottom: "W_xc_x_7"
  top: "gate_input_7"
  eltwise_param {
    operation: SUM
  }
}
layer {
  name: "lstm1_unit_7"
  type: "LSTMUnit"
  bottom: "c_6"
  bottom: "gate_input_7"
  bottom: "cont_7"
  top: "c_7"
  top: "h_7"
}
layer {
  name: "lstm1_h_conted_7"
  type: "Scale"
  bottom: "h_7"
  bottom: "cont_8"
  top: "h_conted_7"
  scale_param {
    axis: 0
  }
}
layer {
  name: "lstm1_transform_8"
  type: "InnerProduct"
  bottom: "h_conted_7"
  top: "W_hc_h_7"
  param {
    name: "W_hc"
  }
  inner_product_param {
    num_output: 1024
    bias_term: false
    weight_filler {
      type: "uniform"
      min: -0.01
      max: 0.01
    }
    axis: 2
  }
}
layer {
  name: "lstm1_gate_input_8"
  type: "Eltwise"
  bottom: "W_hc_h_7"
  bottom: "W_xc_x_8"
  top: "gate_input_8"
  eltwise_param {
    operation: SUM
  }
}
layer {
  name: "lstm1_unit_8"
  type: "LSTMUnit"
  bottom: "c_7"
  bottom: "gate_input_8"
  bottom: "cont_8"
  top: "c_8"
  top: "h_8"
}
layer {
  name: "lstm1_h_conted_8"
  type: "Scale"
  bottom: "h_8"
  bottom: "cont_9"
  top: "h_conted_8"
  scale_param {
    axis: 0
  }
}
layer {
  name: "lstm1_transform_9"
  type: "InnerProduct"
  bottom: "h_conted_8"
  top: "W_hc_h_8"
  param {
    name: "W_hc"
  }
  inner_product_param {
    num_output: 1024
    bias_term: false
    weight_filler {
      type: "uniform"
      min: -0.01
      max: 0.01
    }
    axis: 2
  }
}
layer {
  name: "lstm1_gate_input_9"
  type: "Eltwise"
  bottom: "W_hc_h_8"
  bottom: "W_xc_x_9"
  top: "gate_input_9"
  eltwise_param {
    operation: SUM
  }
}
layer {
  name: "lstm1_unit_9"
  type: "LSTMUnit"
  bottom: "c_8"
  bottom: "gate_input_9"
  bottom: "cont_9"
  top: "c_9"
  top: "h_9"
}
layer {
  name: "lstm1_h_conted_9"
  type: "Scale"
  bottom: "h_9"
  bottom: "cont_10"
  top: "h_conted_9"
  scale_param {
    axis: 0
  }
}
layer {
  name: "lstm1_transform_10"
  type: "InnerProduct"
  bottom: "h_conted_9"
  top: "W_hc_h_9"
  param {
    name: "W_hc"
  }
  inner_product_param {
    num_output: 1024
    bias_term: false
    weight_filler {
      type: "uniform"
      min: -0.01
      max: 0.01
    }
    axis: 2
  }
}
layer {
  name: "lstm1_gate_input_10"
  type: "Eltwise"
  bottom: "W_hc_h_9"
  bottom: "W_xc_x_10"
  top: "gate_input_10"
  eltwise_param {
    operation: SUM
  }
}
layer {
  name: "lstm1_unit_10"
  type: "LSTMUnit"
  bottom: "c_9"
  bottom: "gate_input_10"
  bottom: "cont_10"
  top: "c_10"
  top: "h_10"
}
layer {
  name: "lstm1_h_conted_10"
  type: "Scale"
  bottom: "h_10"
  bottom: "cont_11"
  top: "h_conted_10"
  scale_param {
    axis: 0
  }
}
layer {
  name: "lstm1_transform_11"
  type: "InnerProduct"
  bottom: "h_conted_10"
  top: "W_hc_h_10"
  param {
    name: "W_hc"
  }
  inner_product_param {
    num_output: 1024
    bias_term: false
    weight_filler {
      type: "uniform"
      min: -0.01
      max: 0.01
    }
    axis: 2
  }
}
layer {
  name: "lstm1_gate_input_11"
  type: "Eltwise"
  bottom: "W_hc_h_10"
  bottom: "W_xc_x_11"
  top: "gate_input_11"
  eltwise_param {
    operation: SUM
  }
}
layer {
  name: "lstm1_unit_11"
  type: "LSTMUnit"
  bottom: "c_10"
  bottom: "gate_input_11"
  bottom: "cont_11"
  top: "c_11"
  top: "h_11"
}
layer {
  name: "lstm1_h_conted_11"
  type: "Scale"
  bottom: "h_11"
  bottom: "cont_12"
  top: "h_conted_11"
  scale_param {
    axis: 0
  }
}
layer {
  name: "lstm1_transform_12"
  type: "InnerProduct"
  bottom: "h_conted_11"
  top: "W_hc_h_11"
  param {
    name: "W_hc"
  }
  inner_product_param {
    num_output: 1024
    bias_term: false
    weight_filler {
      type: "uniform"
      min: -0.01
      max: 0.01
    }
    axis: 2
  }
}
layer {
  name: "lstm1_gate_input_12"
  type: "Eltwise"
  bottom: "W_hc_h_11"
  bottom: "W_xc_x_12"
  top: "gate_input_12"
  eltwise_param {
    operation: SUM
  }
}
layer {
  name: "lstm1_unit_12"
  type: "LSTMUnit"
  bottom: "c_11"
  bottom: "gate_input_12"
  bottom: "cont_12"
  top: "c_12"
  top: "h_12"
}
layer {
  name: "lstm1_h_conted_12"
  type: "Scale"
  bottom: "h_12"
  bottom: "cont_13"
  top: "h_conted_12"
  scale_param {
    axis: 0
  }
}
layer {
  name: "lstm1_transform_13"
  type: "InnerProduct"
  bottom: "h_conted_12"
  top: "W_hc_h_12"
  param {
    name: "W_hc"
  }
  inner_product_param {
    num_output: 1024
    bias_term: false
    weight_filler {
      type: "uniform"
      min: -0.01
      max: 0.01
    }
    axis: 2
  }
}
layer {
  name: "lstm1_gate_input_13"
  type: "Eltwise"
  bottom: "W_hc_h_12"
  bottom: "W_xc_x_13"
  top: "gate_input_13"
  eltwise_param {
    operation: SUM
  }
}
layer {
  name: "lstm1_unit_13"
  type: "LSTMUnit"
  bottom: "c_12"
  bottom: "gate_input_13"
  bottom: "cont_13"
  top: "c_13"
  top: "h_13"
}
layer {
  name: "lstm1_h_conted_13"
  type: "Scale"
  bottom: "h_13"
  bottom: "cont_14"
  top: "h_conted_13"
  scale_param {
    axis: 0
  }
}
layer {
  name: "lstm1_transform_14"
  type: "InnerProduct"
  bottom: "h_conted_13"
  top: "W_hc_h_13"
  param {
    name: "W_hc"
  }
  inner_product_param {
    num_output: 1024
    bias_term: false
    weight_filler {
      type: "uniform"
      min: -0.01
      max: 0.01
    }
    axis: 2
  }
}
layer {
  name: "lstm1_gate_input_14"
  type: "Eltwise"
  bottom: "W_hc_h_13"
  bottom: "W_xc_x_14"
  top: "gate_input_14"
  eltwise_param {
    operation: SUM
  }
}
layer {
  name: "lstm1_unit_14"
  type: "LSTMUnit"
  bottom: "c_13"
  bottom: "gate_input_14"
  bottom: "cont_14"
  top: "c_14"
  top: "h_14"
}
layer {
  name: "lstm1_h_conted_14"
  type: "Scale"
  bottom: "h_14"
  bottom: "cont_15"
  top: "h_conted_14"
  scale_param {
    axis: 0
  }
}
layer {
  name: "lstm1_transform_15"
  type: "InnerProduct"
  bottom: "h_conted_14"
  top: "W_hc_h_14"
  param {
    name: "W_hc"
  }
  inner_product_param {
    num_output: 1024
    bias_term: false
    weight_filler {
      type: "uniform"
      min: -0.01
      max: 0.01
    }
    axis: 2
  }
}
layer {
  name: "lstm1_gate_input_15"
  type: "Eltwise"
  bottom: "W_hc_h_14"
  bottom: "W_xc_x_15"
  top: "gate_input_15"
  eltwise_param {
    operation: SUM
  }
}
layer {
  name: "lstm1_unit_15"
  type: "LSTMUnit"
  bottom: "c_14"
  bottom: "gate_input_15"
  bottom: "cont_15"
  top: "c_15"
  top: "h_15"
}
layer {
  name: "lstm1_h_conted_15"
  type: "Scale"
  bottom: "h_15"
  bottom: "cont_16"
  top: "h_conted_15"
  scale_param {
    axis: 0
  }
}
layer {
  name: "lstm1_transform_16"
  type: "InnerProduct"
  bottom: "h_conted_15"
  top: "W_hc_h_15"
  param {
    name: "W_hc"
  }
  inner_product_param {
    num_output: 1024
    bias_term: false
    weight_filler {
      type: "uniform"
      min: -0.01
      max: 0.01
    }
    axis: 2
  }
}
layer {
  name: "lstm1_gate_input_16"
  type: "Eltwise"
  bottom: "W_hc_h_15"
  bottom: "W_xc_x_16"
  top: "gate_input_16"
  eltwise_param {
    operation: SUM
  }
}
layer {
  name: "lstm1_unit_16"
  type: "LSTMUnit"
  bottom: "c_15"
  bottom: "gate_input_16"
  bottom: "cont_16"
  top: "c_16"
  top: "h_16"
}
layer {
  name: "lstm1_"
  type: "Split"
  bottom: "c_16"
  top: "c_T"
}
layer {
  name: "lstm1_h_concat"
  type: "Concat"
  bottom: "h_1"
  bottom: "h_2"
  bottom: "h_3"
  bottom: "h_4"
  bottom: "h_5"
  bottom: "h_6"
  bottom: "h_7"
  bottom: "h_8"
  bottom: "h_9"
  bottom: "h_10"
  bottom: "h_11"
  bottom: "h_12"
  bottom: "h_13"
  bottom: "h_14"
  bottom: "h_15"
  bottom: "h_16"
  top: "h"
  concat_param {
    axis: 0
  }
}
layer {
  name: "h_pseudoloss"
  type: "Reduction"
  bottom: "h"
  top: "h_pseudoloss"
  loss_weight: 1
}
I1223 20:35:07.570971 47803 layer_factory.hpp:77] Creating layer lstm1_
I1223 20:35:07.571045 47803 net.cpp:100] Creating Layer lstm1_
I1223 20:35:07.571069 47803 net.cpp:408] lstm1_ -> x
I1223 20:35:07.571117 47803 net.cpp:408] lstm1_ -> cont
I1223 20:35:07.571280 47803 net.cpp:150] Setting up lstm1_
I1223 20:35:07.571312 47803 net.cpp:157] Top shape: 16 12 4096 (786432)
I1223 20:35:07.571331 47803 net.cpp:157] Top shape: 16 12 (192)
I1223 20:35:07.571346 47803 net.cpp:165] Memory required for data: 3146496
I1223 20:35:07.571362 47803 layer_factory.hpp:77] Creating layer lstm1_
I1223 20:35:07.571382 47803 net.cpp:100] Creating Layer lstm1_
I1223 20:35:07.571400 47803 net.cpp:408] lstm1_ -> c_0
I1223 20:35:07.571422 47803 net.cpp:408] lstm1_ -> h_0
I1223 20:35:07.571488 47803 net.cpp:150] Setting up lstm1_
I1223 20:35:07.571512 47803 net.cpp:157] Top shape: 1 12 256 (3072)
I1223 20:35:07.571530 47803 net.cpp:157] Top shape: 1 12 256 (3072)
I1223 20:35:07.571544 47803 net.cpp:165] Memory required for data: 3171072
I1223 20:35:07.571560 47803 layer_factory.hpp:77] Creating layer lstm1_cont_slice
I1223 20:35:07.571581 47803 net.cpp:100] Creating Layer lstm1_cont_slice
I1223 20:35:07.571599 47803 net.cpp:434] lstm1_cont_slice <- cont
I1223 20:35:07.571619 47803 net.cpp:408] lstm1_cont_slice -> cont_1
I1223 20:35:07.571645 47803 net.cpp:408] lstm1_cont_slice -> cont_2
…
I1223 20:35:07.571794 47803 net.cpp:408] lstm1_cont_slice -> cont_9
I1223 20:35:07.571815 47803 net.cpp:408] lstm1_cont_slice -> cont_10
I1223 20:35:07.571836 47803 net.cpp:408] lstm1_cont_slice -> cont_11
I1223 20:35:07.571857 47803 net.cpp:408] lstm1_cont_slice -> cont_12
I1223 20:35:07.571878 47803 net.cpp:408] lstm1_cont_slice -> cont_13
I1223 20:35:07.571903 47803 net.cpp:408] lstm1_cont_slice -> cont_14
I1223 20:35:07.571926 47803 net.cpp:408] lstm1_cont_slice -> cont_15
I1223 20:35:07.571948 47803 net.cpp:408] lstm1_cont_slice -> cont_16
I1223 20:35:07.572227 47803 net.cpp:150] Setting up lstm1_cont_slice
I1223 20:35:07.572254 47803 net.cpp:157] Top shape: 1 12 (12)
I1223 20:35:07.572271 47803 net.cpp:157] Top shape: 1 12 (12)
I1223 20:35:07.572288 47803 net.cpp:157] Top shape: 1 12 (12)
I1223 20:35:07.572304 47803 net.cpp:157] Top shape: 1 12 (12)
I1223 20:35:07.572319 47803 net.cpp:157] Top shape: 1 12 (12)
I1223 20:35:07.572336 47803 net.cpp:157] Top shape: 1 12 (12)
I1223 20:35:07.572352 47803 net.cpp:157] Top shape: 1 12 (12)
I1223 20:35:07.572368 47803 net.cpp:157] Top shape: 1 12 (12)
I1223 20:35:07.572384 47803 net.cpp:157] Top shape: 1 12 (12)
I1223 20:35:07.572401 47803 net.cpp:157] Top shape: 1 12 (12)
I1223 20:35:07.572417 47803 net.cpp:157] Top shape: 1 12 (12)
I1223 20:35:07.572432 47803 net.cpp:157] Top shape: 1 12 (12)
I1223 20:35:07.572449 47803 net.cpp:157] Top shape: 1 12 (12)
I1223 20:35:07.572465 47803 net.cpp:157] Top shape: 1 12 (12)
I1223 20:35:07.572481 47803 net.cpp:157] Top shape: 1 12 (12)
I1223 20:35:07.572497 47803 net.cpp:157] Top shape: 1 12 (12)
I1223 20:35:07.572512 47803 net.cpp:165] Memory required for data: 3171840
I1223 20:35:07.572527 47803 layer_factory.hpp:77] Creating layer cont_1_lstm1_cont_slice_0_split
I1223 20:35:07.572551 47803 net.cpp:100] Creating Layer cont_1_lstm1_cont_slice_0_split
I1223 20:35:07.572567 47803 net.cpp:434] cont_1_lstm1_cont_slice_0_split <- cont_1
I1223 20:35:07.572587 47803 net.cpp:408] cont_1_lstm1_cont_slice_0_split -> cont_1_lstm1_cont_slice_0_split_0
I1223 20:35:07.572609 47803 net.cpp:408] cont_1_lstm1_cont_slice_0_split -> cont_1_lstm1_cont_slice_0_split_1
I1223 20:35:07.572675 47803 net.cpp:150] Setting up cont_1_lstm1_cont_slice_0_split
I1223 20:35:07.572701 47803 net.cpp:157] Top shape: 1 12 (12)
I1223 20:35:07.572718 47803 net.cpp:157] Top shape: 1 12 (12)
I1223 20:35:07.572732 47803 net.cpp:165] Memory required for data: 3171936
I1223 20:35:07.572747 47803 layer_factory.hpp:77] Creating layer cont_2_lstm1_cont_slice_1_split
I1223 20:35:07.572777 47803 net.cpp:100] Creating Layer cont_2_lstm1_cont_slice_1_split
I1223 20:35:07.572795 47803 net.cpp:434] cont_2_lstm1_cont_slice_1_split <- cont_2
I1223 20:35:07.572816 47803 net.cpp:408] cont_2_lstm1_cont_slice_1_split -> cont_2_lstm1_cont_slice_1_split_0
I1223 20:35:07.572839 47803 net.cpp:408] cont_2_lstm1_cont_slice_1_split -> cont_2_lstm1_cont_slice_1_split_1
I1223 20:35:07.572903 47803 net.cpp:150] Setting up cont_2_lstm1_cont_slice_1_split
I1223 20:35:07.572926 47803 net.cpp:157] Top shape: 1 12 (12)
I1223 20:35:07.572942 47803 net.cpp:157] Top shape: 1 12 (12)
I1223 20:35:07.572957 47803 net.cpp:165] Memory required for data: 3172032
I1223 20:35:07.572973 47803 layer_factory.hpp:77] Creating layer cont_3_lstm1_cont_slice_2_split
I1223 20:35:07.573005 47803 net.cpp:100] Creating Layer cont_3_lstm1_cont_slice_2_split
I1223 20:35:07.573024 47803 net.cpp:434] cont_3_lstm1_cont_slice_2_split <- cont_3
I1223 20:35:07.573046 47803 net.cpp:408] cont_3_lstm1_cont_slice_2_split -> cont_3_lstm1_cont_slice_2_split_0
I1223 20:35:07.573067 47803 net.cpp:408] cont_3_lstm1_cont_slice_2_split -> cont_3_lstm1_cont_slice_2_split_1
I1223 20:35:07.573130 47803 net.cpp:150] Setting up cont_3_lstm1_cont_slice_2_split
I1223 20:35:07.573156 47803 net.cpp:157] Top shape: 1 12 (12)
I1223 20:35:07.573173 47803 net.cpp:157] Top shape: 1 12 (12)
I1223 20:35:07.573189 47803 net.cpp:165] Memory required for data: 3172128
I1223 20:35:07.573204 47803 layer_factory.hpp:77] Creating layer cont_4_lstm1_cont_slice_3_split
I1223 20:35:07.573221 47803 net.cpp:100] Creating Layer cont_4_lstm1_cont_slice_3_split
I1223 20:35:07.573237 47803 net.cpp:434] cont_4_lstm1_cont_slice_3_split <- cont_4
I1223 20:35:07.573256 47803 net.cpp:408] cont_4_lstm1_cont_slice_3_split -> cont_4_lstm1_cont_slice_3_split_0
I1223 20:35:07.573279 47803 net.cpp:408] cont_4_lstm1_cont_slice_3_split -> cont_4_lstm1_cont_slice_3_split_1
I1223 20:35:07.573345 47803 net.cpp:150] Setting up cont_4_lstm1_cont_slice_3_split
I1223 20:35:07.573369 47803 net.cpp:157] Top shape: 1 12 (12)
I1223 20:35:07.573385 47803 net.cpp:157] Top shape: 1 12 (12)
I1223 20:35:07.573400 47803 net.cpp:165] Memory required for data: 3172224
I1223 20:35:07.573415 47803 layer_factory.hpp:77] Creating layer cont_5_lstm1_cont_slice_4_split
I1223 20:35:07.573434 47803 net.cpp:100] Creating Layer cont_5_lstm1_cont_slice_4_split
I1223 20:35:07.573451 47803 net.cpp:434] cont_5_lstm1_cont_slice_4_split <- cont_5
I1223 20:35:07.573469 47803 net.cpp:408] cont_5_lstm1_cont_slice_4_split -> cont_5_lstm1_cont_slice_4_split_0
I1223 20:35:07.573490 47803 net.cpp:408] cont_5_lstm1_cont_slice_4_split -> cont_5_lstm1_cont_slice_4_split_1
I1223 20:35:07.573552 47803 net.cpp:150] Setting up cont_5_lstm1_cont_slice_4_split
I1223 20:35:07.573575 47803 net.cpp:157] Top shape: 1 12 (12)
I1223 20:35:07.573592 47803 net.cpp:157] Top shape: 1 12 (12)
I1223 20:35:07.573607 47803 net.cpp:165] Memory required for data: 3172320
I1223 20:35:07.573622 47803 layer_factory.hpp:77] Creating layer cont_6_lstm1_cont_slice_5_split
I1223 20:35:07.573642 47803 net.cpp:100] Creating Layer cont_6_lstm1_cont_slice_5_split
I1223 20:35:07.573659 47803 net.cpp:434] cont_6_lstm1_cont_slice_5_split <- cont_6
I1223 20:35:07.573681 47803 net.cpp:408] cont_6_lstm1_cont_slice_5_split -> cont_6_lstm1_cont_slice_5_split_0
I1223 20:35:07.573704 47803 net.cpp:408] cont_6_lstm1_cont_slice_5_split -> cont_6_lstm1_cont_slice_5_split_1
I1223 20:35:07.573763 47803 net.cpp:150] Setting up cont_6_lstm1_cont_slice_5_split
I1223 20:35:07.573786 47803 net.cpp:157] Top shape: 1 12 (12)
I1223 20:35:07.573803 47803 net.cpp:157] Top shape: 1 12 (12)
I1223 20:35:07.573817 47803 net.cpp:165] Memory required for data: 3172416
I1223 20:35:07.573832 47803 layer_factory.hpp:77] Creating layer cont_7_lstm1_cont_slice_6_split
I1223 20:35:07.573853 47803 net.cpp:100] Creating Layer cont_7_lstm1_cont_slice_6_split
I1223 20:35:07.573870 47803 net.cpp:434] cont_7_lstm1_cont_slice_6_split <- cont_7
I1223 20:35:07.573896 47803 net.cpp:408] cont_7_lstm1_cont_slice_6_split -> cont_7_lstm1_cont_slice_6_split_0
I1223 20:35:07.573927 47803 net.cpp:408] cont_7_lstm1_cont_slice_6_split -> cont_7_lstm1_cont_slice_6_split_1
I1223 20:35:07.573992 47803 net.cpp:150] Setting up cont_7_lstm1_cont_slice_6_split
I1223 20:35:07.574015 47803 net.cpp:157] Top shape: 1 12 (12)
I1223 20:35:07.574031 47803 net.cpp:157] Top shape: 1 12 (12)
I1223 20:35:07.574046 47803 net.cpp:165] Memory required for data: 3172512
I1223 20:35:07.574062 47803 layer_factory.hpp:77] Creating layer cont_8_lstm1_cont_slice_7_split
I1223 20:35:07.574084 47803 net.cpp:100] Creating Layer cont_8_lstm1_cont_slice_7_split
I1223 20:35:07.574100 47803 net.cpp:434] cont_8_lstm1_cont_slice_7_split <- cont_8
I1223 20:35:07.574118 47803 net.cpp:408] cont_8_lstm1_cont_slice_7_split -> cont_8_lstm1_cont_slice_7_split_0
I1223 20:35:07.574139 47803 net.cpp:408] cont_8_lstm1_cont_slice_7_split -> cont_8_lstm1_cont_slice_7_split_1
I1223 20:35:07.574203 47803 net.cpp:150] Setting up cont_8_lstm1_cont_slice_7_split
I1223 20:35:07.574244 47803 net.cpp:157] Top shape: 1 12 (12)
I1223 20:35:07.574267 47803 net.cpp:157] Top shape: 1 12 (12)
I1223 20:35:07.574282 47803 net.cpp:165] Memory required for data: 3172608
I1223 20:35:07.574298 47803 layer_factory.hpp:77] Creating layer cont_9_lstm1_cont_slice_8_split
I1223 20:35:07.574316 47803 net.cpp:100] Creating Layer cont_9_lstm1_cont_slice_8_split
I1223 20:35:07.574334 47803 net.cpp:434] cont_9_lstm1_cont_slice_8_split <- cont_9
I1223 20:35:07.574353 47803 net.cpp:408] cont_9_lstm1_cont_slice_8_split -> cont_9_lstm1_cont_slice_8_split_0
I1223 20:35:07.574374 47803 net.cpp:408] cont_9_lstm1_cont_slice_8_split -> cont_9_lstm1_cont_slice_8_split_1
I1223 20:35:07.574440 47803 net.cpp:150] Setting up cont_9_lstm1_cont_slice_8_split
I1223 20:35:07.574467 47803 net.cpp:157] Top shape: 1 12 (12)
I1223 20:35:07.574483 47803 net.cpp:157] Top shape: 1 12 (12)
I1223 20:35:07.574497 47803 net.cpp:165] Memory required for data: 3172704
I1223 20:35:07.574512 47803 layer_factory.hpp:77] Creating layer cont_10_lstm1_cont_slice_9_split
I1223 20:35:07.574530 47803 net.cpp:100] Creating Layer cont_10_lstm1_cont_slice_9_split
I1223 20:35:07.574548 47803 net.cpp:434] cont_10_lstm1_cont_slice_9_split <- cont_10
I1223 20:35:07.574568 47803 net.cpp:408] cont_10_lstm1_cont_slice_9_split -> cont_10_lstm1_cont_slice_9_split_0
I1223 20:35:07.574590 47803 net.cpp:408] cont_10_lstm1_cont_slice_9_split -> cont_10_lstm1_cont_slice_9_split_1
I1223 20:35:07.574654 47803 net.cpp:150] Setting up cont_10_lstm1_cont_slice_9_split
I1223 20:35:07.574677 47803 net.cpp:157] Top shape: 1 12 (12)
I1223 20:35:07.574693 47803 net.cpp:157] Top shape: 1 12 (12)
I1223 20:35:07.574707 47803 net.cpp:165] Memory required for data: 3172800
I1223 20:35:07.574723 47803 layer_factory.hpp:77] Creating layer cont_11_lstm1_cont_slice_10_split
I1223 20:35:07.574741 47803 net.cpp:100] Creating Layer cont_11_lstm1_cont_slice_10_split
I1223 20:35:07.574756 47803 net.cpp:434] cont_11_lstm1_cont_slice_10_split <- cont_11
I1223 20:35:07.574775 47803 net.cpp:408] cont_11_lstm1_cont_slice_10_split -> cont_11_lstm1_cont_slice_10_split_0
I1223 20:35:07.574796 47803 net.cpp:408] cont_11_lstm1_cont_slice_10_split -> cont_11_lstm1_cont_slice_10_split_1
I1223 20:35:07.574861 47803 net.cpp:150] Setting up cont_11_lstm1_cont_slice_10_split
I1223 20:35:07.574883 47803 net.cpp:157] Top shape: 1 12 (12)
I1223 20:35:07.574899 47803 net.cpp:157] Top shape: 1 12 (12)
I1223 20:35:07.574914 47803 net.cpp:165] Memory required for data: 3172896
I1223 20:35:07.574929 47803 layer_factory.hpp:77] Creating layer cont_12_lstm1_cont_slice_11_split
I1223 20:35:07.574947 47803 net.cpp:100] Creating Layer cont_12_lstm1_cont_slice_11_split
I1223 20:35:07.574964 47803 net.cpp:434] cont_12_lstm1_cont_slice_11_split <- cont_12
I1223 20:35:07.574986 47803 net.cpp:408] cont_12_lstm1_cont_slice_11_split -> cont_12_lstm1_cont_slice_11_split_0
I1223 20:35:07.575007 47803 net.cpp:408] cont_12_lstm1_cont_slice_11_split -> cont_12_lstm1_cont_slice_11_split_1
I1223 20:35:07.575084 47803 net.cpp:150] Setting up cont_12_lstm1_cont_slice_11_split
I1223 20:35:07.575109 47803 net.cpp:157] Top shape: 1 12 (12)
I1223 20:35:07.575125 47803 net.cpp:157] Top shape: 1 12 (12)
I1223 20:35:07.575140 47803 net.cpp:165] Memory required for data: 3172992
I1223 20:35:07.575155 47803 layer_factory.hpp:77] Creating layer cont_13_lstm1_cont_slice_12_split
I1223 20:35:07.575173 47803 net.cpp:100] Creating Layer cont_13_lstm1_cont_slice_12_split
I1223 20:35:07.575189 47803 net.cpp:434] cont_13_lstm1_cont_slice_12_split <- cont_13
I1223 20:35:07.575209 47803 net.cpp:408] cont_13_lstm1_cont_slice_12_split -> cont_13_lstm1_cont_slice_12_split_0
I1223 20:35:07.575230 47803 net.cpp:408] cont_13_lstm1_cont_slice_12_split -> cont_13_lstm1_cont_slice_12_split_1
I1223 20:35:07.575294 47803 net.cpp:150] Setting up cont_13_lstm1_cont_slice_12_split
I1223 20:35:07.575316 47803 net.cpp:157] Top shape: 1 12 (12)
I1223 20:35:07.575333 47803 net.cpp:157] Top shape: 1 12 (12)
I1223 20:35:07.575348 47803 net.cpp:165] Memory required for data: 3173088
I1223 20:35:07.575363 47803 layer_factory.hpp:77] Creating layer cont_14_lstm1_cont_slice_13_split
I1223 20:35:07.575390 47803 net.cpp:100] Creating Layer cont_14_lstm1_cont_slice_13_split
I1223 20:35:07.575407 47803 net.cpp:434] cont_14_lstm1_cont_slice_13_split <- cont_14
I1223 20:35:07.575426 47803 net.cpp:408] cont_14_lstm1_cont_slice_13_split -> cont_14_lstm1_cont_slice_13_split_0
I1223 20:35:07.575448 47803 net.cpp:408] cont_14_lstm1_cont_slice_13_split -> cont_14_lstm1_cont_slice_13_split_1
I1223 20:35:07.575510 47803 net.cpp:150] Setting up cont_14_lstm1_cont_slice_13_split
I1223 20:35:07.575533 47803 net.cpp:157] Top shape: 1 12 (12)
I1223 20:35:07.575549 47803 net.cpp:157] Top shape: 1 12 (12)
I1223 20:35:07.575564 47803 net.cpp:165] Memory required for data: 3173184
I1223 20:35:07.575580 47803 layer_factory.hpp:77] Creating layer cont_15_lstm1_cont_slice_14_split
I1223 20:35:07.575598 47803 net.cpp:100] Creating Layer cont_15_lstm1_cont_slice_14_split
I1223 20:35:07.575614 47803 net.cpp:434] cont_15_lstm1_cont_slice_14_split <- cont_15
I1223 20:35:07.575633 47803 net.cpp:408] cont_15_lstm1_cont_slice_14_split -> cont_15_lstm1_cont_slice_14_split_0
I1223 20:35:07.575652 47803 net.cpp:408] cont_15_lstm1_cont_slice_14_split -> cont_15_lstm1_cont_slice_14_split_1
I1223 20:35:07.575714 47803 net.cpp:150] Setting up cont_15_lstm1_cont_slice_14_split
I1223 20:35:07.575736 47803 net.cpp:157] Top shape: 1 12 (12)
I1223 20:35:07.575753 47803 net.cpp:157] Top shape: 1 12 (12)
I1223 20:35:07.575767 47803 net.cpp:165] Memory required for data: 3173280
I1223 20:35:07.575783 47803 layer_factory.hpp:77] Creating layer cont_16_lstm1_cont_slice_15_split
I1223 20:35:07.575799 47803 net.cpp:100] Creating Layer cont_16_lstm1_cont_slice_15_split
I1223 20:35:07.575815 47803 net.cpp:434] cont_16_lstm1_cont_slice_15_split <- cont_16
I1223 20:35:07.575835 47803 net.cpp:408] cont_16_lstm1_cont_slice_15_split -> cont_16_lstm1_cont_slice_15_split_0
I1223 20:35:07.575856 47803 net.cpp:408] cont_16_lstm1_cont_slice_15_split -> cont_16_lstm1_cont_slice_15_split_1
I1223 20:35:07.575918 47803 net.cpp:150] Setting up cont_16_lstm1_cont_slice_15_split
I1223 20:35:07.575940 47803 net.cpp:157] Top shape: 1 12 (12)
I1223 20:35:07.575958 47803 net.cpp:157] Top shape: 1 12 (12)
I1223 20:35:07.575971 47803 net.cpp:165] Memory required for data: 3173376
I1223 20:35:07.575986 47803 layer_factory.hpp:77] Creating layer lstm1_x_transform
I1223 20:35:07.576011 47803 net.cpp:100] Creating Layer lstm1_x_transform
I1223 20:35:07.576028 47803 net.cpp:434] lstm1_x_transform <- x
I1223 20:35:07.576047 47803 net.cpp:408] lstm1_x_transform -> W_xc_x
I1223 20:35:07.632235 47803 net.cpp:150] Setting up lstm1_x_transform
I1223 20:35:07.632344 47803 net.cpp:157] Top shape: 16 12 1024 (196608)
I1223 20:35:07.632364 47803 net.cpp:165] Memory required for data: 3959808
I1223 20:35:07.632400 47803 layer_factory.hpp:77] Creating layer lstm1_W_xc_x_slice
I1223 20:35:07.632432 47803 net.cpp:100] Creating Layer lstm1_W_xc_x_slice
I1223 20:35:07.632467 47803 net.cpp:434] lstm1_W_xc_x_slice <- W_xc_x
I1223 20:35:07.632494 47803 net.cpp:408] lstm1_W_xc_x_slice -> W_xc_x_1
I1223 20:35:07.632524 47803 net.cpp:408] lstm1_W_xc_x_slice -> W_xc_x_2
…
I1223 20:35:07.632702 47803 net.cpp:408] lstm1_W_xc_x_slice -> W_xc_x_10
I1223 20:35:07.632725 47803 net.cpp:408] lstm1_W_xc_x_slice -> W_xc_x_11
I1223 20:35:07.632746 47803 net.cpp:408] lstm1_W_xc_x_slice -> W_xc_x_12
I1223 20:35:07.632787 47803 net.cpp:408] lstm1_W_xc_x_slice -> W_xc_x_13
I1223 20:35:07.632812 47803 net.cpp:408] lstm1_W_xc_x_slice -> W_xc_x_14
I1223 20:35:07.632833 47803 net.cpp:408] lstm1_W_xc_x_slice -> W_xc_x_15
I1223 20:35:07.632855 47803 net.cpp:408] lstm1_W_xc_x_slice -> W_xc_x_16
I1223 20:35:07.633152 47803 net.cpp:150] Setting up lstm1_W_xc_x_slice
I1223 20:35:07.633180 47803 net.cpp:157] Top shape: 1 12 1024 (12288)
I1223 20:35:07.633198 47803 net.cpp:157] Top shape: 1 12 1024 (12288)
I1223 20:35:07.633215 47803 net.cpp:157] Top shape: 1 12 1024 (12288)
I1223 20:35:07.633232 47803 net.cpp:157] Top shape: 1 12 1024 (12288)
I1223 20:35:07.633250 47803 net.cpp:157] Top shape: 1 12 1024 (12288)
I1223 20:35:07.633266 47803 net.cpp:157] Top shape: 1 12 1024 (12288)
I1223 20:35:07.633285 47803 net.cpp:157] Top shape: 1 12 1024 (12288)
I1223 20:35:07.633301 47803 net.cpp:157] Top shape: 1 12 1024 (12288)
I1223 20:35:07.633318 47803 net.cpp:157] Top shape: 1 12 1024 (12288)
I1223 20:35:07.633335 47803 net.cpp:157] Top shape: 1 12 1024 (12288)
I1223 20:35:07.633352 47803 net.cpp:157] Top shape: 1 12 1024 (12288)
I1223 20:35:07.633370 47803 net.cpp:157] Top shape: 1 12 1024 (12288)
I1223 20:35:07.633388 47803 net.cpp:157] Top shape: 1 12 1024 (12288)
I1223 20:35:07.633405 47803 net.cpp:157] Top shape: 1 12 1024 (12288)
I1223 20:35:07.633422 47803 net.cpp:157] Top shape: 1 12 1024 (12288)
I1223 20:35:07.633438 47803 net.cpp:157] Top shape: 1 12 1024 (12288)
I1223 20:35:07.633455 47803 net.cpp:165] Memory required for data: 4746240
I1223 20:35:07.633471 47803 layer_factory.hpp:77] Creating layer lstm1_h_conted_0
I1223 20:35:07.633496 47803 net.cpp:100] Creating Layer lstm1_h_conted_0
I1223 20:35:07.633514 47803 net.cpp:434] lstm1_h_conted_0 <- h_0
I1223 20:35:07.633533 47803 net.cpp:434] lstm1_h_conted_0 <- cont_1_lstm1_cont_slice_0_split_0
I1223 20:35:07.633555 47803 net.cpp:408] lstm1_h_conted_0 -> h_conted_0
I1223 20:35:07.633668 47803 net.cpp:150] Setting up lstm1_h_conted_0
I1223 20:35:07.633692 47803 net.cpp:157] Top shape: 1 12 256 (3072)
I1223 20:35:07.633708 47803 net.cpp:165] Memory required for data: 4758528
I1223 20:35:07.633724 47803 layer_factory.hpp:77] Creating layer lstm1_transform_1
I1223 20:35:07.633750 47803 net.cpp:100] Creating Layer lstm1_transform_1
I1223 20:35:07.633769 47803 net.cpp:434] lstm1_transform_1 <- h_conted_0
I1223 20:35:07.633790 47803 net.cpp:408] lstm1_transform_1 -> W_hc_h_0
I1223 20:35:07.637415 47803 net.cpp:150] Setting up lstm1_transform_1
I1223 20:35:07.637504 47803 net.cpp:157] Top shape: 1 12 1024 (12288)
I1223 20:35:07.637523 47803 net.cpp:165] Memory required for data: 4807680
I1223 20:35:07.637552 47803 layer_factory.hpp:77] Creating layer lstm1_gate_input_1
I1223 20:35:07.637581 47803 net.cpp:100] Creating Layer lstm1_gate_input_1
I1223 20:35:07.637601 47803 net.cpp:434] lstm1_gate_input_1 <- W_hc_h_0
I1223 20:35:07.637621 47803 net.cpp:434] lstm1_gate_input_1 <- W_xc_x_1
I1223 20:35:07.637646 47803 net.cpp:408] lstm1_gate_input_1 -> gate_input_1
I1223 20:35:07.637717 47803 net.cpp:150] Setting up lstm1_gate_input_1
I1223 20:35:07.637753 47803 net.cpp:157] Top shape: 1 12 1024 (12288)
I1223 20:35:07.637771 47803 net.cpp:165] Memory required for data: 4856832
I1223 20:35:07.637787 47803 layer_factory.hpp:77] Creating layer lstm1_unit_1
I1223 20:35:07.637807 47803 net.cpp:100] Creating Layer lstm1_unit_1
I1223 20:35:07.637826 47803 net.cpp:434] lstm1_unit_1 <- c_0
I1223 20:35:07.637845 47803 net.cpp:434] lstm1_unit_1 <- gate_input_1
I1223 20:35:07.637864 47803 net.cpp:434] lstm1_unit_1 <- cont_1_lstm1_cont_slice_0_split_1
I1223 20:35:07.637887 47803 net.cpp:408] lstm1_unit_1 -> c_1
I1223 20:35:07.637909 47803 net.cpp:408] lstm1_unit_1 -> h_1
I1223 20:35:07.637992 47803 net.cpp:150] Setting up lstm1_unit_1
I1223 20:35:07.638016 47803 net.cpp:157] Top shape: 1 12 256 (3072)
I1223 20:35:07.638033 47803 net.cpp:157] Top shape: 1 12 256 (3072)
I1223 20:35:07.638049 47803 net.cpp:165] Memory required for data: 4881408
I1223 20:35:07.638064 47803 layer_factory.hpp:77] Creating layer h_1_lstm1_unit_1_1_split
I1223 20:35:07.638087 47803 net.cpp:100] Creating Layer h_1_lstm1_unit_1_1_split
I1223 20:35:07.638105 47803 net.cpp:434] h_1_lstm1_unit_1_1_split <- h_1
I1223 20:35:07.638125 47803 net.cpp:408] h_1_lstm1_unit_1_1_split -> h_1_lstm1_unit_1_1_split_0
I1223 20:35:07.638149 47803 net.cpp:408] h_1_lstm1_unit_1_1_split -> h_1_lstm1_unit_1_1_split_1
I1223 20:35:07.638219 47803 net.cpp:150] Setting up h_1_lstm1_unit_1_1_split
I1223 20:35:07.638262 47803 net.cpp:157] Top shape: 1 12 256 (3072)
I1223 20:35:07.638281 47803 net.cpp:157] Top shape: 1 12 256 (3072)
I1223 20:35:07.638296 47803 net.cpp:165] Memory required for data: 4905984
I1223 20:35:07.638316 47803 layer_factory.hpp:77] Creating layer lstm1_h_conted_1
I1223 20:35:07.638339 47803 net.cpp:100] Creating Layer lstm1_h_conted_1
I1223 20:35:07.638355 47803 net.cpp:434] lstm1_h_conted_1 <- h_1_lstm1_unit_1_1_split_0
I1223 20:35:07.638375 47803 net.cpp:434] lstm1_h_conted_1 <- cont_2_lstm1_cont_slice_1_split_0
I1223 20:35:07.638394 47803 net.cpp:408] lstm1_h_conted_1 -> h_conted_1
I1223 20:35:07.638507 47803 net.cpp:150] Setting up lstm1_h_conted_1
I1223 20:35:07.638532 47803 net.cpp:157] Top shape: 1 12 256 (3072)
I1223 20:35:07.638548 47803 net.cpp:165] Memory required for data: 4918272
I1223 20:35:07.638564 47803 layer_factory.hpp:77] Creating layer lstm1_transform_2
I1223 20:35:07.638586 47803 net.cpp:100] Creating Layer lstm1_transform_2
I1223 20:35:07.638603 47803 net.cpp:434] lstm1_transform_2 <- h_conted_1
I1223 20:35:07.638626 47803 net.cpp:408] lstm1_transform_2 -> W_hc_h_1
I1223 20:35:07.642222 47803 net.cpp:150] Setting up lstm1_transform_2
I1223 20:35:07.642323 47803 net.cpp:157] Top shape: 1 12 1024 (12288)
I1223 20:35:07.642348 47803 net.cpp:165] Memory required for data: 4967424
I1223 20:35:07.642370 47803 net.cpp:493] Sharing parameters 'W_hc' owned by layer 'lstm1_transform_1', param index 0
I1223 20:35:07.642390 47803 layer_factory.hpp:77] Creating layer lstm1_gate_input_2
I1223 20:35:07.642416 47803 net.cpp:100] Creating Layer lstm1_gate_input_2
I1223 20:35:07.642434 47803 net.cpp:434] lstm1_gate_input_2 <- W_hc_h_1
I1223 20:35:07.642457 47803 net.cpp:434] lstm1_gate_input_2 <- W_xc_x_2
I1223 20:35:07.642478 47803 net.cpp:408] lstm1_gate_input_2 -> gate_input_2
I1223 20:35:07.642551 47803 net.cpp:150] Setting up lstm1_gate_input_2
I1223 20:35:07.642576 47803 net.cpp:157] Top shape: 1 12 1024 (12288)
I1223 20:35:07.642592 47803 net.cpp:165] Memory required for data: 5016576
I1223 20:35:07.642608 47803 layer_factory.hpp:77] Creating layer lstm1_unit_2
I1223 20:35:07.642629 47803 net.cpp:100] Creating Layer lstm1_unit_2
I1223 20:35:07.642647 47803 net.cpp:434] lstm1_unit_2 <- c_1
I1223 20:35:07.642665 47803 net.cpp:434] lstm1_unit_2 <- gate_input_2
I1223 20:35:07.642684 47803 net.cpp:434] lstm1_unit_2 <- cont_2_lstm1_cont_slice_1_split_1
I1223 20:35:07.642704 47803 net.cpp:408] lstm1_unit_2 -> c_2
I1223 20:35:07.642726 47803 net.cpp:408] lstm1_unit_2 -> h_2
I1223 20:35:07.642812 47803 net.cpp:150] Setting up lstm1_unit_2
I1223 20:35:07.642835 47803 net.cpp:157] Top shape: 1 12 256 (3072)
I1223 20:35:07.642863 47803 net.cpp:157] Top shape: 1 12 256 (3072)
I1223 20:35:07.642880 47803 net.cpp:165] Memory required for data: 5041152
I1223 20:35:07.642896 47803 layer_factory.hpp:77] Creating layer h_2_lstm1_unit_2_1_split
I1223 20:35:07.642915 47803 net.cpp:100] Creating Layer h_2_lstm1_unit_2_1_split
I1223 20:35:07.642932 47803 net.cpp:434] h_2_lstm1_unit_2_1_split <- h_2
I1223 20:35:07.642952 47803 net.cpp:408] h_2_lstm1_unit_2_1_split -> h_2_lstm1_unit_2_1_split_0
I1223 20:35:07.642976 47803 net.cpp:408] h_2_lstm1_unit_2_1_split -> h_2_lstm1_unit_2_1_split_1
I1223 20:35:07.643045 47803 net.cpp:150] Setting up h_2_lstm1_unit_2_1_split
I1223 20:35:07.643069 47803 net.cpp:157] Top shape: 1 12 256 (3072)
I1223 20:35:07.643086 47803 net.cpp:157] Top shape: 1 12 256 (3072)
I1223 20:35:07.643100 47803 net.cpp:165] Memory required for data: 5065728
I1223 20:35:07.643116 47803 layer_factory.hpp:77] Creating layer lstm1_h_conted_2
I1223 20:35:07.643137 47803 net.cpp:100] Creating Layer lstm1_h_conted_2
I1223 20:35:07.643154 47803 net.cpp:434] lstm1_h_conted_2 <- h_2_lstm1_unit_2_1_split_0
I1223 20:35:07.643173 47803 net.cpp:434] lstm1_h_conted_2 <- cont_3_lstm1_cont_slice_2_split_0
I1223 20:35:07.643195 47803 net.cpp:408] lstm1_h_conted_2 -> h_conted_2
I1223 20:35:07.643309 47803 net.cpp:150] Setting up lstm1_h_conted_2
I1223 20:35:07.643333 47803 net.cpp:157] Top shape: 1 12 256 (3072)
I1223 20:35:07.643348 47803 net.cpp:165] Memory required for data: 5078016
I1223 20:35:07.643364 47803 layer_factory.hpp:77] Creating layer lstm1_transform_3
I1223 20:35:07.643409 47803 net.cpp:100] Creating Layer lstm1_transform_3
I1223 20:35:07.643429 47803 net.cpp:434] lstm1_transform_3 <- h_conted_2
I1223 20:35:07.643450 47803 net.cpp:408] lstm1_transform_3 -> W_hc_h_2
I1223 20:35:07.647202 47803 net.cpp:150] Setting up lstm1_transform_3
I1223 20:35:07.647292 47803 net.cpp:157] Top shape: 1 12 1024 (12288)
I1223 20:35:07.647311 47803 net.cpp:165] Memory required for data: 5127168
I1223 20:35:07.647338 47803 net.cpp:493] Sharing parameters 'W_hc' owned by layer 'lstm1_transform_1', param index 0
I1223 20:35:07.647361 47803 layer_factory.hpp:77] Creating layer lstm1_gate_input_3
I1223 20:35:07.647388 47803 net.cpp:100] Creating Layer lstm1_gate_input_3
I1223 20:35:07.647409 47803 net.cpp:434] lstm1_gate_input_3 <- W_hc_h_2
I1223 20:35:07.647430 47803 net.cpp:434] lstm1_gate_input_3 <- W_xc_x_3
I1223 20:35:07.647452 47803 net.cpp:408] lstm1_gate_input_3 -> gate_input_3
I1223 20:35:07.647526 47803 net.cpp:150] Setting up lstm1_gate_input_3
I1223 20:35:07.647552 47803 net.cpp:157] Top shape: 1 12 1024 (12288)
I1223 20:35:07.647567 47803 net.cpp:165] Memory required for data: 5176320
I1223 20:35:07.647583 47803 layer_factory.hpp:77] Creating layer lstm1_unit_3
I1223 20:35:07.647603 47803 net.cpp:100] Creating Layer lstm1_unit_3
I1223 20:35:07.647621 47803 net.cpp:434] lstm1_unit_3 <- c_2
I1223 20:35:07.647639 47803 net.cpp:434] lstm1_unit_3 <- gate_input_3
I1223 20:35:07.647657 47803 net.cpp:434] lstm1_unit_3 <- cont_3_lstm1_cont_slice_2_split_1
I1223 20:35:07.647678 47803 net.cpp:408] lstm1_unit_3 -> c_3
I1223 20:35:07.647701 47803 net.cpp:408] lstm1_unit_3 -> h_3
I1223 20:35:07.647785 47803 net.cpp:150] Setting up lstm1_unit_3
I1223 20:35:07.647809 47803 net.cpp:157] Top shape: 1 12 256 (3072)
I1223 20:35:07.647826 47803 net.cpp:157] Top shape: 1 12 256 (3072)
I1223 20:35:07.647841 47803 net.cpp:165] Memory required for data: 5200896
I1223 20:35:07.647857 47803 layer_factory.hpp:77] Creating layer h_3_lstm1_unit_3_1_split
I1223 20:35:07.647879 47803 net.cpp:100] Creating Layer h_3_lstm1_unit_3_1_split
I1223 20:35:07.647897 47803 net.cpp:434] h_3_lstm1_unit_3_1_split <- h_3
I1223 20:35:07.647917 47803 net.cpp:408] h_3_lstm1_unit_3_1_split -> h_3_lstm1_unit_3_1_split_0
I1223 20:35:07.647939 47803 net.cpp:408] h_3_lstm1_unit_3_1_split -> h_3_lstm1_unit_3_1_split_1
I1223 20:35:07.648010 47803 net.cpp:150] Setting up h_3_lstm1_unit_3_1_split
I1223 20:35:07.648032 47803 net.cpp:157] Top shape: 1 12 256 (3072)
I1223 20:35:07.648051 47803 net.cpp:157] Top shape: 1 12 256 (3072)
I1223 20:35:07.648077 47803 net.cpp:165] Memory required for data: 5225472
I1223 20:35:07.648093 47803 layer_factory.hpp:77] Creating layer lstm1_h_conted_3
I1223 20:35:07.648115 47803 net.cpp:100] Creating Layer lstm1_h_conted_3
I1223 20:35:07.648133 47803 net.cpp:434] lstm1_h_conted_3 <- h_3_lstm1_unit_3_1_split_0
I1223 20:35:07.648151 47803 net.cpp:434] lstm1_h_conted_3 <- cont_4_lstm1_cont_slice_3_split_0
I1223 20:35:07.648172 47803 net.cpp:408] lstm1_h_conted_3 -> h_conted_3
I1223 20:35:07.648283 47803 net.cpp:150] Setting up lstm1_h_conted_3
I1223 20:35:07.648308 47803 net.cpp:157] Top shape: 1 12 256 (3072)
I1223 20:35:07.648324 47803 net.cpp:165] Memory required for data: 5237760
I1223 20:35:07.648340 47803 layer_factory.hpp:77] Creating layer lstm1_transform_4
I1223 20:35:07.648362 47803 net.cpp:100] Creating Layer lstm1_transform_4
I1223 20:35:07.648380 47803 net.cpp:434] lstm1_transform_4 <- h_conted_3
I1223 20:35:07.648403 47803 net.cpp:408] lstm1_transform_4 -> W_hc_h_3
I1223 20:35:07.652063 47803 net.cpp:150] Setting up lstm1_transform_4
I1223 20:35:07.652144 47803 net.cpp:157] Top shape: 1 12 1024 (12288)
I1223 20:35:07.652164 47803 net.cpp:165] Memory required for data: 5286912
I1223 20:35:07.652186 47803 net.cpp:493] Sharing parameters 'W_hc' owned by layer 'lstm1_transform_1', param index 0
I1223 20:35:07.652206 47803 layer_factory.hpp:77] Creating layer lstm1_gate_input_4
I1223 20:35:07.652235 47803 net.cpp:100] Creating Layer lstm1_gate_input_4
I1223 20:35:07.652254 47803 net.cpp:434] lstm1_gate_input_4 <- W_hc_h_3
I1223 20:35:07.652276 47803 net.cpp:434] lstm1_gate_input_4 <- W_xc_x_4
I1223 20:35:07.652299 47803 net.cpp:408] lstm1_gate_input_4 -> gate_input_4
I1223 20:35:07.652369 47803 net.cpp:150] Setting up lstm1_gate_input_4
I1223 20:35:07.652395 47803 net.cpp:157] Top shape: 1 12 1024 (12288)
I1223 20:35:07.652411 47803 net.cpp:165] Memory required for data: 5336064
I1223 20:35:07.652427 47803 layer_factory.hpp:77] Creating layer lstm1_unit_4
I1223 20:35:07.652447 47803 net.cpp:100] Creating Layer lstm1_unit_4
I1223 20:35:07.652465 47803 net.cpp:434] lstm1_unit_4 <- c_3
I1223 20:35:07.652483 47803 net.cpp:434] lstm1_unit_4 <- gate_input_4
I1223 20:35:07.652501 47803 net.cpp:434] lstm1_unit_4 <- cont_4_lstm1_cont_slice_3_split_1
I1223 20:35:07.652523 47803 net.cpp:408] lstm1_unit_4 -> c_4
I1223 20:35:07.652544 47803 net.cpp:408] lstm1_unit_4 -> h_4
I1223 20:35:07.652645 47803 net.cpp:150] Setting up lstm1_unit_4
I1223 20:35:07.652669 47803 net.cpp:157] Top shape: 1 12 256 (3072)
I1223 20:35:07.652688 47803 net.cpp:157] Top shape: 1 12 256 (3072)
I1223 20:35:07.652703 47803 net.cpp:165] Memory required for data: 5360640
I1223 20:35:07.652717 47803 layer_factory.hpp:77] Creating layer h_4_lstm1_unit_4_1_split
I1223 20:35:07.652737 47803 net.cpp:100] Creating Layer h_4_lstm1_unit_4_1_split
I1223 20:35:07.652755 47803 net.cpp:434] h_4_lstm1_unit_4_1_split <- h_4
I1223 20:35:07.652775 47803 net.cpp:408] h_4_lstm1_unit_4_1_split -> h_4_lstm1_unit_4_1_split_0
I1223 20:35:07.652796 47803 net.cpp:408] h_4_lstm1_unit_4_1_split -> h_4_lstm1_unit_4_1_split_1
I1223 20:35:07.652868 47803 net.cpp:150] Setting up h_4_lstm1_unit_4_1_split
I1223 20:35:07.652892 47803 net.cpp:157] Top shape: 1 12 256 (3072)
I1223 20:35:07.652909 47803 net.cpp:157] Top shape: 1 12 256 (3072)
I1223 20:35:07.652925 47803 net.cpp:165] Memory required for data: 5385216
I1223 20:35:07.652940 47803 layer_factory.hpp:77] Creating layer lstm1_h_conted_4
I1223 20:35:07.652961 47803 net.cpp:100] Creating Layer lstm1_h_conted_4
I1223 20:35:07.652979 47803 net.cpp:434] lstm1_h_conted_4 <- h_4_lstm1_unit_4_1_split_0
I1223 20:35:07.652997 47803 net.cpp:434] lstm1_h_conted_4 <- cont_5_lstm1_cont_slice_4_split_0
I1223 20:35:07.653025 47803 net.cpp:408] lstm1_h_conted_4 -> h_conted_4
I1223 20:35:07.653139 47803 net.cpp:150] Setting up lstm1_h_conted_4
I1223 20:35:07.653163 47803 net.cpp:157] Top shape: 1 12 256 (3072)
I1223 20:35:07.653179 47803 net.cpp:165] Memory required for data: 5397504
I1223 20:35:07.653208 47803 layer_factory.hpp:77] Creating layer lstm1_transform_5
I1223 20:35:07.653234 47803 net.cpp:100] Creating Layer lstm1_transform_5
I1223 20:35:07.653252 47803 net.cpp:434] lstm1_transform_5 <- h_conted_4
I1223 20:35:07.653272 47803 net.cpp:408] lstm1_transform_5 -> W_hc_h_4
I1223 20:35:07.656709 47803 net.cpp:150] Setting up lstm1_transform_5
I1223 20:35:07.656780 47803 net.cpp:157] Top shape: 1 12 1024 (12288)
I1223 20:35:07.656797 47803 net.cpp:165] Memory required for data: 5446656
I1223 20:35:07.656816 47803 net.cpp:493] Sharing parameters 'W_hc' owned by layer 'lstm1_transform_1', param index 0
I1223 20:35:07.656833 47803 layer_factory.hpp:77] Creating layer lstm1_gate_input_5
I1223 20:35:07.656857 47803 net.cpp:100] Creating Layer lstm1_gate_input_5
I1223 20:35:07.656872 47803 net.cpp:434] lstm1_gate_input_5 <- W_hc_h_4
I1223 20:35:07.656893 47803 net.cpp:434] lstm1_gate_input_5 <- W_xc_x_5
I1223 20:35:07.656914 47803 net.cpp:408] lstm1_gate_input_5 -> gate_input_5
I1223 20:35:07.656972 47803 net.cpp:150] Setting up lstm1_gate_input_5
I1223 20:35:07.656994 47803 net.cpp:157] Top shape: 1 12 1024 (12288)
I1223 20:35:07.657009 47803 net.cpp:165] Memory required for data: 5495808
I1223 20:35:07.657024 47803 layer_factory.hpp:77] Creating layer lstm1_unit_5
I1223 20:35:07.657043 47803 net.cpp:100] Creating Layer lstm1_unit_5
I1223 20:35:07.657059 47803 net.cpp:434] lstm1_unit_5 <- c_4
I1223 20:35:07.657076 47803 net.cpp:434] lstm1_unit_5 <- gate_input_5
I1223 20:35:07.657094 47803 net.cpp:434] lstm1_unit_5 <- cont_5_lstm1_cont_slice_4_split_1
I1223 20:35:07.657114 47803 net.cpp:408] lstm1_unit_5 -> c_5
I1223 20:35:07.657135 47803 net.cpp:408] lstm1_unit_5 -> h_5
I1223 20:35:07.657210 47803 net.cpp:150] Setting up lstm1_unit_5
I1223 20:35:07.657232 47803 net.cpp:157] Top shape: 1 12 256 (3072)
I1223 20:35:07.657248 47803 net.cpp:157] Top shape: 1 12 256 (3072)
I1223 20:35:07.657261 47803 net.cpp:165] Memory required for data: 5520384
I1223 20:35:07.657276 47803 layer_factory.hpp:77] Creating layer h_5_lstm1_unit_5_1_split
I1223 20:35:07.657294 47803 net.cpp:100] Creating Layer h_5_lstm1_unit_5_1_split
I1223 20:35:07.657310 47803 net.cpp:434] h_5_lstm1_unit_5_1_split <- h_5
I1223 20:35:07.657328 47803 net.cpp:408] h_5_lstm1_unit_5_1_split -> h_5_lstm1_unit_5_1_split_0
I1223 20:35:07.657351 47803 net.cpp:408] h_5_lstm1_unit_5_1_split -> h_5_lstm1_unit_5_1_split_1
I1223 20:35:07.657413 47803 net.cpp:150] Setting up h_5_lstm1_unit_5_1_split
I1223 20:35:07.657433 47803 net.cpp:157] Top shape: 1 12 256 (3072)
I1223 20:35:07.657449 47803 net.cpp:157] Top shape: 1 12 256 (3072)
I1223 20:35:07.657464 47803 net.cpp:165] Memory required for data: 5544960
I1223 20:35:07.657477 47803 layer_factory.hpp:77] Creating layer lstm1_h_conted_5
I1223 20:35:07.657500 47803 net.cpp:100] Creating Layer lstm1_h_conted_5
I1223 20:35:07.657516 47803 net.cpp:434] lstm1_h_conted_5 <- h_5_lstm1_unit_5_1_split_0
I1223 20:35:07.657533 47803 net.cpp:434] lstm1_h_conted_5 <- cont_6_lstm1_cont_slice_5_split_0
I1223 20:35:07.657552 47803 net.cpp:408] lstm1_h_conted_5 -> h_conted_5
I1223 20:35:07.657655 47803 net.cpp:150] Setting up lstm1_h_conted_5
I1223 20:35:07.657677 47803 net.cpp:157] Top shape: 1 12 256 (3072)
I1223 20:35:07.657691 47803 net.cpp:165] Memory required for data: 5557248
I1223 20:35:07.657706 47803 layer_factory.hpp:77] Creating layer lstm1_transform_6
I1223 20:35:07.657728 47803 net.cpp:100] Creating Layer lstm1_transform_6
I1223 20:35:07.657744 47803 net.cpp:434] lstm1_transform_6 <- h_conted_5
I1223 20:35:07.657763 47803 net.cpp:408] lstm1_transform_6 -> W_hc_h_5
I1223 20:35:07.661202 47803 net.cpp:150] Setting up lstm1_transform_6
I1223 20:35:07.661285 47803 net.cpp:157] Top shape: 1 12 1024 (12288)
I1223 20:35:07.661303 47803 net.cpp:165] Memory required for data: 5606400
I1223 20:35:07.661322 47803 net.cpp:493] Sharing parameters 'W_hc' owned by layer 'lstm1_transform_1', param index 0
I1223 20:35:07.661340 47803 layer_factory.hpp:77] Creating layer lstm1_gate_input_6
I1223 20:35:07.661365 47803 net.cpp:100] Creating Layer lstm1_gate_input_6
I1223 20:35:07.661393 47803 net.cpp:434] lstm1_gate_input_6 <- W_hc_h_5
I1223 20:35:07.661413 47803 net.cpp:434] lstm1_gate_input_6 <- W_xc_x_6
I1223 20:35:07.661433 47803 net.cpp:408] lstm1_gate_input_6 -> gate_input_6
I1223 20:35:07.661499 47803 net.cpp:150] Setting up lstm1_gate_input_6
I1223 20:35:07.661522 47803 net.cpp:157] Top shape: 1 12 1024 (12288)
I1223 20:35:07.661536 47803 net.cpp:165] Memory required for data: 5655552
I1223 20:35:07.661550 47803 layer_factory.hpp:77] Creating layer lstm1_unit_6
I1223 20:35:07.661577 47803 net.cpp:100] Creating Layer lstm1_unit_6
I1223 20:35:07.661594 47803 net.cpp:434] lstm1_unit_6 <- c_5
I1223 20:35:07.661610 47803 net.cpp:434] lstm1_unit_6 <- gate_input_6
I1223 20:35:07.661628 47803 net.cpp:434] lstm1_unit_6 <- cont_6_lstm1_cont_slice_5_split_1
I1223 20:35:07.661646 47803 net.cpp:408] lstm1_unit_6 -> c_6
I1223 20:35:07.661666 47803 net.cpp:408] lstm1_unit_6 -> h_6
I1223 20:35:07.661742 47803 net.cpp:150] Setting up lstm1_unit_6
I1223 20:35:07.661765 47803 net.cpp:157] Top shape: 1 12 256 (3072)
I1223 20:35:07.661782 47803 net.cpp:157] Top shape: 1 12 256 (3072)
I1223 20:35:07.661795 47803 net.cpp:165] Memory required for data: 5680128
I1223 20:35:07.661810 47803 layer_factory.hpp:77] Creating layer h_6_lstm1_unit_6_1_split
I1223 20:35:07.661828 47803 net.cpp:100] Creating Layer h_6_lstm1_unit_6_1_split
I1223 20:35:07.661844 47803 net.cpp:434] h_6_lstm1_unit_6_1_split <- h_6
I1223 20:35:07.661864 47803 net.cpp:408] h_6_lstm1_unit_6_1_split -> h_6_lstm1_unit_6_1_split_0
I1223 20:35:07.661885 47803 net.cpp:408] h_6_lstm1_unit_6_1_split -> h_6_lstm1_unit_6_1_split_1
I1223 20:35:07.661947 47803 net.cpp:150] Setting up h_6_lstm1_unit_6_1_split
I1223 20:35:07.661968 47803 net.cpp:157] Top shape: 1 12 256 (3072)
I1223 20:35:07.661984 47803 net.cpp:157] Top shape: 1 12 256 (3072)
I1223 20:35:07.661998 47803 net.cpp:165] Memory required for data: 5704704
I1223 20:35:07.662012 47803 layer_factory.hpp:77] Creating layer lstm1_h_conted_6
I1223 20:35:07.662032 47803 net.cpp:100] Creating Layer lstm1_h_conted_6
I1223 20:35:07.662047 47803 net.cpp:434] lstm1_h_conted_6 <- h_6_lstm1_unit_6_1_split_0
I1223 20:35:07.662065 47803 net.cpp:434] lstm1_h_conted_6 <- cont_7_lstm1_cont_slice_6_split_0
I1223 20:35:07.662082 47803 net.cpp:408] lstm1_h_conted_6 -> h_conted_6
I1223 20:35:07.662184 47803 net.cpp:150] Setting up lstm1_h_conted_6
I1223 20:35:07.662206 47803 net.cpp:157] Top shape: 1 12 256 (3072)
I1223 20:35:07.662220 47803 net.cpp:165] Memory required for data: 5716992
I1223 20:35:07.662257 47803 layer_factory.hpp:77] Creating layer lstm1_transform_7
I1223 20:35:07.662281 47803 net.cpp:100] Creating Layer lstm1_transform_7
I1223 20:35:07.662295 47803 net.cpp:434] lstm1_transform_7 <- h_conted_6
I1223 20:35:07.662314 47803 net.cpp:408] lstm1_transform_7 -> W_hc_h_6
I1223 20:35:07.665787 47803 net.cpp:150] Setting up lstm1_transform_7
I1223 20:35:07.665874 47803 net.cpp:157] Top shape: 1 12 1024 (12288)
I1223 20:35:07.665890 47803 net.cpp:165] Memory required for data: 5766144
I1223 20:35:07.665915 47803 net.cpp:493] Sharing parameters 'W_hc' owned by layer 'lstm1_transform_1', param index 0
I1223 20:35:07.665935 47803 layer_factory.hpp:77] Creating layer lstm1_gate_input_7
I1223 20:35:07.665961 47803 net.cpp:100] Creating Layer lstm1_gate_input_7
I1223 20:35:07.665978 47803 net.cpp:434] lstm1_gate_input_7 <- W_hc_h_6
I1223 20:35:07.665997 47803 net.cpp:434] lstm1_gate_input_7 <- W_xc_x_7
I1223 20:35:07.666018 47803 net.cpp:408] lstm1_gate_input_7 -> gate_input_7
I1223 20:35:07.666088 47803 net.cpp:150] Setting up lstm1_gate_input_7
I1223 20:35:07.666112 47803 net.cpp:157] Top shape: 1 12 1024 (12288)
I1223 20:35:07.666126 47803 net.cpp:165] Memory required for data: 5815296
I1223 20:35:07.666141 47803 layer_factory.hpp:77] Creating layer lstm1_unit_7
I1223 20:35:07.666162 47803 net.cpp:100] Creating Layer lstm1_unit_7
I1223 20:35:07.666177 47803 net.cpp:434] lstm1_unit_7 <- c_6
I1223 20:35:07.666193 47803 net.cpp:434] lstm1_unit_7 <- gate_input_7
I1223 20:35:07.666210 47803 net.cpp:434] lstm1_unit_7 <- cont_7_lstm1_cont_slice_6_split_1
I1223 20:35:07.666271 47803 net.cpp:408] lstm1_unit_7 -> c_7
I1223 20:35:07.666298 47803 net.cpp:408] lstm1_unit_7 -> h_7
I1223 20:35:07.666383 47803 net.cpp:150] Setting up lstm1_unit_7
I1223 20:35:07.666409 47803 net.cpp:157] Top shape: 1 12 256 (3072)
I1223 20:35:07.666425 47803 net.cpp:157] Top shape: 1 12 256 (3072)
I1223 20:35:07.666440 47803 net.cpp:165] Memory required for data: 5839872
I1223 20:35:07.666453 47803 layer_factory.hpp:77] Creating layer h_7_lstm1_unit_7_1_split
I1223 20:35:07.666472 47803 net.cpp:100] Creating Layer h_7_lstm1_unit_7_1_split
I1223 20:35:07.666488 47803 net.cpp:434] h_7_lstm1_unit_7_1_split <- h_7
I1223 20:35:07.666507 47803 net.cpp:408] h_7_lstm1_unit_7_1_split -> h_7_lstm1_unit_7_1_split_0
I1223 20:35:07.666528 47803 net.cpp:408] h_7_lstm1_unit_7_1_split -> h_7_lstm1_unit_7_1_split_1
I1223 20:35:07.666594 47803 net.cpp:150] Setting up h_7_lstm1_unit_7_1_split
I1223 20:35:07.666616 47803 net.cpp:157] Top shape: 1 12 256 (3072)
I1223 20:35:07.666631 47803 net.cpp:157] Top shape: 1 12 256 (3072)
I1223 20:35:07.666646 47803 net.cpp:165] Memory required for data: 5864448
I1223 20:35:07.666661 47803 layer_factory.hpp:77] Creating layer lstm1_h_conted_7
I1223 20:35:07.666681 47803 net.cpp:100] Creating Layer lstm1_h_conted_7
I1223 20:35:07.666697 47803 net.cpp:434] lstm1_h_conted_7 <- h_7_lstm1_unit_7_1_split_0
I1223 20:35:07.666713 47803 net.cpp:434] lstm1_h_conted_7 <- cont_8_lstm1_cont_slice_7_split_0
I1223 20:35:07.666734 47803 net.cpp:408] lstm1_h_conted_7 -> h_conted_7
I1223 20:35:07.666841 47803 net.cpp:150] Setting up lstm1_h_conted_7
I1223 20:35:07.666864 47803 net.cpp:157] Top shape: 1 12 256 (3072)
I1223 20:35:07.666878 47803 net.cpp:165] Memory required for data: 5876736
I1223 20:35:07.666893 47803 layer_factory.hpp:77] Creating layer lstm1_transform_8
I1223 20:35:07.666919 47803 net.cpp:100] Creating Layer lstm1_transform_8
I1223 20:35:07.666935 47803 net.cpp:434] lstm1_transform_8 <- h_conted_7
I1223 20:35:07.666954 47803 net.cpp:408] lstm1_transform_8 -> W_hc_h_7
I1223 20:35:07.670490 47803 net.cpp:150] Setting up lstm1_transform_8
I1223 20:35:07.670581 47803 net.cpp:157] Top shape: 1 12 1024 (12288)
I1223 20:35:07.670598 47803 net.cpp:165] Memory required for data: 5925888
I1223 20:35:07.670619 47803 net.cpp:493] Sharing parameters 'W_hc' owned by layer 'lstm1_transform_1', param index 0
I1223 20:35:07.670637 47803 layer_factory.hpp:77] Creating layer lstm1_gate_input_8
I1223 20:35:07.670663 47803 net.cpp:100] Creating Layer lstm1_gate_input_8
I1223 20:35:07.670681 47803 net.cpp:434] lstm1_gate_input_8 <- W_hc_h_7
I1223 20:35:07.670701 47803 net.cpp:434] lstm1_gate_input_8 <- W_xc_x_8
I1223 20:35:07.670725 47803 net.cpp:408] lstm1_gate_input_8 -> gate_input_8
I1223 20:35:07.670801 47803 net.cpp:150] Setting up lstm1_gate_input_8
I1223 20:35:07.670825 47803 net.cpp:157] Top shape: 1 12 1024 (12288)
I1223 20:35:07.670840 47803 net.cpp:165] Memory required for data: 5975040
I1223 20:35:07.670855 47803 layer_factory.hpp:77] Creating layer lstm1_unit_8
I1223 20:35:07.670876 47803 net.cpp:100] Creating Layer lstm1_unit_8
I1223 20:35:07.670891 47803 net.cpp:434] lstm1_unit_8 <- c_7
I1223 20:35:07.670907 47803 net.cpp:434] lstm1_unit_8 <- gate_input_8
I1223 20:35:07.670924 47803 net.cpp:434] lstm1_unit_8 <- cont_8_lstm1_cont_slice_7_split_1
I1223 20:35:07.670946 47803 net.cpp:408] lstm1_unit_8 -> c_8
I1223 20:35:07.670969 47803 net.cpp:408] lstm1_unit_8 -> h_8
I1223 20:35:07.671062 47803 net.cpp:150] Setting up lstm1_unit_8
I1223 20:35:07.671087 47803 net.cpp:157] Top shape: 1 12 256 (3072)
I1223 20:35:07.671103 47803 net.cpp:157] Top shape: 1 12 256 (3072)
I1223 20:35:07.671116 47803 net.cpp:165] Memory required for data: 5999616
I1223 20:35:07.671131 47803 layer_factory.hpp:77] Creating layer h_8_lstm1_unit_8_1_split
I1223 20:35:07.671151 47803 net.cpp:100] Creating Layer h_8_lstm1_unit_8_1_split
I1223 20:35:07.671166 47803 net.cpp:434] h_8_lstm1_unit_8_1_split <- h_8
I1223 20:35:07.671185 47803 net.cpp:408] h_8_lstm1_unit_8_1_split -> h_8_lstm1_unit_8_1_split_0
I1223 20:35:07.671219 47803 net.cpp:408] h_8_lstm1_unit_8_1_split -> h_8_lstm1_unit_8_1_split_1
I1223 20:35:07.671283 47803 net.cpp:150] Setting up h_8_lstm1_unit_8_1_split
I1223 20:35:07.671304 47803 net.cpp:157] Top shape: 1 12 256 (3072)
I1223 20:35:07.671320 47803 net.cpp:157] Top shape: 1 12 256 (3072)
I1223 20:35:07.671334 47803 net.cpp:165] Memory required for data: 6024192
I1223 20:35:07.671349 47803 layer_factory.hpp:77] Creating layer lstm1_h_conted_8
I1223 20:35:07.671372 47803 net.cpp:100] Creating Layer lstm1_h_conted_8
I1223 20:35:07.671388 47803 net.cpp:434] lstm1_h_conted_8 <- h_8_lstm1_unit_8_1_split_0
I1223 20:35:07.671406 47803 net.cpp:434] lstm1_h_conted_8 <- cont_9_lstm1_cont_slice_8_split_0
I1223 20:35:07.671424 47803 net.cpp:408] lstm1_h_conted_8 -> h_conted_8
I1223 20:35:07.671533 47803 net.cpp:150] Setting up lstm1_h_conted_8
I1223 20:35:07.671556 47803 net.cpp:157] Top shape: 1 12 256 (3072)
I1223 20:35:07.671571 47803 net.cpp:165] Memory required for data: 6036480
I1223 20:35:07.671584 47803 layer_factory.hpp:77] Creating layer lstm1_transform_9
I1223 20:35:07.671607 47803 net.cpp:100] Creating Layer lstm1_transform_9
I1223 20:35:07.671622 47803 net.cpp:434] lstm1_transform_9 <- h_conted_8
I1223 20:35:07.671641 47803 net.cpp:408] lstm1_transform_9 -> W_hc_h_8
I1223 20:35:07.675194 47803 net.cpp:150] Setting up lstm1_transform_9
I1223 20:35:07.675303 47803 net.cpp:157] Top shape: 1 12 1024 (12288)
I1223 20:35:07.675320 47803 net.cpp:165] Memory required for data: 6085632
I1223 20:35:07.675341 47803 net.cpp:493] Sharing parameters 'W_hc' owned by layer 'lstm1_transform_1', param index 0
I1223 20:35:07.675359 47803 layer_factory.hpp:77] Creating layer lstm1_gate_input_9
I1223 20:35:07.675390 47803 net.cpp:100] Creating Layer lstm1_gate_input_9
I1223 20:35:07.675410 47803 net.cpp:434] lstm1_gate_input_9 <- W_hc_h_8
I1223 20:35:07.675431 47803 net.cpp:434] lstm1_gate_input_9 <- W_xc_x_9
I1223 20:35:07.675452 47803 net.cpp:408] lstm1_gate_input_9 -> gate_input_9
I1223 20:35:07.675530 47803 net.cpp:150] Setting up lstm1_gate_input_9
I1223 20:35:07.675554 47803 net.cpp:157] Top shape: 1 12 1024 (12288)
I1223 20:35:07.675568 47803 net.cpp:165] Memory required for data: 6134784
I1223 20:35:07.675583 47803 layer_factory.hpp:77] Creating layer lstm1_unit_9
I1223 20:35:07.675632 47803 net.cpp:100] Creating Layer lstm1_unit_9
I1223 20:35:07.675649 47803 net.cpp:434] lstm1_unit_9 <- c_8
I1223 20:35:07.675668 47803 net.cpp:434] lstm1_unit_9 <- gate_input_9
I1223 20:35:07.675685 47803 net.cpp:434] lstm1_unit_9 <- cont_9_lstm1_cont_slice_8_split_1
I1223 20:35:07.675704 47803 net.cpp:408] lstm1_unit_9 -> c_9
I1223 20:35:07.675755 47803 net.cpp:408] lstm1_unit_9 -> h_9
I1223 20:35:07.675834 47803 net.cpp:150] Setting up lstm1_unit_9
I1223 20:35:07.675858 47803 net.cpp:157] Top shape: 1 12 256 (3072)
I1223 20:35:07.675874 47803 net.cpp:157] Top shape: 1 12 256 (3072)
I1223 20:35:07.675889 47803 net.cpp:165] Memory required for data: 6159360
I1223 20:35:07.675904 47803 layer_factory.hpp:77] Creating layer h_9_lstm1_unit_9_1_split
I1223 20:35:07.675925 47803 net.cpp:100] Creating Layer h_9_lstm1_unit_9_1_split
I1223 20:35:07.675940 47803 net.cpp:434] h_9_lstm1_unit_9_1_split <- h_9
I1223 20:35:07.675957 47803 net.cpp:408] h_9_lstm1_unit_9_1_split -> h_9_lstm1_unit_9_1_split_0
I1223 20:35:07.675977 47803 net.cpp:408] h_9_lstm1_unit_9_1_split -> h_9_lstm1_unit_9_1_split_1
I1223 20:35:07.676041 47803 net.cpp:150] Setting up h_9_lstm1_unit_9_1_split
I1223 20:35:07.676064 47803 net.cpp:157] Top shape: 1 12 256 (3072)
I1223 20:35:07.676079 47803 net.cpp:157] Top shape: 1 12 256 (3072)
I1223 20:35:07.676093 47803 net.cpp:165] Memory required for data: 6183936
I1223 20:35:07.676108 47803 layer_factory.hpp:77] Creating layer lstm1_h_conted_9
I1223 20:35:07.676129 47803 net.cpp:100] Creating Layer lstm1_h_conted_9
I1223 20:35:07.676146 47803 net.cpp:434] lstm1_h_conted_9 <- h_9_lstm1_unit_9_1_split_0
I1223 20:35:07.676162 47803 net.cpp:434] lstm1_h_conted_9 <- cont_10_lstm1_cont_slice_9_split_0
I1223 20:35:07.676198 47803 net.cpp:408] lstm1_h_conted_9 -> h_conted_9
I1223 20:35:07.676309 47803 net.cpp:150] Setting up lstm1_h_conted_9
I1223 20:35:07.676332 47803 net.cpp:157] Top shape: 1 12 256 (3072)
I1223 20:35:07.676347 47803 net.cpp:165] Memory required for data: 6196224
I1223 20:35:07.676362 47803 layer_factory.hpp:77] Creating layer lstm1_transform_10
I1223 20:35:07.676388 47803 net.cpp:100] Creating Layer lstm1_transform_10
I1223 20:35:07.676403 47803 net.cpp:434] lstm1_transform_10 <- h_conted_9
I1223 20:35:07.676421 47803 net.cpp:408] lstm1_transform_10 -> W_hc_h_9
I1223 20:35:07.680033 47803 net.cpp:150] Setting up lstm1_transform_10
I1223 20:35:07.680140 47803 net.cpp:157] Top shape: 1 12 1024 (12288)
I1223 20:35:07.680158 47803 net.cpp:165] Memory required for data: 6245376
I1223 20:35:07.680181 47803 net.cpp:493] Sharing parameters 'W_hc' owned by layer 'lstm1_transform_1', param index 0
I1223 20:35:07.680200 47803 layer_factory.hpp:77] Creating layer lstm1_gate_input_10
I1223 20:35:07.680228 47803 net.cpp:100] Creating Layer lstm1_gate_input_10
I1223 20:35:07.680248 47803 net.cpp:434] lstm1_gate_input_10 <- W_hc_h_9
I1223 20:35:07.680269 47803 net.cpp:434] lstm1_gate_input_10 <- W_xc_x_10
I1223 20:35:07.680292 47803 net.cpp:408] lstm1_gate_input_10 -> gate_input_10
I1223 20:35:07.680374 47803 net.cpp:150] Setting up lstm1_gate_input_10
I1223 20:35:07.680399 47803 net.cpp:157] Top shape: 1 12 1024 (12288)
I1223 20:35:07.680414 47803 net.cpp:165] Memory required for data: 6294528
I1223 20:35:07.680430 47803 layer_factory.hpp:77] Creating layer lstm1_unit_10
I1223 20:35:07.680449 47803 net.cpp:100] Creating Layer lstm1_unit_10
I1223 20:35:07.680466 47803 net.cpp:434] lstm1_unit_10 <- c_9
I1223 20:35:07.680485 47803 net.cpp:434] lstm1_unit_10 <- gate_input_10
I1223 20:35:07.680501 47803 net.cpp:434] lstm1_unit_10 <- cont_10_lstm1_cont_slice_9_split_1
I1223 20:35:07.680522 47803 net.cpp:408] lstm1_unit_10 -> c_10
I1223 20:35:07.680543 47803 net.cpp:408] lstm1_unit_10 -> h_10
I1223 20:35:07.680629 47803 net.cpp:150] Setting up lstm1_unit_10
I1223 20:35:07.680652 47803 net.cpp:157] Top shape: 1 12 256 (3072)
I1223 20:35:07.680670 47803 net.cpp:157] Top shape: 1 12 256 (3072)
I1223 20:35:07.680683 47803 net.cpp:165] Memory required for data: 6319104
I1223 20:35:07.680698 47803 layer_factory.hpp:77] Creating layer h_10_lstm1_unit_10_1_split
I1223 20:35:07.680719 47803 net.cpp:100] Creating Layer h_10_lstm1_unit_10_1_split
I1223 20:35:07.680735 47803 net.cpp:434] h_10_lstm1_unit_10_1_split <- h_10
I1223 20:35:07.680754 47803 net.cpp:408] h_10_lstm1_unit_10_1_split -> h_10_lstm1_unit_10_1_split_0
I1223 20:35:07.680776 47803 net.cpp:408] h_10_lstm1_unit_10_1_split -> h_10_lstm1_unit_10_1_split_1
I1223 20:35:07.680847 47803 net.cpp:150] Setting up h_10_lstm1_unit_10_1_split
I1223 20:35:07.680871 47803 net.cpp:157] Top shape: 1 12 256 (3072)
I1223 20:35:07.680887 47803 net.cpp:157] Top shape: 1 12 256 (3072)
I1223 20:35:07.680902 47803 net.cpp:165] Memory required for data: 6343680
I1223 20:35:07.680917 47803 layer_factory.hpp:77] Creating layer lstm1_h_conted_10
I1223 20:35:07.680941 47803 net.cpp:100] Creating Layer lstm1_h_conted_10
I1223 20:35:07.680958 47803 net.cpp:434] lstm1_h_conted_10 <- h_10_lstm1_unit_10_1_split_0
I1223 20:35:07.680976 47803 net.cpp:434] lstm1_h_conted_10 <- cont_11_lstm1_cont_slice_10_split_0
I1223 20:35:07.680999 47803 net.cpp:408] lstm1_h_conted_10 -> h_conted_10
I1223 20:35:07.681115 47803 net.cpp:150] Setting up lstm1_h_conted_10
I1223 20:35:07.681139 47803 net.cpp:157] Top shape: 1 12 256 (3072)
I1223 20:35:07.681154 47803 net.cpp:165] Memory required for data: 6355968
I1223 20:35:07.681169 47803 layer_factory.hpp:77] Creating layer lstm1_transform_11
I1223 20:35:07.681195 47803 net.cpp:100] Creating Layer lstm1_transform_11
I1223 20:35:07.681211 47803 net.cpp:434] lstm1_transform_11 <- h_conted_10
I1223 20:35:07.681231 47803 net.cpp:408] lstm1_transform_11 -> W_hc_h_10
I1223 20:35:07.684985 47803 net.cpp:150] Setting up lstm1_transform_11
I1223 20:35:07.685072 47803 net.cpp:157] Top shape: 1 12 1024 (12288)
I1223 20:35:07.685102 47803 net.cpp:165] Memory required for data: 6405120
I1223 20:35:07.685127 47803 net.cpp:493] Sharing parameters 'W_hc' owned by layer 'lstm1_transform_1', param index 0
I1223 20:35:07.685147 47803 layer_factory.hpp:77] Creating layer lstm1_gate_input_11
I1223 20:35:07.685176 47803 net.cpp:100] Creating Layer lstm1_gate_input_11
I1223 20:35:07.685196 47803 net.cpp:434] lstm1_gate_input_11 <- W_hc_h_10
I1223 20:35:07.685217 47803 net.cpp:434] lstm1_gate_input_11 <- W_xc_x_11
I1223 20:35:07.685240 47803 net.cpp:408] lstm1_gate_input_11 -> gate_input_11
I1223 20:35:07.685309 47803 net.cpp:150] Setting up lstm1_gate_input_11
I1223 20:35:07.685333 47803 net.cpp:157] Top shape: 1 12 1024 (12288)
I1223 20:35:07.685349 47803 net.cpp:165] Memory required for data: 6454272
I1223 20:35:07.685365 47803 layer_factory.hpp:77] Creating layer lstm1_unit_11
I1223 20:35:07.685387 47803 net.cpp:100] Creating Layer lstm1_unit_11
I1223 20:35:07.685406 47803 net.cpp:434] lstm1_unit_11 <- c_10
I1223 20:35:07.685425 47803 net.cpp:434] lstm1_unit_11 <- gate_input_11
I1223 20:35:07.685442 47803 net.cpp:434] lstm1_unit_11 <- cont_11_lstm1_cont_slice_10_split_1
I1223 20:35:07.685462 47803 net.cpp:408] lstm1_unit_11 -> c_11
I1223 20:35:07.685484 47803 net.cpp:408] lstm1_unit_11 -> h_11
I1223 20:35:07.685572 47803 net.cpp:150] Setting up lstm1_unit_11
I1223 20:35:07.685597 47803 net.cpp:157] Top shape: 1 12 256 (3072)
I1223 20:35:07.685614 47803 net.cpp:157] Top shape: 1 12 256 (3072)
I1223 20:35:07.685629 47803 net.cpp:165] Memory required for data: 6478848
I1223 20:35:07.685644 47803 layer_factory.hpp:77] Creating layer h_11_lstm1_unit_11_1_split
I1223 20:35:07.685664 47803 net.cpp:100] Creating Layer h_11_lstm1_unit_11_1_split
I1223 20:35:07.685681 47803 net.cpp:434] h_11_lstm1_unit_11_1_split <- h_11
I1223 20:35:07.685703 47803 net.cpp:408] h_11_lstm1_unit_11_1_split -> h_11_lstm1_unit_11_1_split_0
I1223 20:35:07.685726 47803 net.cpp:408] h_11_lstm1_unit_11_1_split -> h_11_lstm1_unit_11_1_split_1
I1223 20:35:07.685796 47803 net.cpp:150] Setting up h_11_lstm1_unit_11_1_split
I1223 20:35:07.685820 47803 net.cpp:157] Top shape: 1 12 256 (3072)
I1223 20:35:07.685837 47803 net.cpp:157] Top shape: 1 12 256 (3072)
I1223 20:35:07.685853 47803 net.cpp:165] Memory required for data: 6503424
I1223 20:35:07.685868 47803 layer_factory.hpp:77] Creating layer lstm1_h_conted_11
I1223 20:35:07.685889 47803 net.cpp:100] Creating Layer lstm1_h_conted_11
I1223 20:35:07.685906 47803 net.cpp:434] lstm1_h_conted_11 <- h_11_lstm1_unit_11_1_split_0
I1223 20:35:07.685925 47803 net.cpp:434] lstm1_h_conted_11 <- cont_12_lstm1_cont_slice_11_split_0
I1223 20:35:07.685946 47803 net.cpp:408] lstm1_h_conted_11 -> h_conted_11
I1223 20:35:07.686060 47803 net.cpp:150] Setting up lstm1_h_conted_11
I1223 20:35:07.686084 47803 net.cpp:157] Top shape: 1 12 256 (3072)
I1223 20:35:07.686100 47803 net.cpp:165] Memory required for data: 6515712
I1223 20:35:07.686116 47803 layer_factory.hpp:77] Creating layer lstm1_transform_12
I1223 20:35:07.686138 47803 net.cpp:100] Creating Layer lstm1_transform_12
I1223 20:35:07.686156 47803 net.cpp:434] lstm1_transform_12 <- h_conted_11
I1223 20:35:07.686177 47803 net.cpp:408] lstm1_transform_12 -> W_hc_h_11
I1223 20:35:07.689826 47803 net.cpp:150] Setting up lstm1_transform_12
I1223 20:35:07.689913 47803 net.cpp:157] Top shape: 1 12 1024 (12288)
I1223 20:35:07.689934 47803 net.cpp:165] Memory required for data: 6564864
I1223 20:35:07.689955 47803 net.cpp:493] Sharing parameters 'W_hc' owned by layer 'lstm1_transform_1', param index 0
I1223 20:35:07.689975 47803 layer_factory.hpp:77] Creating layer lstm1_gate_input_12
I1223 20:35:07.689999 47803 net.cpp:100] Creating Layer lstm1_gate_input_12
I1223 20:35:07.690019 47803 net.cpp:434] lstm1_gate_input_12 <- W_hc_h_11
I1223 20:35:07.690040 47803 net.cpp:434] lstm1_gate_input_12 <- W_xc_x_12
I1223 20:35:07.690062 47803 net.cpp:408] lstm1_gate_input_12 -> gate_input_12
I1223 20:35:07.690135 47803 net.cpp:150] Setting up lstm1_gate_input_12
I1223 20:35:07.690171 47803 net.cpp:157] Top shape: 1 12 1024 (12288)
I1223 20:35:07.690188 47803 net.cpp:165] Memory required for data: 6614016
I1223 20:35:07.690204 47803 layer_factory.hpp:77] Creating layer lstm1_unit_12
I1223 20:35:07.690243 47803 net.cpp:100] Creating Layer lstm1_unit_12
I1223 20:35:07.690266 47803 net.cpp:434] lstm1_unit_12 <- c_11
I1223 20:35:07.690286 47803 net.cpp:434] lstm1_unit_12 <- gate_input_12
I1223 20:35:07.690309 47803 net.cpp:434] lstm1_unit_12 <- cont_12_lstm1_cont_slice_11_split_1
I1223 20:35:07.690328 47803 net.cpp:408] lstm1_unit_12 -> c_12
I1223 20:35:07.690351 47803 net.cpp:408] lstm1_unit_12 -> h_12
I1223 20:35:07.690440 47803 net.cpp:150] Setting up lstm1_unit_12
I1223 20:35:07.690465 47803 net.cpp:157] Top shape: 1 12 256 (3072)
I1223 20:35:07.690482 47803 net.cpp:157] Top shape: 1 12 256 (3072)
I1223 20:35:07.690497 47803 net.cpp:165] Memory required for data: 6638592
I1223 20:35:07.690513 47803 layer_factory.hpp:77] Creating layer h_12_lstm1_unit_12_1_split
I1223 20:35:07.690536 47803 net.cpp:100] Creating Layer h_12_lstm1_unit_12_1_split
I1223 20:35:07.690554 47803 net.cpp:434] h_12_lstm1_unit_12_1_split <- h_12
I1223 20:35:07.690574 47803 net.cpp:408] h_12_lstm1_unit_12_1_split -> h_12_lstm1_unit_12_1_split_0
I1223 20:35:07.690596 47803 net.cpp:408] h_12_lstm1_unit_12_1_split -> h_12_lstm1_unit_12_1_split_1
I1223 20:35:07.690667 47803 net.cpp:150] Setting up h_12_lstm1_unit_12_1_split
I1223 20:35:07.690693 47803 net.cpp:157] Top shape: 1 12 256 (3072)
I1223 20:35:07.690711 47803 net.cpp:157] Top shape: 1 12 256 (3072)
I1223 20:35:07.690726 47803 net.cpp:165] Memory required for data: 6663168
I1223 20:35:07.690742 47803 layer_factory.hpp:77] Creating layer lstm1_h_conted_12
I1223 20:35:07.690763 47803 net.cpp:100] Creating Layer lstm1_h_conted_12
I1223 20:35:07.690780 47803 net.cpp:434] lstm1_h_conted_12 <- h_12_lstm1_unit_12_1_split_0
I1223 20:35:07.690798 47803 net.cpp:434] lstm1_h_conted_12 <- cont_13_lstm1_cont_slice_12_split_0
I1223 20:35:07.690819 47803 net.cpp:408] lstm1_h_conted_12 -> h_conted_12
I1223 20:35:07.690935 47803 net.cpp:150] Setting up lstm1_h_conted_12
I1223 20:35:07.690959 47803 net.cpp:157] Top shape: 1 12 256 (3072)
I1223 20:35:07.690974 47803 net.cpp:165] Memory required for data: 6675456
I1223 20:35:07.690990 47803 layer_factory.hpp:77] Creating layer lstm1_transform_13
I1223 20:35:07.691012 47803 net.cpp:100] Creating Layer lstm1_transform_13
I1223 20:35:07.691030 47803 net.cpp:434] lstm1_transform_13 <- h_conted_12
I1223 20:35:07.691052 47803 net.cpp:408] lstm1_transform_13 -> W_hc_h_12
I1223 20:35:07.694737 47803 net.cpp:150] Setting up lstm1_transform_13
I1223 20:35:07.694820 47803 net.cpp:157] Top shape: 1 12 1024 (12288)
I1223 20:35:07.694839 47803 net.cpp:165] Memory required for data: 6724608
I1223 20:35:07.694861 47803 net.cpp:493] Sharing parameters 'W_hc' owned by layer 'lstm1_transform_1', param index 0
I1223 20:35:07.694881 47803 layer_factory.hpp:77] Creating layer lstm1_gate_input_13
I1223 20:35:07.694908 47803 net.cpp:100] Creating Layer lstm1_gate_input_13
I1223 20:35:07.694928 47803 net.cpp:434] lstm1_gate_input_13 <- W_hc_h_12
I1223 20:35:07.694950 47803 net.cpp:434] lstm1_gate_input_13 <- W_xc_x_13
I1223 20:35:07.694977 47803 net.cpp:408] lstm1_gate_input_13 -> gate_input_13
I1223 20:35:07.695052 47803 net.cpp:150] Setting up lstm1_gate_input_13
I1223 20:35:07.695077 47803 net.cpp:157] Top shape: 1 12 1024 (12288)
I1223 20:35:07.695093 47803 net.cpp:165] Memory required for data: 6773760
I1223 20:35:07.695108 47803 layer_factory.hpp:77] Creating layer lstm1_unit_13
I1223 20:35:07.695128 47803 net.cpp:100] Creating Layer lstm1_unit_13
I1223 20:35:07.695147 47803 net.cpp:434] lstm1_unit_13 <- c_12
I1223 20:35:07.695165 47803 net.cpp:434] lstm1_unit_13 <- gate_input_13
I1223 20:35:07.695183 47803 net.cpp:434] lstm1_unit_13 <- cont_13_lstm1_cont_slice_12_split_1
I1223 20:35:07.695204 47803 net.cpp:408] lstm1_unit_13 -> c_13
I1223 20:35:07.695226 47803 net.cpp:408] lstm1_unit_13 -> h_13
I1223 20:35:07.695317 47803 net.cpp:150] Setting up lstm1_unit_13
I1223 20:35:07.695351 47803 net.cpp:157] Top shape: 1 12 256 (3072)
I1223 20:35:07.695370 47803 net.cpp:157] Top shape: 1 12 256 (3072)
I1223 20:35:07.695385 47803 net.cpp:165] Memory required for data: 6798336
I1223 20:35:07.695401 47803 layer_factory.hpp:77] Creating layer h_13_lstm1_unit_13_1_split
I1223 20:35:07.695420 47803 net.cpp:100] Creating Layer h_13_lstm1_unit_13_1_split
I1223 20:35:07.695438 47803 net.cpp:434] h_13_lstm1_unit_13_1_split <- h_13
I1223 20:35:07.695457 47803 net.cpp:408] h_13_lstm1_unit_13_1_split -> h_13_lstm1_unit_13_1_split_0
I1223 20:35:07.695480 47803 net.cpp:408] h_13_lstm1_unit_13_1_split -> h_13_lstm1_unit_13_1_split_1
I1223 20:35:07.695559 47803 net.cpp:150] Setting up h_13_lstm1_unit_13_1_split
I1223 20:35:07.695582 47803 net.cpp:157] Top shape: 1 12 256 (3072)
I1223 20:35:07.695600 47803 net.cpp:157] Top shape: 1 12 256 (3072)
I1223 20:35:07.695614 47803 net.cpp:165] Memory required for data: 6822912
I1223 20:35:07.695631 47803 layer_factory.hpp:77] Creating layer lstm1_h_conted_13
I1223 20:35:07.695652 47803 net.cpp:100] Creating Layer lstm1_h_conted_13
I1223 20:35:07.695668 47803 net.cpp:434] lstm1_h_conted_13 <- h_13_lstm1_unit_13_1_split_0
I1223 20:35:07.695689 47803 net.cpp:434] lstm1_h_conted_13 <- cont_14_lstm1_cont_slice_13_split_0
I1223 20:35:07.695710 47803 net.cpp:408] lstm1_h_conted_13 -> h_conted_13
I1223 20:35:07.695832 47803 net.cpp:150] Setting up lstm1_h_conted_13
I1223 20:35:07.695858 47803 net.cpp:157] Top shape: 1 12 256 (3072)
I1223 20:35:07.695873 47803 net.cpp:165] Memory required for data: 6835200
I1223 20:35:07.695889 47803 layer_factory.hpp:77] Creating layer lstm1_transform_14
I1223 20:35:07.695914 47803 net.cpp:100] Creating Layer lstm1_transform_14
I1223 20:35:07.695932 47803 net.cpp:434] lstm1_transform_14 <- h_conted_13
I1223 20:35:07.695953 47803 net.cpp:408] lstm1_transform_14 -> W_hc_h_13
I1223 20:35:07.699756 47803 net.cpp:150] Setting up lstm1_transform_14
I1223 20:35:07.699848 47803 net.cpp:157] Top shape: 1 12 1024 (12288)
I1223 20:35:07.699867 47803 net.cpp:165] Memory required for data: 6884352
I1223 20:35:07.699889 47803 net.cpp:493] Sharing parameters 'W_hc' owned by layer 'lstm1_transform_1', param index 0
I1223 20:35:07.699909 47803 layer_factory.hpp:77] Creating layer lstm1_gate_input_14
I1223 20:35:07.699941 47803 net.cpp:100] Creating Layer lstm1_gate_input_14
I1223 20:35:07.699962 47803 net.cpp:434] lstm1_gate_input_14 <- W_hc_h_13
I1223 20:35:07.699985 47803 net.cpp:434] lstm1_gate_input_14 <- W_xc_x_14
I1223 20:35:07.700007 47803 net.cpp:408] lstm1_gate_input_14 -> gate_input_14
I1223 20:35:07.700078 47803 net.cpp:150] Setting up lstm1_gate_input_14
I1223 20:35:07.700103 47803 net.cpp:157] Top shape: 1 12 1024 (12288)
I1223 20:35:07.700119 47803 net.cpp:165] Memory required for data: 6933504
I1223 20:35:07.700134 47803 layer_factory.hpp:77] Creating layer lstm1_unit_14
I1223 20:35:07.700155 47803 net.cpp:100] Creating Layer lstm1_unit_14
I1223 20:35:07.700172 47803 net.cpp:434] lstm1_unit_14 <- c_13
I1223 20:35:07.700191 47803 net.cpp:434] lstm1_unit_14 <- gate_input_14
I1223 20:35:07.700209 47803 net.cpp:434] lstm1_unit_14 <- cont_14_lstm1_cont_slice_13_split_1
I1223 20:35:07.700232 47803 net.cpp:408] lstm1_unit_14 -> c_14
I1223 20:35:07.700256 47803 net.cpp:408] lstm1_unit_14 -> h_14
I1223 20:35:07.700346 47803 net.cpp:150] Setting up lstm1_unit_14
I1223 20:35:07.700371 47803 net.cpp:157] Top shape: 1 12 256 (3072)
I1223 20:35:07.700387 47803 net.cpp:157] Top shape: 1 12 256 (3072)
I1223 20:35:07.700403 47803 net.cpp:165] Memory required for data: 6958080
I1223 20:35:07.700418 47803 layer_factory.hpp:77] Creating layer h_14_lstm1_unit_14_1_split
I1223 20:35:07.700438 47803 net.cpp:100] Creating Layer h_14_lstm1_unit_14_1_split
I1223 20:35:07.700455 47803 net.cpp:434] h_14_lstm1_unit_14_1_split <- h_14
I1223 20:35:07.700477 47803 net.cpp:408] h_14_lstm1_unit_14_1_split -> h_14_lstm1_unit_14_1_split_0
I1223 20:35:07.700501 47803 net.cpp:408] h_14_lstm1_unit_14_1_split -> h_14_lstm1_unit_14_1_split_1
I1223 20:35:07.700584 47803 net.cpp:150] Setting up h_14_lstm1_unit_14_1_split
I1223 20:35:07.700609 47803 net.cpp:157] Top shape: 1 12 256 (3072)
I1223 20:35:07.700628 47803 net.cpp:157] Top shape: 1 12 256 (3072)
I1223 20:35:07.700642 47803 net.cpp:165] Memory required for data: 6982656
I1223 20:35:07.700659 47803 layer_factory.hpp:77] Creating layer lstm1_h_conted_14
I1223 20:35:07.700682 47803 net.cpp:100] Creating Layer lstm1_h_conted_14
I1223 20:35:07.700700 47803 net.cpp:434] lstm1_h_conted_14 <- h_14_lstm1_unit_14_1_split_0
I1223 20:35:07.700719 47803 net.cpp:434] lstm1_h_conted_14 <- cont_15_lstm1_cont_slice_14_split_0
I1223 20:35:07.700740 47803 net.cpp:408] lstm1_h_conted_14 -> h_conted_14
I1223 20:35:07.700860 47803 net.cpp:150] Setting up lstm1_h_conted_14
I1223 20:35:07.700886 47803 net.cpp:157] Top shape: 1 12 256 (3072)
I1223 20:35:07.700901 47803 net.cpp:165] Memory required for data: 6994944
I1223 20:35:07.700917 47803 layer_factory.hpp:77] Creating layer lstm1_transform_15
I1223 20:35:07.700940 47803 net.cpp:100] Creating Layer lstm1_transform_15
I1223 20:35:07.700958 47803 net.cpp:434] lstm1_transform_15 <- h_conted_14
I1223 20:35:07.700978 47803 net.cpp:408] lstm1_transform_15 -> W_hc_h_14
I1223 20:35:07.704887 47803 net.cpp:150] Setting up lstm1_transform_15
I1223 20:35:07.704993 47803 net.cpp:157] Top shape: 1 12 1024 (12288)
I1223 20:35:07.705010 47803 net.cpp:165] Memory required for data: 7044096
I1223 20:35:07.705041 47803 net.cpp:493] Sharing parameters 'W_hc' owned by layer 'lstm1_transform_1', param index 0
I1223 20:35:07.705063 47803 layer_factory.hpp:77] Creating layer lstm1_gate_input_15
I1223 20:35:07.705091 47803 net.cpp:100] Creating Layer lstm1_gate_input_15
I1223 20:35:07.705112 47803 net.cpp:434] lstm1_gate_input_15 <- W_hc_h_14
I1223 20:35:07.705133 47803 net.cpp:434] lstm1_gate_input_15 <- W_xc_x_15
I1223 20:35:07.705155 47803 net.cpp:408] lstm1_gate_input_15 -> gate_input_15
I1223 20:35:07.705238 47803 net.cpp:150] Setting up lstm1_gate_input_15
I1223 20:35:07.705265 47803 net.cpp:157] Top shape: 1 12 1024 (12288)
I1223 20:35:07.705281 47803 net.cpp:165] Memory required for data: 7093248
I1223 20:35:07.705296 47803 layer_factory.hpp:77] Creating layer lstm1_unit_15
I1223 20:35:07.705317 47803 net.cpp:100] Creating Layer lstm1_unit_15
I1223 20:35:07.705335 47803 net.cpp:434] lstm1_unit_15 <- c_14
I1223 20:35:07.705353 47803 net.cpp:434] lstm1_unit_15 <- gate_input_15
I1223 20:35:07.705371 47803 net.cpp:434] lstm1_unit_15 <- cont_15_lstm1_cont_slice_14_split_1
I1223 20:35:07.705391 47803 net.cpp:408] lstm1_unit_15 -> c_15
I1223 20:35:07.705413 47803 net.cpp:408] lstm1_unit_15 -> h_15
I1223 20:35:07.705503 47803 net.cpp:150] Setting up lstm1_unit_15
I1223 20:35:07.705526 47803 net.cpp:157] Top shape: 1 12 256 (3072)
I1223 20:35:07.705543 47803 net.cpp:157] Top shape: 1 12 256 (3072)
I1223 20:35:07.705559 47803 net.cpp:165] Memory required for data: 7117824
I1223 20:35:07.705574 47803 layer_factory.hpp:77] Creating layer h_15_lstm1_unit_15_1_split
I1223 20:35:07.705596 47803 net.cpp:100] Creating Layer h_15_lstm1_unit_15_1_split
I1223 20:35:07.705615 47803 net.cpp:434] h_15_lstm1_unit_15_1_split <- h_15
I1223 20:35:07.705634 47803 net.cpp:408] h_15_lstm1_unit_15_1_split -> h_15_lstm1_unit_15_1_split_0
I1223 20:35:07.705657 47803 net.cpp:408] h_15_lstm1_unit_15_1_split -> h_15_lstm1_unit_15_1_split_1
I1223 20:35:07.705729 47803 net.cpp:150] Setting up h_15_lstm1_unit_15_1_split
I1223 20:35:07.705752 47803 net.cpp:157] Top shape: 1 12 256 (3072)
I1223 20:35:07.705768 47803 net.cpp:157] Top shape: 1 12 256 (3072)
I1223 20:35:07.705783 47803 net.cpp:165] Memory required for data: 7142400
I1223 20:35:07.705799 47803 layer_factory.hpp:77] Creating layer lstm1_h_conted_15
I1223 20:35:07.705821 47803 net.cpp:100] Creating Layer lstm1_h_conted_15
I1223 20:35:07.705838 47803 net.cpp:434] lstm1_h_conted_15 <- h_15_lstm1_unit_15_1_split_0
I1223 20:35:07.705857 47803 net.cpp:434] lstm1_h_conted_15 <- cont_16_lstm1_cont_slice_15_split_0
I1223 20:35:07.705880 47803 net.cpp:408] lstm1_h_conted_15 -> h_conted_15
I1223 20:35:07.706012 47803 net.cpp:150] Setting up lstm1_h_conted_15
I1223 20:35:07.706038 47803 net.cpp:157] Top shape: 1 12 256 (3072)
I1223 20:35:07.706053 47803 net.cpp:165] Memory required for data: 7154688
I1223 20:35:07.706069 47803 layer_factory.hpp:77] Creating layer lstm1_transform_16
I1223 20:35:07.706091 47803 net.cpp:100] Creating Layer lstm1_transform_16
I1223 20:35:07.706110 47803 net.cpp:434] lstm1_transform_16 <- h_conted_15
I1223 20:35:07.706131 47803 net.cpp:408] lstm1_transform_16 -> W_hc_h_15
I1223 20:35:07.709960 47803 net.cpp:150] Setting up lstm1_transform_16
I1223 20:35:07.710062 47803 net.cpp:157] Top shape: 1 12 1024 (12288)
I1223 20:35:07.710083 47803 net.cpp:165] Memory required for data: 7203840
I1223 20:35:07.710104 47803 net.cpp:493] Sharing parameters 'W_hc' owned by layer 'lstm1_transform_1', param index 0
I1223 20:35:07.710124 47803 layer_factory.hpp:77] Creating layer lstm1_gate_input_16
I1223 20:35:07.710152 47803 net.cpp:100] Creating Layer lstm1_gate_input_16
I1223 20:35:07.710172 47803 net.cpp:434] lstm1_gate_input_16 <- W_hc_h_15
I1223 20:35:07.710194 47803 net.cpp:434] lstm1_gate_input_16 <- W_xc_x_16
I1223 20:35:07.710220 47803 net.cpp:408] lstm1_gate_input_16 -> gate_input_16
I1223 20:35:07.710338 47803 net.cpp:150] Setting up lstm1_gate_input_16
I1223 20:35:07.710368 47803 net.cpp:157] Top shape: 1 12 1024 (12288)
I1223 20:35:07.710384 47803 net.cpp:165] Memory required for data: 7252992
I1223 20:35:07.710400 47803 layer_factory.hpp:77] Creating layer lstm1_unit_16
I1223 20:35:07.710422 47803 net.cpp:100] Creating Layer lstm1_unit_16
I1223 20:35:07.710439 47803 net.cpp:434] lstm1_unit_16 <- c_15
I1223 20:35:07.710458 47803 net.cpp:434] lstm1_unit_16 <- gate_input_16
I1223 20:35:07.710475 47803 net.cpp:434] lstm1_unit_16 <- cont_16_lstm1_cont_slice_15_split_1
I1223 20:35:07.710500 47803 net.cpp:408] lstm1_unit_16 -> c_16
I1223 20:35:07.710523 47803 net.cpp:408] lstm1_unit_16 -> h_16
I1223 20:35:07.710614 47803 net.cpp:150] Setting up lstm1_unit_16
I1223 20:35:07.710638 47803 net.cpp:157] Top shape: 1 12 256 (3072)
I1223 20:35:07.710655 47803 net.cpp:157] Top shape: 1 12 256 (3072)
I1223 20:35:07.710670 47803 net.cpp:165] Memory required for data: 7277568
I1223 20:35:07.710686 47803 layer_factory.hpp:77] Creating layer lstm1_
I1223 20:35:07.710705 47803 net.cpp:100] Creating Layer lstm1_
I1223 20:35:07.710722 47803 net.cpp:434] lstm1_ <- c_16
I1223 20:35:07.710741 47803 net.cpp:408] lstm1_ -> c_T
I1223 20:35:07.710795 47803 net.cpp:150] Setting up lstm1_
I1223 20:35:07.710819 47803 net.cpp:157] Top shape: 1 12 256 (3072)
I1223 20:35:07.710834 47803 net.cpp:165] Memory required for data: 7289856
I1223 20:35:07.710850 47803 layer_factory.hpp:77] Creating layer lstm1_h_concat
I1223 20:35:07.710875 47803 net.cpp:100] Creating Layer lstm1_h_concat
I1223 20:35:07.710893 47803 net.cpp:434] lstm1_h_concat <- h_1_lstm1_unit_1_1_split_1
I1223 20:35:07.710912 47803 net.cpp:434] lstm1_h_concat <- h_2_lstm1_unit_2_1_split_1
…
I1223 20:35:07.714313 47803 net.cpp:228] lstm1_ does not need backward computation.
I1223 20:35:07.714331 47803 net.cpp:270] This network produces output c_T
I1223 20:35:07.714349 47803 net.cpp:270] This network produces output h_pseudoloss
I1223 20:35:07.719064 47803 net.cpp:283] Network initialization done.
I1223 20:35:07.719431 47803 recurrent_layer.cpp:150] Adding parameter 0: W_xc
I1223 20:35:07.719461 47803 recurrent_layer.cpp:150] Adding parameter 1: b_c
I1223 20:35:07.719477 47803 recurrent_layer.cpp:150] Adding parameter 2: W_hc
I1223 20:35:07.719835 47803 net.cpp:150] Setting up lstm1
I1223 20:35:07.719871 47803 net.cpp:157] Top shape: 16 12 256 (49152)
I1223 20:35:07.719887 47803 net.cpp:165] Memory required for data: 3268879104
I1223 20:35:07.719913 47803 layer_factory.hpp:77] Creating layer lstm1-drop
I1223 20:35:07.719939 47803 net.cpp:100] Creating Layer lstm1-drop
I1223 20:35:07.719957 47803 net.cpp:434] lstm1-drop <- lstm1
I1223 20:35:07.719980 47803 net.cpp:408] lstm1-drop -> lstm1-drop
I1223 20:35:07.720054 47803 net.cpp:150] Setting up lstm1-drop
I1223 20:35:07.720077 47803 net.cpp:157] Top shape: 16 12 256 (49152)
I1223 20:35:07.720091 47803 net.cpp:165] Memory required for data: 3269075712
I1223 20:35:07.720106 47803 layer_factory.hpp:77] Creating layer fc8-final
I1223 20:35:07.720127 47803 net.cpp:100] Creating Layer fc8-final
I1223 20:35:07.720144 47803 net.cpp:434] fc8-final <- lstm1-drop
I1223 20:35:07.720161 47803 net.cpp:408] fc8-final -> fc8-final
I1223 20:35:07.720325 47803 net.cpp:150] Setting up fc8-final
I1223 20:35:07.720350 47803 net.cpp:157] Top shape: 16 12 2 (384)
I1223 20:35:07.720365 47803 net.cpp:165] Memory required for data: 3269077248
I1223 20:35:07.720391 47803 layer_factory.hpp:77] Creating layer fc8-final_fc8-final_0_split
I1223 20:35:07.720412 47803 net.cpp:100] Creating Layer fc8-final_fc8-final_0_split
I1223 20:35:07.720427 47803 net.cpp:434] fc8-final_fc8-final_0_split <- fc8-final
I1223 20:35:07.720445 47803 net.cpp:408] fc8-final_fc8-final_0_split -> fc8-final_fc8-final_0_split_0
I1223 20:35:07.720480 47803 net.cpp:408] fc8-final_fc8-final_0_split -> fc8-final_fc8-final_0_split_1
I1223 20:35:07.720549 47803 net.cpp:150] Setting up fc8-final_fc8-final_0_split
I1223 20:35:07.720571 47803 net.cpp:157] Top shape: 16 12 2 (384)
I1223 20:35:07.720587 47803 net.cpp:157] Top shape: 16 12 2 (384)
I1223 20:35:07.720602 47803 net.cpp:165] Memory required for data: 3269080320
I1223 20:35:07.720616 47803 layer_factory.hpp:77] Creating layer loss
I1223 20:35:07.720636 47803 net.cpp:100] Creating Layer loss
I1223 20:35:07.720652 47803 net.cpp:434] loss <- fc8-final_fc8-final_0_split_0
I1223 20:35:07.720669 47803 net.cpp:434] loss <- reshape-label_reshape-label_0_split_0
I1223 20:35:07.720687 47803 net.cpp:408] loss -> loss
…
I1223 20:35:07.722944 47803 net.cpp:322] The NetState phase (1) differed from the phase (0) specified by a rule in layer reshape-label
I1223 20:35:07.722960 47803 net.cpp:322] The NetState phase (1) differed from the phase (0) specified by a rule in layer reshape-cm
I1223 20:35:07.723258 47803 net.cpp:58] Initializing net from parameters: 
name: "lstm_joints"
state {
  phase: TEST
  stage: "test-on-test"
}
layer {
  name: "data"
  type: "Python"
  top: "data"
  top: "label"
  top: "clip_markers"
  include {
    phase: TEST
    stage: "test-on-test"
  }
  python_param {
    module: "frame_sequence_layer"
    layer: "videoReadTest_RGB"
  }
}
layer {
  name: "conv1"
  type: "Convolution"
  bottom: "data"
  top: "conv1"
  param {
    lr_mult: 1
    decay_mult: 1
  }
  param {
    lr_mult: 2
    decay_mult: 0
  }
  convolution_param {
    num_output: 96
    kernel_size: 7
    stride: 2
    weight_filler {
      type: "gaussian"
      std: 0.01
    }
    bias_filler {
      type: "constant"
      value: 0.1
    }
  }
}
layer {
  name: "relu1"
  type: "ReLU"
  bottom: "conv1"
  top: "conv1"
}
layer {
  name: "pool1"
  type: "Pooling"
  bottom: "conv1"
  top: "pool1"
  pooling_param {
    pool: MAX
    kernel_size: 3
    stride: 2
  }
}
layer {
  name: "norm1"
  type: "LRN"
  bottom: "pool1"
  top: "norm1"
  lrn_param {
    local_size: 5
    alpha: 0.0001
    beta: 0.75
  }
}
layer {
  name: "conv2"
  type: "Convolution"
  bottom: "norm1"
  top: "conv2"
  param {
    lr_mult: 1
    decay_mult: 1
  }
  param {
    lr_mult: 2
    decay_mult: 0
  }
  convolution_param {
    num_output: 384
    kernel_size: 5
    group: 2
    stride: 2
    weight_filler {
      type: "gaussian"
      std: 0.01
    }
    bias_filler {
      type: "constant"
      value: 0.1
    }
  }
}
layer {
  name: "relu2"
  type: "ReLU"
  bottom: "conv2"
  top: "conv2"
}
layer {
  name: "pool2"
  type: "Pooling"
  bottom: "conv2"
  top: "pool2"
  pooling_param {
    pool: MAX
    kernel_size: 3
    stride: 2
  }
}
layer {
  name: "norm2"
  type: "LRN"
  bottom: "pool2"
  top: "norm2"
  lrn_param {
    local_size: 5
    alpha: 0.0001
    beta: 0.75
  }
}
layer {
  name: "conv3"
  type: "Convolution"
  bottom: "norm2"
  top: "conv3"
  param {
    lr_mult: 1
    decay_mult: 1
  }
  param {
    lr_mult: 2
    decay_mult: 0
  }
  convolution_param {
    num_output: 512
    pad: 1
    kernel_size: 3
    weight_filler {
      type: "gaussian"
      std: 0.01
    }
    bias_filler {
      type: "constant"
      value: 0.1
    }
  }
}
layer {
  name: "relu3"
  type: "ReLU"
  bottom: "conv3"
  top: "conv3"
}
layer {
  name: "conv4"
  type: "Convolution"
  bottom: "conv3"
  top: "conv4"
  param {
    lr_mult: 1
    decay_mult: 1
  }
  param {
    lr_mult: 2
    decay_mult: 0
  }
  convolution_param {
    num_output: 512
    pad: 1
    kernel_size: 3
    group: 2
    weight_filler {
      type: "gaussian"
      std: 0.01
    }
    bias_filler {
      type: "constant"
      value: 0.1
    }
  }
}
layer {
  name: "relu4"
  type: "ReLU"
  bottom: "conv4"
  top: "conv4"
}
layer {
  name: "conv5"
  type: "Convolution"
  bottom: "conv4"
  top: "conv5"
  param {
    lr_mult: 1
    decay_mult: 1
  }
  param {
    lr_mult: 2
    decay_mult: 0
  }
  convolution_param {
    num_output: 384
    pad: 1
    kernel_size: 3
    group: 2
    weight_filler {
      type: "gaussian"
      std: 0.01
    }
    bias_filler {
      type: "constant"
      value: 0.1
    }
  }
}
layer {
  name: "relu5"
  type: "ReLU"
  bottom: "conv5"
  top: "conv5"
}
layer {
  name: "pool5"
  type: "Pooling"
  bottom: "conv5"
  top: "pool5"
  pooling_param {
    pool: MAX
    kernel_size: 3
    stride: 2
  }
}
layer {
  name: "fc6"
  type: "InnerProduct"
  bottom: "pool5"
  top: "fc6"
  param {
    lr_mult: 1
    decay_mult: 1
  }
  param {
    lr_mult: 2
    decay_mult: 0
  }
  inner_product_param {
    num_output: 4096
    weight_filler {
      type: "gaussian"
      std: 0.01
    }
    bias_filler {
      type: "constant"
      value: 0.1
    }
  }
}
layer {
  name: "relu6"
  type: "ReLU"
  bottom: "fc6"
  top: "fc6"
}
layer {
  name: "drop6"
  type: "Dropout"
  bottom: "fc6"
  top: "fc6"
  dropout_param {
    dropout_ratio: 0.9
  }
}
layer {
  name: "reshape-data"
  type: "Reshape"
  bottom: "fc6"
  top: "fc6-reshape"
  include {
    phase: TEST
    stage: "test-on-test"
  }
  reshape_param {
    shape {
      dim: 16
      dim: 3
      dim: 4096
    }
  }
}
layer {
  name: "reshape-label"
  type: "Reshape"
  bottom: "label"
  top: "reshape-label"
  include {
    phase: TEST
    stage: "test-on-test"
  }
  reshape_param {
    shape {
      dim: 16
      dim: 3
    }
  }
}
layer {
  name: "reshape-cm"
  type: "Reshape"
  bottom: "clip_markers"
  top: "reshape-cm"
  include {
    phase: TEST
    stage: "test-on-test"
  }
  reshape_param {
    shape {
      dim: 16
      dim: 3
    }
  }
}
layer {
  name: "lstm1"
  type: "LSTM"
  bottom: "fc6-reshape"
  bottom: "reshape-cm"
  top: "lstm1"
  recurrent_param {
    num_output: 256
    weight_filler {
      type: "uniform"
      min: -0.01
      max: 0.01
    }
    bias_filler {
      type: "constant"
      value: 0
    }
  }
}
layer {
  name: "lstm1-drop"
  type: "Dropout"
  bottom: "lstm1"
  top: "lstm1-drop"
  dropout_param {
    dropout_ratio: 0.5
  }
}
layer {
  name: "fc8-final"
  type: "InnerProduct"
  bottom: "lstm1-drop"
  top: "fc8-final"
  param {
    lr_mult: 10
    decay_mult: 1
  }
  param {
    lr_mult: 20
    decay_mult: 0
  }
  inner_product_param {
    num_output: 2
    weight_filler {
      type: "gaussian"
      std: 0.01
    }
    bias_filler {
      type: "constant"
      value: 0
    }
    axis: 2
  }
}
layer {
  name: "loss"
  type: "SoftmaxWithLoss"
  bottom: "fc8-final"
  bottom: "reshape-label"
  top: "loss"
  softmax_param {
    axis: 2
  }
}
layer {
  name: "accuracy"
  type: "Accuracy"
  bottom: "fc8-final"
  bottom: "reshape-label"
  top: "accuracy"
  accuracy_param {
    axis: 2
  }
}
I1223 20:35:07.724858 47803 layer_factory.hpp:77] Creating layer data
I1223 20:35:07.725250 47803 net.cpp:100] Creating Layer data
I1223 20:35:07.725286 47803 net.cpp:408] data -> data
I1223 20:35:07.725313 47803 net.cpp:408] data -> label
I1223 20:35:07.725334 47803 net.cpp:408] data -> clip_markers
Outputs: ['data', 'label', 'clip_markers']
I1223 20:35:11.492646 47803 net.cpp:150] Setting up data
I1223 20:35:11.492715 47803 net.cpp:157] Top shape: 48 3 227 227 (7420176)
I1223 20:35:11.492724 47803 net.cpp:157] Top shape: 48 (48)
I1223 20:35:11.492728 47803 net.cpp:157] Top shape: 48 (48)
I1223 20:35:11.492732 47803 net.cpp:165] Memory required for data: 29681088
I1223 20:35:11.492744 47803 layer_factory.hpp:77] Creating layer conv1
I1223 20:35:11.492786 47803 net.cpp:100] Creating Layer conv1
I1223 20:35:11.492792 47803 net.cpp:434] conv1 <- data
I1223 20:35:11.492811 47803 net.cpp:408] conv1 -> conv1
I1223 20:35:11.501354 47803 net.cpp:150] Setting up conv1
I1223 20:35:11.501410 47803 net.cpp:157] Top shape: 48 96 111 111 (56775168)
I1223 20:35:11.501415 47803 net.cpp:165] Memory required for data: 256781760
I1223 20:35:11.501446 47803 layer_factory.hpp:77] Creating layer relu1
I1223 20:35:11.501471 47803 net.cpp:100] Creating Layer relu1
I1223 20:35:11.501477 47803 net.cpp:434] relu1 <- conv1
I1223 20:35:11.501485 47803 net.cpp:395] relu1 -> conv1 (in-place)
I1223 20:35:11.502001 47803 net.cpp:150] Setting up relu1
I1223 20:35:11.502012 47803 net.cpp:157] Top shape: 48 96 111 111 (56775168)
I1223 20:35:11.502014 47803 net.cpp:165] Memory required for data: 483882432
I1223 20:35:11.502022 47803 layer_factory.hpp:77] Creating layer pool1
I1223 20:35:11.502032 47803 net.cpp:100] Creating Layer pool1
I1223 20:35:11.502035 47803 net.cpp:434] pool1 <- conv1
I1223 20:35:11.502048 47803 net.cpp:408] pool1 -> pool1
I1223 20:35:11.502115 47803 net.cpp:150] Setting up pool1
I1223 20:35:11.502122 47803 net.cpp:157] Top shape: 48 96 55 55 (13939200)
I1223 20:35:11.502125 47803 net.cpp:165] Memory required for data: 539639232
I1223 20:35:11.502130 47803 layer_factory.hpp:77] Creating layer norm1
I1223 20:35:11.502143 47803 net.cpp:100] Creating Layer norm1
I1223 20:35:11.502147 47803 net.cpp:434] norm1 <- pool1
I1223 20:35:11.502156 47803 net.cpp:408] norm1 -> norm1
I1223 20:35:11.506733 47803 net.cpp:150] Setting up norm1
I1223 20:35:11.506778 47803 net.cpp:157] Top shape: 48 96 55 55 (13939200)
I1223 20:35:11.506783 47803 net.cpp:165] Memory required for data: 595396032
I1223 20:35:11.506798 47803 layer_factory.hpp:77] Creating layer conv2
I1223 20:35:11.506825 47803 net.cpp:100] Creating Layer conv2
I1223 20:35:11.506831 47803 net.cpp:434] conv2 <- norm1
I1223 20:35:11.506846 47803 net.cpp:408] conv2 -> conv2
I1223 20:35:11.524205 47803 net.cpp:150] Setting up conv2
I1223 20:35:11.524260 47803 net.cpp:157] Top shape: 48 384 26 26 (12460032)
I1223 20:35:11.524265 47803 net.cpp:165] Memory required for data: 645236160
I1223 20:35:11.524284 47803 layer_factory.hpp:77] Creating layer relu2
I1223 20:35:11.524301 47803 net.cpp:100] Creating Layer relu2
I1223 20:35:11.524305 47803 net.cpp:434] relu2 <- conv2
I1223 20:35:11.524317 47803 net.cpp:395] relu2 -> conv2 (in-place)
I1223 20:35:11.524727 47803 net.cpp:150] Setting up relu2
I1223 20:35:11.524739 47803 net.cpp:157] Top shape: 48 384 26 26 (12460032)
I1223 20:35:11.524741 47803 net.cpp:165] Memory required for data: 695076288
I1223 20:35:11.524745 47803 layer_factory.hpp:77] Creating layer pool2
I1223 20:35:11.524755 47803 net.cpp:100] Creating Layer pool2
I1223 20:35:11.524758 47803 net.cpp:434] pool2 <- conv2
I1223 20:35:11.524773 47803 net.cpp:408] pool2 -> pool2
I1223 20:35:11.524835 47803 net.cpp:150] Setting up pool2
I1223 20:35:11.524844 47803 net.cpp:157] Top shape: 48 384 13 13 (3115008)
I1223 20:35:11.524848 47803 net.cpp:165] Memory required for data: 707536320
I1223 20:35:11.524852 47803 layer_factory.hpp:77] Creating layer norm2
I1223 20:35:11.524866 47803 net.cpp:100] Creating Layer norm2
I1223 20:35:11.524870 47803 net.cpp:434] norm2 <- pool2
I1223 20:35:11.524879 47803 net.cpp:408] norm2 -> norm2
I1223 20:35:11.525146 47803 net.cpp:150] Setting up norm2
I1223 20:35:11.525156 47803 net.cpp:157] Top shape: 48 384 13 13 (3115008)
I1223 20:35:11.525159 47803 net.cpp:165] Memory required for data: 719996352
I1223 20:35:11.525166 47803 layer_factory.hpp:77] Creating layer conv3
I1223 20:35:11.525187 47803 net.cpp:100] Creating Layer conv3
I1223 20:35:11.525192 47803 net.cpp:434] conv3 <- norm2
I1223 20:35:11.525202 47803 net.cpp:408] conv3 -> conv3
I1223 20:35:11.579746 47803 net.cpp:150] Setting up conv3
I1223 20:35:11.579792 47803 net.cpp:157] Top shape: 48 512 13 13 (4153344)
I1223 20:35:11.579797 47803 net.cpp:165] Memory required for data: 736609728
I1223 20:35:11.579816 47803 layer_factory.hpp:77] Creating layer relu3
I1223 20:35:11.579833 47803 net.cpp:100] Creating Layer relu3
I1223 20:35:11.579838 47803 net.cpp:434] relu3 <- conv3
I1223 20:35:11.579848 47803 net.cpp:395] relu3 -> conv3 (in-place)
I1223 20:35:11.580088 47803 net.cpp:150] Setting up relu3
I1223 20:35:11.580098 47803 net.cpp:157] Top shape: 48 512 13 13 (4153344)
I1223 20:35:11.580102 47803 net.cpp:165] Memory required for data: 753223104
I1223 20:35:11.580106 47803 layer_factory.hpp:77] Creating layer conv4
I1223 20:35:11.580123 47803 net.cpp:100] Creating Layer conv4
I1223 20:35:11.580127 47803 net.cpp:434] conv4 <- conv3
I1223 20:35:11.580134 47803 net.cpp:408] conv4 -> conv4
I1223 20:35:11.609865 47803 net.cpp:150] Setting up conv4
I1223 20:35:11.609922 47803 net.cpp:157] Top shape: 48 512 13 13 (4153344)
I1223 20:35:11.609926 47803 net.cpp:165] Memory required for data: 769836480
I1223 20:35:11.609949 47803 layer_factory.hpp:77] Creating layer relu4
I1223 20:35:11.609964 47803 net.cpp:100] Creating Layer relu4
I1223 20:35:11.609969 47803 net.cpp:434] relu4 <- conv4
I1223 20:35:11.609982 47803 net.cpp:395] relu4 -> conv4 (in-place)
I1223 20:35:11.610435 47803 net.cpp:150] Setting up relu4
I1223 20:35:11.610451 47803 net.cpp:157] Top shape: 48 512 13 13 (4153344)
I1223 20:35:11.610455 47803 net.cpp:165] Memory required for data: 786449856
I1223 20:35:11.610458 47803 layer_factory.hpp:77] Creating layer conv5
I1223 20:35:11.610479 47803 net.cpp:100] Creating Layer conv5
I1223 20:35:11.610483 47803 net.cpp:434] conv5 <- conv4
I1223 20:35:11.610497 47803 net.cpp:408] conv5 -> conv5
I1223 20:35:11.633070 47803 net.cpp:150] Setting up conv5
I1223 20:35:11.633189 47803 net.cpp:157] Top shape: 48 384 13 13 (3115008)
I1223 20:35:11.633208 47803 net.cpp:165] Memory required for data: 798909888
I1223 20:35:11.633242 47803 layer_factory.hpp:77] Creating layer relu5
I1223 20:35:11.633272 47803 net.cpp:100] Creating Layer relu5
I1223 20:35:11.633289 47803 net.cpp:434] relu5 <- conv5
I1223 20:35:11.633316 47803 net.cpp:395] relu5 -> conv5 (in-place)
I1223 20:35:11.633744 47803 net.cpp:150] Setting up relu5
I1223 20:35:11.633785 47803 net.cpp:157] Top shape: 48 384 13 13 (3115008)
I1223 20:35:11.633801 47803 net.cpp:165] Memory required for data: 811369920
I1223 20:35:11.633817 47803 layer_factory.hpp:77] Creating layer pool5
I1223 20:35:11.633837 47803 net.cpp:100] Creating Layer pool5
I1223 20:35:11.633853 47803 net.cpp:434] pool5 <- conv5
I1223 20:35:11.633877 47803 net.cpp:408] pool5 -> pool5
I1223 20:35:11.633962 47803 net.cpp:150] Setting up pool5
I1223 20:35:11.633985 47803 net.cpp:157] Top shape: 48 384 6 6 (663552)
I1223 20:35:11.634001 47803 net.cpp:165] Memory required for data: 814024128
I1223 20:35:11.634019 47803 layer_factory.hpp:77] Creating layer fc6
I1223 20:35:11.634048 47803 net.cpp:100] Creating Layer fc6
I1223 20:35:11.634064 47803 net.cpp:434] fc6 <- pool5
I1223 20:35:11.634084 47803 net.cpp:408] fc6 -> fc6
I1223 20:35:12.809186 47803 net.cpp:150] Setting up fc6
I1223 20:35:12.809309 47803 net.cpp:157] Top shape: 48 4096 (196608)
I1223 20:35:12.809326 47803 net.cpp:165] Memory required for data: 814810560
I1223 20:35:12.809362 47803 layer_factory.hpp:77] Creating layer relu6
I1223 20:35:12.809397 47803 net.cpp:100] Creating Layer relu6
I1223 20:35:12.809419 47803 net.cpp:434] relu6 <- fc6
I1223 20:35:12.809443 47803 net.cpp:395] relu6 -> fc6 (in-place)
I1223 20:35:12.809931 47803 net.cpp:150] Setting up relu6
I1223 20:35:12.809962 47803 net.cpp:157] Top shape: 48 4096 (196608)
I1223 20:35:12.809978 47803 net.cpp:165] Memory required for data: 815596992
I1223 20:35:12.809993 47803 layer_factory.hpp:77] Creating layer drop6
I1223 20:35:12.810014 47803 net.cpp:100] Creating Layer drop6
I1223 20:35:12.810029 47803 net.cpp:434] drop6 <- fc6
I1223 20:35:12.810050 47803 net.cpp:395] drop6 -> fc6 (in-place)
I1223 20:35:12.810113 47803 net.cpp:150] Setting up drop6
I1223 20:35:12.810137 47803 net.cpp:157] Top shape: 48 4096 (196608)
I1223 20:35:12.810151 47803 net.cpp:165] Memory required for data: 816383424
I1223 20:35:12.810166 47803 layer_factory.hpp:77] Creating layer reshape-data
I1223 20:35:12.810191 47803 net.cpp:100] Creating Layer reshape-data
I1223 20:35:12.810207 47803 net.cpp:434] reshape-data <- fc6
I1223 20:35:12.810247 47803 net.cpp:408] reshape-data -> fc6-reshape
I1223 20:35:12.810312 47803 net.cpp:150] Setting up reshape-data
I1223 20:35:12.810336 47803 net.cpp:157] Top shape: 16 3 4096 (196608)
I1223 20:35:12.810351 47803 net.cpp:165] Memory required for data: 817169856
I1223 20:35:12.810366 47803 layer_factory.hpp:77] Creating layer reshape-label
I1223 20:35:12.810387 47803 net.cpp:100] Creating Layer reshape-label
I1223 20:35:12.810403 47803 net.cpp:434] reshape-label <- label
I1223 20:35:12.810425 47803 net.cpp:408] reshape-label -> reshape-label
I1223 20:35:12.810493 47803 net.cpp:150] Setting up reshape-label
I1223 20:35:12.810514 47803 net.cpp:157] Top shape: 16 3 (48)
I1223 20:35:12.810529 47803 net.cpp:165] Memory required for data: 817170048
I1223 20:35:12.810544 47803 layer_factory.hpp:77] Creating layer reshape-label_reshape-label_0_split
I1223 20:35:12.810581 47803 net.cpp:100] Creating Layer reshape-label_reshape-label_0_split
I1223 20:35:12.810598 47803 net.cpp:434] reshape-label_reshape-label_0_split <- reshape-label
I1223 20:35:12.810618 47803 net.cpp:408] reshape-label_reshape-label_0_split -> reshape-label_reshape-label_0_split_0
I1223 20:35:12.810705 47803 net.cpp:408] reshape-label_reshape-label_0_split -> reshape-label_reshape-label_0_split_1
I1223 20:35:12.810778 47803 net.cpp:150] Setting up reshape-label_reshape-label_0_split
I1223 20:35:12.810801 47803 net.cpp:157] Top shape: 16 3 (48)
I1223 20:35:12.810817 47803 net.cpp:157] Top shape: 16 3 (48)
I1223 20:35:12.810832 47803 net.cpp:165] Memory required for data: 817170432
I1223 20:35:12.810845 47803 layer_factory.hpp:77] Creating layer reshape-cm
I1223 20:35:12.810869 47803 net.cpp:100] Creating Layer reshape-cm
I1223 20:35:12.810884 47803 net.cpp:434] reshape-cm <- clip_markers
I1223 20:35:12.810906 47803 net.cpp:408] reshape-cm -> reshape-cm
I1223 20:35:12.810955 47803 net.cpp:150] Setting up reshape-cm
I1223 20:35:12.810976 47803 net.cpp:157] Top shape: 16 3 (48)
I1223 20:35:12.810989 47803 net.cpp:165] Memory required for data: 817170624
I1223 20:35:12.811004 47803 layer_factory.hpp:77] Creating layer lstm1
I1223 20:35:12.811030 47803 net.cpp:100] Creating Layer lstm1
I1223 20:35:12.811045 47803 net.cpp:434] lstm1 <- fc6-reshape
I1223 20:35:12.811063 47803 net.cpp:434] lstm1 <- reshape-cm
I1223 20:35:12.811082 47803 net.cpp:408] lstm1 -> lstm1
I1223 20:35:12.811105 47803 recurrent_layer.cpp:20] Initializing recurrent layer: assuming input batch contains 16 timesteps of 3 independent streams.
I1223 20:35:12.812106 47803 net.cpp:58] Initializing net from parameters: 
layer {
  name: "lstm1_"
  type: "Input"
  top: "x"
  top: "cont"
  input_param {
    shape {
      dim: 16
      dim: 3
      dim: 4096
    }
    shape {
      dim: 16
      dim: 3
    }
  }
}
layer {
  name: "lstm1_"
  type: "Input"
  top: "c_0"
  top: "h_0"
  input_param {
    shape {
      dim: 1
      dim: 3
      dim: 256
    }
    shape {
      dim: 1
      dim: 3
      dim: 256
    }
  }
}
layer {
  name: "lstm1_cont_slice"
  type: "Slice"
  bottom: "cont"
  top: "cont_1"
  top: "cont_2"
  top: "cont_3"
  top: "cont_4"
  top: "cont_5"
  top: "cont_6"
  top: "cont_7"
  top: "cont_8"
  top: "cont_9"
  top: "cont_10"
  top: "cont_11"
  top: "cont_12"
  top: "cont_13"
  top: "cont_14"
  top: "cont_15"
  top: "cont_16"
  slice_param {
    axis: 0
  }
}
layer {
  name: "lstm1_x_transform"
  type: "InnerProduct"
  bottom: "x"
  top: "W_xc_x"
  param {
    name: "W_xc"
  }
  param {
    name: "b_c"
  }
  propagate_down: true
  inner_product_param {
    num_output: 1024
    bias_term: true
    weight_filler {
      type: "uniform"
      min: -0.01
      max: 0.01
    }
    bias_filler {
      type: "constant"
      value: 0
    }
    axis: 2
  }
}
layer {
  name: "lstm1_W_xc_x_slice"
  type: "Slice"
  bottom: "W_xc_x"
  top: "W_xc_x_1"
  top: "W_xc_x_2"
  top: "W_xc_x_3"
  top: "W_xc_x_4"
  top: "W_xc_x_5"
  top: "W_xc_x_6"
  top: "W_xc_x_7"
  top: "W_xc_x_8"
  top: "W_xc_x_9"
  top: "W_xc_x_10"
  top: "W_xc_x_11"
  top: "W_xc_x_12"
  top: "W_xc_x_13"
  top: "W_xc_x_14"
  top: "W_xc_x_15"
  top: "W_xc_x_16"
  slice_param {
    axis: 0
  }
}
layer {
  name: "lstm1_h_conted_0"
  type: "Scale"
  bottom: "h_0"
  bottom: "cont_1"
  top: "h_conted_0"
  scale_param {
    axis: 0
  }
}
layer {
  name: "lstm1_transform_1"
  type: "InnerProduct"
  bottom: "h_conted_0"
  top: "W_hc_h_0"
  param {
    name: "W_hc"
  }
  inner_product_param {
    num_output: 1024
    bias_term: false
    weight_filler {
      type: "uniform"
      min: -0.01
      max: 0.01
    }
    axis: 2
  }
}
layer {
  name: "lstm1_gate_input_1"
  type: "Eltwise"
  bottom: "W_hc_h_0"
  bottom: "W_xc_x_1"
  top: "gate_input_1"
  eltwise_param {
    operation: SUM
  }
}
layer {
  name: "lstm1_unit_1"
  type: "LSTMUnit"
  bottom: "c_0"
  bottom: "gate_input_1"
  bottom: "cont_1"
  top: "c_1"
  top: "h_1"
}
layer {
  name: "lstm1_h_conted_1"
  type: "Scale"
  bottom: "h_1"
  bottom: "cont_2"
  top: "h_conted_1"
  scale_param {
    axis: 0
  }
}
layer {
  name: "lstm1_transform_2"
  type: "InnerProduct"
  bottom: "h_conted_1"
  top: "W_hc_h_1"
  param {
    name: "W_hc"
  }
  inner_product_param {
    num_output: 1024
    bias_term: false
    weight_filler {
      type: "uniform"
      min: -0.01
      max: 0.01
    }
    axis: 2
  }
}
layer {
  name: "lstm1_gate_input_2"
  type: "Eltwise"
  bottom: "W_hc_h_1"
  bottom: "W_xc_x_2"
  top: "gate_input_2"
  eltwise_param {
    operation: SUM
  }
}
layer {
  name: "lstm1_unit_2"
  type: "LSTMUnit"
  bottom: "c_1"
  bottom: "gate_input_2"
  bottom: "cont_2"
  top: "c_2"
  top: "h_2"
}
layer {
  name: "lstm1_h_conted_2"
  type: "Scale"
  bottom: "h_2"
  bottom: "cont_3"
  top: "h_conted_2"
  scale_param {
    axis: 0
  }
}
layer {
  name: "lstm1_transform_3"
  type: "InnerProduct"
  bottom: "h_conted_2"
  top: "W_hc_h_2"
  param {
    name: "W_hc"
  }
  inner_product_param {
    num_output: 1024
    bias_term: false
    weight_filler {
      type: "uniform"
      min: -0.01
      max: 0.01
    }
    axis: 2
  }
}
layer {
  name: "lstm1_gate_input_3"
  type: "Eltwise"
  bottom: "W_hc_h_2"
  bottom: "W_xc_x_3"
  top: "gate_input_3"
  eltwise_param {
    operation: SUM
  }
}
layer {
  name: "lstm1_unit_3"
  type: "LSTMUnit"
  bottom: "c_2"
  bottom: "gate_input_3"
  bottom: "cont_3"
  top: "c_3"
  top: "h_3"
}
layer {
  name: "lstm1_h_conted_3"
  type: "Scale"
  bottom: "h_3"
  bottom: "cont_4"
  top: "h_conted_3"
  scale_param {
    axis: 0
  }
}
layer {
  name: "lstm1_transform_4"
  type: "InnerProduct"
  bottom: "h_conted_3"
  top: "W_hc_h_3"
  param {
    name: "W_hc"
  }
  inner_product_param {
    num_output: 1024
    bias_term: false
    weight_filler {
      type: "uniform"
      min: -0.01
      max: 0.01
    }
    axis: 2
  }
}
layer {
  name: "lstm1_gate_input_4"
  type: "Eltwise"
  bottom: "W_hc_h_3"
  bottom: "W_xc_x_4"
  top: "gate_input_4"
  eltwise_param {
    operation: SUM
  }
}
layer {
  name: "lstm1_unit_4"
  type: "LSTMUnit"
  bottom: "c_3"
  bottom: "gate_input_4"
  bottom: "cont_4"
  top: "c_4"
  top: "h_4"
}
layer {
  name: "lstm1_h_conted_4"
  type: "Scale"
  bottom: "h_4"
  bottom: "cont_5"
  top: "h_conted_4"
  scale_param {
    axis: 0
  }
}
layer {
  name: "lstm1_transform_5"
  type: "InnerProduct"
  bottom: "h_conted_4"
  top: "W_hc_h_4"
  param {
    name: "W_hc"
  }
  inner_product_param {
    num_output: 1024
    bias_term: false
    weight_filler {
      type: "uniform"
      min: -0.01
      max: 0.01
    }
    axis: 2
  }
}
layer {
  name: "lstm1_gate_input_5"
  type: "Eltwise"
  bottom: "W_hc_h_4"
  bottom: "W_xc_x_5"
  top: "gate_input_5"
  eltwise_param {
    operation: SUM
  }
}
layer {
  name: "lstm1_unit_5"
  type: "LSTMUnit"
  bottom: "c_4"
  bottom: "gate_input_5"
  bottom: "cont_5"
  top: "c_5"
  top: "h_5"
}
layer {
  name: "lstm1_h_conted_5"
  type: "Scale"
  bottom: "h_5"
  bottom: "cont_6"
  top: "h_conted_5"
  scale_param {
    axis: 0
  }
}
layer {
  name: "lstm1_transform_6"
  type: "InnerProduct"
  bottom: "h_conted_5"
  top: "W_hc_h_5"
  param {
    name: "W_hc"
  }
  inner_product_param {
    num_output: 1024
    bias_term: false
    weight_filler {
      type: "uniform"
      min: -0.01
      max: 0.01
    }
    axis: 2
  }
}
layer {
  name: "lstm1_gate_input_6"
  type: "Eltwise"
  bottom: "W_hc_h_5"
  bottom: "W_xc_x_6"
  top: "gate_input_6"
  eltwise_param {
    operation: SUM
  }
}
layer {
  name: "lstm1_unit_6"
  type: "LSTMUnit"
  bottom: "c_5"
  bottom: "gate_input_6"
  bottom: "cont_6"
  top: "c_6"
  top: "h_6"
}
layer {
  name: "lstm1_h_conted_6"
  type: "Scale"
  bottom: "h_6"
  bottom: "cont_7"
  top: "h_conted_6"
  scale_param {
    axis: 0
  }
}
layer {
  name: "lstm1_transform_7"
  type: "InnerProduct"
  bottom: "h_conted_6"
  top: "W_hc_h_6"
  param {
    name: "W_hc"
  }
  inner_product_param {
    num_output: 1024
    bias_term: false
    weight_filler {
      type: "uniform"
      min: -0.01
      max: 0.01
    }
    axis: 2
  }
}
layer {
  name: "lstm1_gate_input_7"
  type: "Eltwise"
  bottom: "W_hc_h_6"
  bottom: "W_xc_x_7"
  top: "gate_input_7"
  eltwise_param {
    operation: SUM
  }
}
layer {
  name: "lstm1_unit_7"
  type: "LSTMUnit"
  bottom: "c_6"
  bottom: "gate_input_7"
  bottom: "cont_7"
  top: "c_7"
  top: "h_7"
}
layer {
  name: "lstm1_h_conted_7"
  type: "Scale"
  bottom: "h_7"
  bottom: "cont_8"
  top: "h_conted_7"
  scale_param {
    axis: 0
  }
}
layer {
  name: "lstm1_transform_8"
  type: "InnerProduct"
  bottom: "h_conted_7"
  top: "W_hc_h_7"
  param {
    name: "W_hc"
  }
  inner_product_param {
    num_output: 1024
    bias_term: false
    weight_filler {
      type: "uniform"
      min: -0.01
      max: 0.01
    }
    axis: 2
  }
}
layer {
  name: "lstm1_gate_input_8"
  type: "Eltwise"
  bottom: "W_hc_h_7"
  bottom: "W_xc_x_8"
  top: "gate_input_8"
  eltwise_param {
    operation: SUM
  }
}
layer {
  name: "lstm1_unit_8"
  type: "LSTMUnit"
  bottom: "c_7"
  bottom: "gate_input_8"
  bottom: "cont_8"
  top: "c_8"
  top: "h_8"
}
layer {
  name: "lstm1_h_conted_8"
  type: "Scale"
  bottom: "h_8"
  bottom: "cont_9"
  top: "h_conted_8"
  scale_param {
    axis: 0
  }
}
layer {
  name: "lstm1_transform_9"
  type: "InnerProduct"
  bottom: "h_conted_8"
  top: "W_hc_h_8"
  param {
    name: "W_hc"
  }
  inner_product_param {
    num_output: 1024
    bias_term: false
    weight_filler {
      type: "uniform"
      min: -0.01
      max: 0.01
    }
    axis: 2
  }
}
layer {
  name: "lstm1_gate_input_9"
  type: "Eltwise"
  bottom: "W_hc_h_8"
  bottom: "W_xc_x_9"
  top: "gate_input_9"
  eltwise_param {
    operation: SUM
  }
}
layer {
  name: "lstm1_unit_9"
  type: "LSTMUnit"
  bottom: "c_8"
  bottom: "gate_input_9"
  bottom: "cont_9"
  top: "c_9"
  top: "h_9"
}
layer {
  name: "lstm1_h_conted_9"
  type: "Scale"
  bottom: "h_9"
  bottom: "cont_10"
  top: "h_conted_9"
  scale_param {
    axis: 0
  }
}
layer {
  name: "lstm1_transform_10"
  type: "InnerProduct"
  bottom: "h_conted_9"
  top: "W_hc_h_9"
  param {
    name: "W_hc"
  }
  inner_product_param {
    num_output: 1024
    bias_term: false
    weight_filler {
      type: "uniform"
      min: -0.01
      max: 0.01
    }
    axis: 2
  }
}
layer {
  name: "lstm1_gate_input_10"
  type: "Eltwise"
  bottom: "W_hc_h_9"
  bottom: "W_xc_x_10"
  top: "gate_input_10"
  eltwise_param {
    operation: SUM
  }
}
layer {
  name: "lstm1_unit_10"
  type: "LSTMUnit"
  bottom: "c_9"
  bottom: "gate_input_10"
  bottom: "cont_10"
  top: "c_10"
  top: "h_10"
}
layer {
  name: "lstm1_h_conted_10"
  type: "Scale"
  bottom: "h_10"
  bottom: "cont_11"
  top: "h_conted_10"
  scale_param {
    axis: 0
  }
}
layer {
  name: "lstm1_transform_11"
  type: "InnerProduct"
  bottom: "h_conted_10"
  top: "W_hc_h_10"
  param {
    name: "W_hc"
  }
  inner_product_param {
    num_output: 1024
    bias_term: false
    weight_filler {
      type: "uniform"
      min: -0.01
      max: 0.01
    }
    axis: 2
  }
}
layer {
  name: "lstm1_gate_input_11"
  type: "Eltwise"
  bottom: "W_hc_h_10"
  bottom: "W_xc_x_11"
  top: "gate_input_11"
  eltwise_param {
    operation: SUM
  }
}
layer {
  name: "lstm1_unit_11"
  type: "LSTMUnit"
  bottom: "c_10"
  bottom: "gate_input_11"
  bottom: "cont_11"
  top: "c_11"
  top: "h_11"
}
layer {
  name: "lstm1_h_conted_11"
  type: "Scale"
  bottom: "h_11"
  bottom: "cont_12"
  top: "h_conted_11"
  scale_param {
    axis: 0
  }
}
layer {
  name: "lstm1_transform_12"
  type: "InnerProduct"
  bottom: "h_conted_11"
  top: "W_hc_h_11"
  param {
    name: "W_hc"
  }
  inner_product_param {
    num_output: 1024
    bias_term: false
    weight_filler {
      type: "uniform"
      min: -0.01
      max: 0.01
    }
    axis: 2
  }
}
layer {
  name: "lstm1_gate_input_12"
  type: "Eltwise"
  bottom: "W_hc_h_11"
  bottom: "W_xc_x_12"
  top: "gate_input_12"
  eltwise_param {
    operation: SUM
  }
}
layer {
  name: "lstm1_unit_12"
  type: "LSTMUnit"
  bottom: "c_11"
  bottom: "gate_input_12"
  bottom: "cont_12"
  top: "c_12"
  top: "h_12"
}
layer {
  name: "lstm1_h_conted_12"
  type: "Scale"
  bottom: "h_12"
  bottom: "cont_13"
  top: "h_conted_12"
  scale_param {
    axis: 0
  }
}
layer {
  name: "lstm1_transform_13"
  type: "InnerProduct"
  bottom: "h_conted_12"
  top: "W_hc_h_12"
  param {
    name: "W_hc"
  }
  inner_product_param {
    num_output: 1024
    bias_term: false
    weight_filler {
      type: "uniform"
      min: -0.01
      max: 0.01
    }
    axis: 2
  }
}
layer {
  name: "lstm1_gate_input_13"
  type: "Eltwise"
  bottom: "W_hc_h_12"
  bottom: "W_xc_x_13"
  top: "gate_input_13"
  eltwise_param {
    operation: SUM
  }
}
layer {
  name: "lstm1_unit_13"
  type: "LSTMUnit"
  bottom: "c_12"
  bottom: "gate_input_13"
  bottom: "cont_13"
  top: "c_13"
  top: "h_13"
}
layer {
  name: "lstm1_h_conted_13"
  type: "Scale"
  bottom: "h_13"
  bottom: "cont_14"
  top: "h_conted_13"
  scale_param {
    axis: 0
  }
}
layer {
  name: "lstm1_transform_14"
  type: "InnerProduct"
  bottom: "h_conted_13"
  top: "W_hc_h_13"
  param {
    name: "W_hc"
  }
  inner_product_param {
    num_output: 1024
    bias_term: false
    weight_filler {
      type: "uniform"
      min: -0.01
      max: 0.01
    }
    axis: 2
  }
}
layer {
  name: "lstm1_gate_input_14"
  type: "Eltwise"
  bottom: "W_hc_h_13"
  bottom: "W_xc_x_14"
  top: "gate_input_14"
  eltwise_param {
    operation: SUM
  }
}
layer {
  name: "lstm1_unit_14"
  type: "LSTMUnit"
  bottom: "c_13"
  bottom: "gate_input_14"
  bottom: "cont_14"
  top: "c_14"
  top: "h_14"
}
layer {
  name: "lstm1_h_conted_14"
  type: "Scale"
  bottom: "h_14"
  bottom: "cont_15"
  top: "h_conted_14"
  scale_param {
    axis: 0
  }
}
layer {
  name: "lstm1_transform_15"
  type: "InnerProduct"
  bottom: "h_conted_14"
  top: "W_hc_h_14"
  param {
    name: "W_hc"
  }
  inner_product_param {
    num_output: 1024
    bias_term: false
    weight_filler {
      type: "uniform"
      min: -0.01
      max: 0.01
    }
    axis: 2
  }
}
layer {
  name: "lstm1_gate_input_15"
  type: "Eltwise"
  bottom: "W_hc_h_14"
  bottom: "W_xc_x_15"
  top: "gate_input_15"
  eltwise_param {
    operation: SUM
  }
}
layer {
  name: "lstm1_unit_15"
  type: "LSTMUnit"
  bottom: "c_14"
  bottom: "gate_input_15"
  bottom: "cont_15"
  top: "c_15"
  top: "h_15"
}
layer {
  name: "lstm1_h_conted_15"
  type: "Scale"
  bottom: "h_15"
  bottom: "cont_16"
  top: "h_conted_15"
  scale_param {
    axis: 0
  }
}
layer {
  name: "lstm1_transform_16"
  type: "InnerProduct"
  bottom: "h_conted_15"
  top: "W_hc_h_15"
  param {
    name: "W_hc"
  }
  inner_product_param {
    num_output: 1024
    bias_term: false
    weight_filler {
      type: "uniform"
      min: -0.01
      max: 0.01
    }
    axis: 2
  }
}
layer {
  name: "lstm1_gate_input_16"
  type: "Eltwise"
  bottom: "W_hc_h_15"
  bottom: "W_xc_x_16"
  top: "gate_input_16"
  eltwise_param {
    operation: SUM
  }
}
layer {
  name: "lstm1_unit_16"
  type: "LSTMUnit"
  bottom: "c_15"
  bottom: "gate_input_16"
  bottom: "cont_16"
  top: "c_16"
  top: "h_16"
}
layer {
  name: "lstm1_"
  type: "Split"
  bottom: "c_16"
  top: "c_T"
}
layer {
  name: "lstm1_h_concat"
  type: "Concat"
  bottom: "h_1"
  bottom: "h_2"
  bottom: "h_3"
  bottom: "h_4"
  bottom: "h_5"
  bottom: "h_6"
  bottom: "h_7"
  bottom: "h_8"
  bottom: "h_9"
  bottom: "h_10"
  bottom: "h_11"
  bottom: "h_12"
  bottom: "h_13"
  bottom: "h_14"
  bottom: "h_15"
  bottom: "h_16"
  top: "h"
  concat_param {
    axis: 0
  }
}
layer {
  name: "h_pseudoloss"
  type: "Reduction"
  bottom: "h"
  top: "h_pseudoloss"
  loss_weight: 1
}
I1223 20:35:12.816102 47803 layer_factory.hpp:77] Creating layer lstm1_
I1223 20:35:12.816162 47803 net.cpp:100] Creating Layer lstm1_
I1223 20:35:12.816182 47803 net.cpp:408] lstm1_ -> x
I1223 20:35:12.816213 47803 net.cpp:408] lstm1_ -> cont
I1223 20:35:12.816375 47803 net.cpp:150] Setting up lstm1_
I1223 20:35:12.816401 47803 net.cpp:157] Top shape: 16 3 4096 (196608)
I1223 20:35:12.816418 47803 net.cpp:157] Top shape: 16 3 (48)
I1223 20:35:12.816432 47803 net.cpp:165] Memory required for data: 786624
I1223 20:35:12.816448 47803 layer_factory.hpp:77] Creating layer lstm1_
I1223 20:35:12.816467 47803 net.cpp:100] Creating Layer lstm1_
I1223 20:35:12.816489 47803 net.cpp:408] lstm1_ -> c_0
I1223 20:35:12.816510 47803 net.cpp:408] lstm1_ -> h_0
I1223 20:35:12.816573 47803 net.cpp:150] Setting up lstm1_
I1223 20:35:12.816596 47803 net.cpp:157] Top shape: 1 3 256 (768)
I1223 20:35:12.816612 47803 net.cpp:157] Top shape: 1 3 256 (768)
I1223 20:35:12.816627 47803 net.cpp:165] Memory required for data: 792768
I1223 20:35:12.816642 47803 layer_factory.hpp:77] Creating layer lstm1_cont_slice
I1223 20:35:12.816660 47803 net.cpp:100] Creating Layer lstm1_cont_slice
I1223 20:35:12.816676 47803 net.cpp:434] lstm1_cont_slice <- cont
I1223 20:35:12.816696 47803 net.cpp:408] lstm1_cont_slice -> cont_1
I1223 20:35:12.816718 47803 net.cpp:408] lstm1_cont_slice -> cont_2
…
I1223 20:35:12.816854 47803 net.cpp:408] lstm1_cont_slice -> cont_9
I1223 20:35:12.816872 47803 net.cpp:408] lstm1_cont_slice -> cont_10
I1223 20:35:12.816891 47803 net.cpp:408] lstm1_cont_slice -> cont_11
I1223 20:35:12.816910 47803 net.cpp:408] lstm1_cont_slice -> cont_12
I1223 20:35:12.816929 47803 net.cpp:408] lstm1_cont_slice -> cont_13
I1223 20:35:12.816953 47803 net.cpp:408] lstm1_cont_slice -> cont_14
I1223 20:35:12.816974 47803 net.cpp:408] lstm1_cont_slice -> cont_15
I1223 20:35:12.816992 47803 net.cpp:408] lstm1_cont_slice -> cont_16
I1223 20:35:12.817270 47803 net.cpp:150] Setting up lstm1_cont_slice
I1223 20:35:12.817294 47803 net.cpp:157] Top shape: 1 3 (3)
I1223 20:35:12.817311 47803 net.cpp:157] Top shape: 1 3 (3)
I1223 20:35:12.817325 47803 net.cpp:157] Top shape: 1 3 (3)
I1223 20:35:12.817340 47803 net.cpp:157] Top shape: 1 3 (3)
I1223 20:35:12.817356 47803 net.cpp:157] Top shape: 1 3 (3)
I1223 20:35:12.817371 47803 net.cpp:157] Top shape: 1 3 (3)
I1223 20:35:12.817386 47803 net.cpp:157] Top shape: 1 3 (3)
I1223 20:35:12.817401 47803 net.cpp:157] Top shape: 1 3 (3)
I1223 20:35:12.817416 47803 net.cpp:157] Top shape: 1 3 (3)
I1223 20:35:12.817431 47803 net.cpp:157] Top shape: 1 3 (3)
I1223 20:35:12.817445 47803 net.cpp:157] Top shape: 1 3 (3)
I1223 20:35:12.817461 47803 net.cpp:157] Top shape: 1 3 (3)
I1223 20:35:12.817476 47803 net.cpp:157] Top shape: 1 3 (3)
I1223 20:35:12.817492 47803 net.cpp:157] Top shape: 1 3 (3)
I1223 20:35:12.817507 47803 net.cpp:157] Top shape: 1 3 (3)
I1223 20:35:12.817520 47803 net.cpp:157] Top shape: 1 3 (3)
I1223 20:35:12.817534 47803 net.cpp:165] Memory required for data: 792960
I1223 20:35:12.817548 47803 layer_factory.hpp:77] Creating layer cont_1_lstm1_cont_slice_0_split
I1223 20:35:12.817566 47803 net.cpp:100] Creating Layer cont_1_lstm1_cont_slice_0_split
I1223 20:35:12.817581 47803 net.cpp:434] cont_1_lstm1_cont_slice_0_split <- cont_1
I1223 20:35:12.817600 47803 net.cpp:408] cont_1_lstm1_cont_slice_0_split -> cont_1_lstm1_cont_slice_0_split_0
I1223 20:35:12.817620 47803 net.cpp:408] cont_1_lstm1_cont_slice_0_split -> cont_1_lstm1_cont_slice_0_split_1
I1223 20:35:12.817685 47803 net.cpp:150] Setting up cont_1_lstm1_cont_slice_0_split
I1223 20:35:12.817706 47803 net.cpp:157] Top shape: 1 3 (3)
I1223 20:35:12.817723 47803 net.cpp:157] Top shape: 1 3 (3)
I1223 20:35:12.817735 47803 net.cpp:165] Memory required for data: 792984
I1223 20:35:12.817749 47803 layer_factory.hpp:77] Creating layer cont_2_lstm1_cont_slice_1_split
I1223 20:35:12.817770 47803 net.cpp:100] Creating Layer cont_2_lstm1_cont_slice_1_split
I1223 20:35:12.817785 47803 net.cpp:434] cont_2_lstm1_cont_slice_1_split <- cont_2
I1223 20:35:12.817803 47803 net.cpp:408] cont_2_lstm1_cont_slice_1_split -> cont_2_lstm1_cont_slice_1_split_0
I1223 20:35:12.817821 47803 net.cpp:408] cont_2_lstm1_cont_slice_1_split -> cont_2_lstm1_cont_slice_1_split_1
I1223 20:35:12.817884 47803 net.cpp:150] Setting up cont_2_lstm1_cont_slice_1_split
I1223 20:35:12.817912 47803 net.cpp:157] Top shape: 1 3 (3)
I1223 20:35:12.817927 47803 net.cpp:157] Top shape: 1 3 (3)
I1223 20:35:12.817941 47803 net.cpp:165] Memory required for data: 793008
I1223 20:35:12.817955 47803 layer_factory.hpp:77] Creating layer cont_3_lstm1_cont_slice_2_split
I1223 20:35:12.817975 47803 net.cpp:100] Creating Layer cont_3_lstm1_cont_slice_2_split
I1223 20:35:12.817989 47803 net.cpp:434] cont_3_lstm1_cont_slice_2_split <- cont_3
I1223 20:35:12.818006 47803 net.cpp:408] cont_3_lstm1_cont_slice_2_split -> cont_3_lstm1_cont_slice_2_split_0
I1223 20:35:12.818025 47803 net.cpp:408] cont_3_lstm1_cont_slice_2_split -> cont_3_lstm1_cont_slice_2_split_1
I1223 20:35:12.818089 47803 net.cpp:150] Setting up cont_3_lstm1_cont_slice_2_split
I1223 20:35:12.818109 47803 net.cpp:157] Top shape: 1 3 (3)
I1223 20:35:12.818123 47803 net.cpp:157] Top shape: 1 3 (3)
I1223 20:35:12.818137 47803 net.cpp:165] Memory required for data: 793032
I1223 20:35:12.818151 47803 layer_factory.hpp:77] Creating layer cont_4_lstm1_cont_slice_3_split
I1223 20:35:12.818167 47803 net.cpp:100] Creating Layer cont_4_lstm1_cont_slice_3_split
I1223 20:35:12.818182 47803 net.cpp:434] cont_4_lstm1_cont_slice_3_split <- cont_4
I1223 20:35:12.818202 47803 net.cpp:408] cont_4_lstm1_cont_slice_3_split -> cont_4_lstm1_cont_slice_3_split_0
I1223 20:35:12.818220 47803 net.cpp:408] cont_4_lstm1_cont_slice_3_split -> cont_4_lstm1_cont_slice_3_split_1
I1223 20:35:12.821861 47803 net.cpp:150] Setting up cont_4_lstm1_cont_slice_3_split
I1223 20:35:12.821948 47803 net.cpp:157] Top shape: 1 3 (3)
I1223 20:35:12.821966 47803 net.cpp:157] Top shape: 1 3 (3)
I1223 20:35:12.821981 47803 net.cpp:165] Memory required for data: 793056
I1223 20:35:12.821998 47803 layer_factory.hpp:77] Creating layer cont_5_lstm1_cont_slice_4_split
I1223 20:35:12.822026 47803 net.cpp:100] Creating Layer cont_5_lstm1_cont_slice_4_split
I1223 20:35:12.822043 47803 net.cpp:434] cont_5_lstm1_cont_slice_4_split <- cont_5
I1223 20:35:12.822068 47803 net.cpp:408] cont_5_lstm1_cont_slice_4_split -> cont_5_lstm1_cont_slice_4_split_0
I1223 20:35:12.822090 47803 net.cpp:408] cont_5_lstm1_cont_slice_4_split -> cont_5_lstm1_cont_slice_4_split_1
I1223 20:35:12.822157 47803 net.cpp:150] Setting up cont_5_lstm1_cont_slice_4_split
I1223 20:35:12.822180 47803 net.cpp:157] Top shape: 1 3 (3)
I1223 20:35:12.822196 47803 net.cpp:157] Top shape: 1 3 (3)
I1223 20:35:12.822211 47803 net.cpp:165] Memory required for data: 793080
I1223 20:35:12.822242 47803 layer_factory.hpp:77] Creating layer cont_6_lstm1_cont_slice_5_split
I1223 20:35:12.822274 47803 net.cpp:100] Creating Layer cont_6_lstm1_cont_slice_5_split
I1223 20:35:12.822291 47803 net.cpp:434] cont_6_lstm1_cont_slice_5_split <- cont_6
I1223 20:35:12.822311 47803 net.cpp:408] cont_6_lstm1_cont_slice_5_split -> cont_6_lstm1_cont_slice_5_split_0
I1223 20:35:12.822335 47803 net.cpp:408] cont_6_lstm1_cont_slice_5_split -> cont_6_lstm1_cont_slice_5_split_1
I1223 20:35:12.822415 47803 net.cpp:150] Setting up cont_6_lstm1_cont_slice_5_split
I1223 20:35:12.822438 47803 net.cpp:157] Top shape: 1 3 (3)
I1223 20:35:12.822454 47803 net.cpp:157] Top shape: 1 3 (3)
I1223 20:35:12.822468 47803 net.cpp:165] Memory required for data: 793104
I1223 20:35:12.822482 47803 layer_factory.hpp:77] Creating layer cont_7_lstm1_cont_slice_6_split
I1223 20:35:12.822501 47803 net.cpp:100] Creating Layer cont_7_lstm1_cont_slice_6_split
I1223 20:35:12.822517 47803 net.cpp:434] cont_7_lstm1_cont_slice_6_split <- cont_7
I1223 20:35:12.822535 47803 net.cpp:408] cont_7_lstm1_cont_slice_6_split -> cont_7_lstm1_cont_slice_6_split_0
I1223 20:35:12.822566 47803 net.cpp:408] cont_7_lstm1_cont_slice_6_split -> cont_7_lstm1_cont_slice_6_split_1
I1223 20:35:12.822635 47803 net.cpp:150] Setting up cont_7_lstm1_cont_slice_6_split
I1223 20:35:12.822659 47803 net.cpp:157] Top shape: 1 3 (3)
I1223 20:35:12.822675 47803 net.cpp:157] Top shape: 1 3 (3)
I1223 20:35:12.822690 47803 net.cpp:165] Memory required for data: 793128
I1223 20:35:12.822705 47803 layer_factory.hpp:77] Creating layer cont_8_lstm1_cont_slice_7_split
I1223 20:35:12.822733 47803 net.cpp:100] Creating Layer cont_8_lstm1_cont_slice_7_split
I1223 20:35:12.822751 47803 net.cpp:434] cont_8_lstm1_cont_slice_7_split <- cont_8
I1223 20:35:12.822769 47803 net.cpp:408] cont_8_lstm1_cont_slice_7_split -> cont_8_lstm1_cont_slice_7_split_0
I1223 20:35:12.822790 47803 net.cpp:408] cont_8_lstm1_cont_slice_7_split -> cont_8_lstm1_cont_slice_7_split_1
I1223 20:35:12.822859 47803 net.cpp:150] Setting up cont_8_lstm1_cont_slice_7_split
I1223 20:35:12.822880 47803 net.cpp:157] Top shape: 1 3 (3)
I1223 20:35:12.822896 47803 net.cpp:157] Top shape: 1 3 (3)
I1223 20:35:12.822911 47803 net.cpp:165] Memory required for data: 793152
I1223 20:35:12.822926 47803 layer_factory.hpp:77] Creating layer cont_9_lstm1_cont_slice_8_split
I1223 20:35:12.822943 47803 net.cpp:100] Creating Layer cont_9_lstm1_cont_slice_8_split
I1223 20:35:12.822959 47803 net.cpp:434] cont_9_lstm1_cont_slice_8_split <- cont_9
I1223 20:35:12.822979 47803 net.cpp:408] cont_9_lstm1_cont_slice_8_split -> cont_9_lstm1_cont_slice_8_split_0
I1223 20:35:12.823000 47803 net.cpp:408] cont_9_lstm1_cont_slice_8_split -> cont_9_lstm1_cont_slice_8_split_1
I1223 20:35:12.823065 47803 net.cpp:150] Setting up cont_9_lstm1_cont_slice_8_split
I1223 20:35:12.823086 47803 net.cpp:157] Top shape: 1 3 (3)
I1223 20:35:12.823101 47803 net.cpp:157] Top shape: 1 3 (3)
I1223 20:35:12.823115 47803 net.cpp:165] Memory required for data: 793176
I1223 20:35:12.823130 47803 layer_factory.hpp:77] Creating layer cont_10_lstm1_cont_slice_9_split
I1223 20:35:12.823151 47803 net.cpp:100] Creating Layer cont_10_lstm1_cont_slice_9_split
I1223 20:35:12.823168 47803 net.cpp:434] cont_10_lstm1_cont_slice_9_split <- cont_10
I1223 20:35:12.823186 47803 net.cpp:408] cont_10_lstm1_cont_slice_9_split -> cont_10_lstm1_cont_slice_9_split_0
I1223 20:35:12.823206 47803 net.cpp:408] cont_10_lstm1_cont_slice_9_split -> cont_10_lstm1_cont_slice_9_split_1
I1223 20:35:12.823272 47803 net.cpp:150] Setting up cont_10_lstm1_cont_slice_9_split
I1223 20:35:12.823293 47803 net.cpp:157] Top shape: 1 3 (3)
I1223 20:35:12.823309 47803 net.cpp:157] Top shape: 1 3 (3)
I1223 20:35:12.823323 47803 net.cpp:165] Memory required for data: 793200
I1223 20:35:12.823338 47803 layer_factory.hpp:77] Creating layer cont_11_lstm1_cont_slice_10_split
I1223 20:35:12.823356 47803 net.cpp:100] Creating Layer cont_11_lstm1_cont_slice_10_split
I1223 20:35:12.823371 47803 net.cpp:434] cont_11_lstm1_cont_slice_10_split <- cont_11
I1223 20:35:12.823392 47803 net.cpp:408] cont_11_lstm1_cont_slice_10_split -> cont_11_lstm1_cont_slice_10_split_0
I1223 20:35:12.823412 47803 net.cpp:408] cont_11_lstm1_cont_slice_10_split -> cont_11_lstm1_cont_slice_10_split_1
I1223 20:35:12.823475 47803 net.cpp:150] Setting up cont_11_lstm1_cont_slice_10_split
I1223 20:35:12.823496 47803 net.cpp:157] Top shape: 1 3 (3)
I1223 20:35:12.823513 47803 net.cpp:157] Top shape: 1 3 (3)
I1223 20:35:12.823526 47803 net.cpp:165] Memory required for data: 793224
I1223 20:35:12.823541 47803 layer_factory.hpp:77] Creating layer cont_12_lstm1_cont_slice_11_split
I1223 20:35:12.823561 47803 net.cpp:100] Creating Layer cont_12_lstm1_cont_slice_11_split
I1223 20:35:12.823577 47803 net.cpp:434] cont_12_lstm1_cont_slice_11_split <- cont_12
I1223 20:35:12.823596 47803 net.cpp:408] cont_12_lstm1_cont_slice_11_split -> cont_12_lstm1_cont_slice_11_split_0
…
I1223 20:35:12.892916 47803 net.cpp:157] Top shape: 1 3 256 (768)
I1223 20:35:12.892935 47803 net.cpp:157] Top shape: 1 3 256 (768)
I1223 20:35:12.892948 47803 net.cpp:165] Memory required for data: 1266432
I1223 20:35:12.892964 47803 layer_factory.hpp:77] Creating layer lstm1_h_conted_2
I1223 20:35:12.892988 47803 net.cpp:100] Creating Layer lstm1_h_conted_2
I1223 20:35:12.893005 47803 net.cpp:434] lstm1_h_conted_2 <- h_2_lstm1_unit_2_1_split_0
I1223 20:35:12.893023 47803 net.cpp:434] lstm1_h_conted_2 <- cont_3_lstm1_cont_slice_2_split_0
I1223 20:35:12.893043 47803 net.cpp:408] lstm1_h_conted_2 -> h_conted_2
I1223 20:35:12.893162 47803 net.cpp:150] Setting up lstm1_h_conted_2
I1223 20:35:12.893185 47803 net.cpp:157] Top shape: 1 3 256 (768)
I1223 20:35:12.893200 47803 net.cpp:165] Memory required for data: 1269504
I1223 20:35:12.893215 47803 layer_factory.hpp:77] Creating layer lstm1_transform_3
I1223 20:35:12.893251 47803 net.cpp:100] Creating Layer lstm1_transform_3
I1223 20:35:12.893270 47803 net.cpp:434] lstm1_transform_3 <- h_conted_2
I1223 20:35:12.893290 47803 net.cpp:408] lstm1_transform_3 -> W_hc_h_2
I1223 20:35:12.897064 47803 net.cpp:150] Setting up lstm1_transform_3
I1223 20:35:12.897157 47803 net.cpp:157] Top shape: 1 3 1024 (3072)
I1223 20:35:12.897176 47803 net.cpp:165] Memory required for data: 1281792
I1223 20:35:12.897204 47803 net.cpp:493] Sharing parameters 'W_hc' owned by layer 'lstm1_transform_1', param index 0
I1223 20:35:12.897225 47803 layer_factory.hpp:77] Creating layer lstm1_gate_input_3
I1223 20:35:12.897255 47803 net.cpp:100] Creating Layer lstm1_gate_input_3
I1223 20:35:12.897275 47803 net.cpp:434] lstm1_gate_input_3 <- W_hc_h_2
I1223 20:35:12.897296 47803 net.cpp:434] lstm1_gate_input_3 <- W_xc_x_3
I1223 20:35:12.897317 47803 net.cpp:408] lstm1_gate_input_3 -> gate_input_3
I1223 20:35:12.897389 47803 net.cpp:150] Setting up lstm1_gate_input_3
I1223 20:35:12.897413 47803 net.cpp:157] Top shape: 1 3 1024 (3072)
I1223 20:35:12.897428 47803 net.cpp:165] Memory required for data: 1294080
I1223 20:35:12.897444 47803 layer_factory.hpp:77] Creating layer lstm1_unit_3
I1223 20:35:12.897464 47803 net.cpp:100] Creating Layer lstm1_unit_3
I1223 20:35:12.897481 47803 net.cpp:434] lstm1_unit_3 <- c_2
I1223 20:35:12.897500 47803 net.cpp:434] lstm1_unit_3 <- gate_input_3
I1223 20:35:12.897518 47803 net.cpp:434] lstm1_unit_3 <- cont_3_lstm1_cont_slice_2_split_1
I1223 20:35:12.897538 47803 net.cpp:408] lstm1_unit_3 -> c_3
I1223 20:35:12.897559 47803 net.cpp:408] lstm1_unit_3 -> h_3
I1223 20:35:12.897650 47803 net.cpp:150] Setting up lstm1_unit_3
I1223 20:35:12.897672 47803 net.cpp:157] Top shape: 1 3 256 (768)
I1223 20:35:12.897688 47803 net.cpp:157] Top shape: 1 3 256 (768)
I1223 20:35:12.897703 47803 net.cpp:165] Memory required for data: 1300224
I1223 20:35:12.897719 47803 layer_factory.hpp:77] Creating layer h_3_lstm1_unit_3_1_split
I1223 20:35:12.897742 47803 net.cpp:100] Creating Layer h_3_lstm1_unit_3_1_split
I1223 20:35:12.897758 47803 net.cpp:434] h_3_lstm1_unit_3_1_split <- h_3
I1223 20:35:12.897778 47803 net.cpp:408] h_3_lstm1_unit_3_1_split -> h_3_lstm1_unit_3_1_split_0
I1223 20:35:12.897799 47803 net.cpp:408] h_3_lstm1_unit_3_1_split -> h_3_lstm1_unit_3_1_split_1
I1223 20:35:12.897872 47803 net.cpp:150] Setting up h_3_lstm1_unit_3_1_split
I1223 20:35:12.897896 47803 net.cpp:157] Top shape: 1 3 256 (768)
I1223 20:35:12.897912 47803 net.cpp:157] Top shape: 1 3 256 (768)
I1223 20:35:12.897927 47803 net.cpp:165] Memory required for data: 1306368
I1223 20:35:12.897943 47803 layer_factory.hpp:77] Creating layer lstm1_h_conted_3
I1223 20:35:12.897964 47803 net.cpp:100] Creating Layer lstm1_h_conted_3
I1223 20:35:12.897980 47803 net.cpp:434] lstm1_h_conted_3 <- h_3_lstm1_unit_3_1_split_0
I1223 20:35:12.897999 47803 net.cpp:434] lstm1_h_conted_3 <- cont_4_lstm1_cont_slice_3_split_0
I1223 20:35:12.898021 47803 net.cpp:408] lstm1_h_conted_3 -> h_conted_3
I1223 20:35:12.898141 47803 net.cpp:150] Setting up lstm1_h_conted_3
I1223 20:35:12.898164 47803 net.cpp:157] Top shape: 1 3 256 (768)
I1223 20:35:12.898190 47803 net.cpp:165] Memory required for data: 1309440
I1223 20:35:12.898207 47803 layer_factory.hpp:77] Creating layer lstm1_transform_4
I1223 20:35:12.898258 47803 net.cpp:100] Creating Layer lstm1_transform_4
I1223 20:35:12.898280 47803 net.cpp:434] lstm1_transform_4 <- h_conted_3
I1223 20:35:12.898305 47803 net.cpp:408] lstm1_transform_4 -> W_hc_h_3
I1223 20:35:12.901819 47803 net.cpp:150] Setting up lstm1_transform_4
I1223 20:35:12.901880 47803 net.cpp:157] Top shape: 1 3 1024 (3072)
I1223 20:35:12.901896 47803 net.cpp:165] Memory required for data: 1321728
I1223 20:35:12.901916 47803 net.cpp:493] Sharing parameters 'W_hc' owned by layer 'lstm1_transform_1', param index 0
I1223 20:35:12.901933 47803 layer_factory.hpp:77] Creating layer lstm1_gate_input_4
I1223 20:35:12.901957 47803 net.cpp:100] Creating Layer lstm1_gate_input_4
I1223 20:35:12.901976 47803 net.cpp:434] lstm1_gate_input_4 <- W_hc_h_3
I1223 20:35:12.901995 47803 net.cpp:434] lstm1_gate_input_4 <- W_xc_x_4
I1223 20:35:12.902019 47803 net.cpp:408] lstm1_gate_input_4 -> gate_input_4
I1223 20:35:12.902082 47803 net.cpp:150] Setting up lstm1_gate_input_4
I1223 20:35:12.902106 47803 net.cpp:157] Top shape: 1 3 1024 (3072)
I1223 20:35:12.902119 47803 net.cpp:165] Memory required for data: 1334016
I1223 20:35:12.902135 47803 layer_factory.hpp:77] Creating layer lstm1_unit_4
I1223 20:35:12.902155 47803 net.cpp:100] Creating Layer lstm1_unit_4
I1223 20:35:12.902173 47803 net.cpp:434] lstm1_unit_4 <- c_3
I1223 20:35:12.902190 47803 net.cpp:434] lstm1_unit_4 <- gate_input_4
I1223 20:35:12.902209 47803 net.cpp:434] lstm1_unit_4 <- cont_4_lstm1_cont_slice_3_split_1
I1223 20:35:12.902245 47803 net.cpp:408] lstm1_unit_4 -> c_4
I1223 20:35:12.902274 47803 net.cpp:408] lstm1_unit_4 -> h_4
I1223 20:35:12.902365 47803 net.cpp:150] Setting up lstm1_unit_4
I1223 20:35:12.902393 47803 net.cpp:157] Top shape: 1 3 256 (768)
I1223 20:35:12.902410 47803 net.cpp:157] Top shape: 1 3 256 (768)
I1223 20:35:12.902426 47803 net.cpp:165] Memory required for data: 1340160
I1223 20:35:12.902441 47803 layer_factory.hpp:77] Creating layer h_4_lstm1_unit_4_1_split
I1223 20:35:12.902461 47803 net.cpp:100] Creating Layer h_4_lstm1_unit_4_1_split
I1223 20:35:12.902477 47803 net.cpp:434] h_4_lstm1_unit_4_1_split <- h_4
I1223 20:35:12.902496 47803 net.cpp:408] h_4_lstm1_unit_4_1_split -> h_4_lstm1_unit_4_1_split_0
I1223 20:35:12.902518 47803 net.cpp:408] h_4_lstm1_unit_4_1_split -> h_4_lstm1_unit_4_1_split_1
I1223 20:35:12.902590 47803 net.cpp:150] Setting up h_4_lstm1_unit_4_1_split
I1223 20:35:12.902612 47803 net.cpp:157] Top shape: 1 3 256 (768)
I1223 20:35:12.902629 47803 net.cpp:157] Top shape: 1 3 256 (768)
I1223 20:35:12.902644 47803 net.cpp:165] Memory required for data: 1346304
I1223 20:35:12.902659 47803 layer_factory.hpp:77] Creating layer lstm1_h_conted_4
I1223 20:35:12.902686 47803 net.cpp:100] Creating Layer lstm1_h_conted_4
I1223 20:35:12.902704 47803 net.cpp:434] lstm1_h_conted_4 <- h_4_lstm1_unit_4_1_split_0
I1223 20:35:12.902724 47803 net.cpp:434] lstm1_h_conted_4 <- cont_5_lstm1_cont_slice_4_split_0
I1223 20:35:12.902743 47803 net.cpp:408] lstm1_h_conted_4 -> h_conted_4
I1223 20:35:12.902860 47803 net.cpp:150] Setting up lstm1_h_conted_4
I1223 20:35:12.902884 47803 net.cpp:157] Top shape: 1 3 256 (768)
I1223 20:35:12.902899 47803 net.cpp:165] Memory required for data: 1349376
I1223 20:35:12.902915 47803 layer_factory.hpp:77] Creating layer lstm1_transform_5
I1223 20:35:12.902938 47803 net.cpp:100] Creating Layer lstm1_transform_5
I1223 20:35:12.902956 47803 net.cpp:434] lstm1_transform_5 <- h_conted_4
I1223 20:35:12.902976 47803 net.cpp:408] lstm1_transform_5 -> W_hc_h_4
I1223 20:35:12.906522 47803 net.cpp:150] Setting up lstm1_transform_5
I1223 20:35:12.906594 47803 net.cpp:157] Top shape: 1 3 1024 (3072)
I1223 20:35:12.906611 47803 net.cpp:165] Memory required for data: 1361664
I1223 20:35:12.906632 47803 net.cpp:493] Sharing parameters 'W_hc' owned by layer 'lstm1_transform_1', param index 0
I1223 20:35:12.906651 47803 layer_factory.hpp:77] Creating layer lstm1_gate_input_5
I1223 20:35:12.906690 47803 net.cpp:100] Creating Layer lstm1_gate_input_5
I1223 20:35:12.906711 47803 net.cpp:434] lstm1_gate_input_5 <- W_hc_h_4
I1223 20:35:12.906733 47803 net.cpp:434] lstm1_gate_input_5 <- W_xc_x_5
I1223 20:35:12.906754 47803 net.cpp:408] lstm1_gate_input_5 -> gate_input_5
I1223 20:35:12.906821 47803 net.cpp:150] Setting up lstm1_gate_input_5
I1223 20:35:12.906843 47803 net.cpp:157] Top shape: 1 3 1024 (3072)
I1223 20:35:12.906858 47803 net.cpp:165] Memory required for data: 1373952
I1223 20:35:12.906873 47803 layer_factory.hpp:77] Creating layer lstm1_unit_5
I1223 20:35:12.906894 47803 net.cpp:100] Creating Layer lstm1_unit_5
I1223 20:35:12.906910 47803 net.cpp:434] lstm1_unit_5 <- c_4
I1223 20:35:12.906930 47803 net.cpp:434] lstm1_unit_5 <- gate_input_5
I1223 20:35:12.906949 47803 net.cpp:434] lstm1_unit_5 <- cont_5_lstm1_cont_slice_4_split_1
I1223 20:35:12.906970 47803 net.cpp:408] lstm1_unit_5 -> c_5
I1223 20:35:12.906991 47803 net.cpp:408] lstm1_unit_5 -> h_5
I1223 20:35:12.907083 47803 net.cpp:150] Setting up lstm1_unit_5
I1223 20:35:12.907105 47803 net.cpp:157] Top shape: 1 3 256 (768)
I1223 20:35:12.907122 47803 net.cpp:157] Top shape: 1 3 256 (768)
I1223 20:35:12.907136 47803 net.cpp:165] Memory required for data: 1380096
I1223 20:35:12.907151 47803 layer_factory.hpp:77] Creating layer h_5_lstm1_unit_5_1_split
I1223 20:35:12.907171 47803 net.cpp:100] Creating Layer h_5_lstm1_unit_5_1_split
I1223 20:35:12.907187 47803 net.cpp:434] h_5_lstm1_unit_5_1_split <- h_5
I1223 20:35:12.907210 47803 net.cpp:408] h_5_lstm1_unit_5_1_split -> h_5_lstm1_unit_5_1_split_0
I1223 20:35:12.907232 47803 net.cpp:408] h_5_lstm1_unit_5_1_split -> h_5_lstm1_unit_5_1_split_1
I1223 20:35:12.907304 47803 net.cpp:150] Setting up h_5_lstm1_unit_5_1_split
I1223 20:35:12.907326 47803 net.cpp:157] Top shape: 1 3 256 (768)
I1223 20:35:12.907342 47803 net.cpp:157] Top shape: 1 3 256 (768)
I1223 20:35:12.907357 47803 net.cpp:165] Memory required for data: 1386240
I1223 20:35:12.907372 47803 layer_factory.hpp:77] Creating layer lstm1_h_conted_5
I1223 20:35:12.907397 47803 net.cpp:100] Creating Layer lstm1_h_conted_5
I1223 20:35:12.907415 47803 net.cpp:434] lstm1_h_conted_5 <- h_5_lstm1_unit_5_1_split_0
I1223 20:35:12.907433 47803 net.cpp:434] lstm1_h_conted_5 <- cont_6_lstm1_cont_slice_5_split_0
I1223 20:35:12.907454 47803 net.cpp:408] lstm1_h_conted_5 -> h_conted_5
I1223 20:35:12.907574 47803 net.cpp:150] Setting up lstm1_h_conted_5
I1223 20:35:12.907598 47803 net.cpp:157] Top shape: 1 3 256 (768)
I1223 20:35:12.907611 47803 net.cpp:165] Memory required for data: 1389312
I1223 20:35:12.907627 47803 layer_factory.hpp:77] Creating layer lstm1_transform_6
I1223 20:35:12.907651 47803 net.cpp:100] Creating Layer lstm1_transform_6
I1223 20:35:12.907668 47803 net.cpp:434] lstm1_transform_6 <- h_conted_5
I1223 20:35:12.907688 47803 net.cpp:408] lstm1_transform_6 -> W_hc_h_5
I1223 20:35:12.911417 47803 net.cpp:150] Setting up lstm1_transform_6
I1223 20:35:12.911509 47803 net.cpp:157] Top shape: 1 3 1024 (3072)
I1223 20:35:12.911525 47803 net.cpp:165] Memory required for data: 1401600
I1223 20:35:12.911548 47803 net.cpp:493] Sharing parameters 'W_hc' owned by layer 'lstm1_transform_1', param index 0
I1223 20:35:12.911567 47803 layer_factory.hpp:77] Creating layer lstm1_gate_input_6
I1223 20:35:12.911593 47803 net.cpp:100] Creating Layer lstm1_gate_input_6
I1223 20:35:12.911613 47803 net.cpp:434] lstm1_gate_input_6 <- W_hc_h_5
I1223 20:35:12.911635 47803 net.cpp:434] lstm1_gate_input_6 <- W_xc_x_6
I1223 20:35:12.911658 47803 net.cpp:408] lstm1_gate_input_6 -> gate_input_6
I1223 20:35:12.911732 47803 net.cpp:150] Setting up lstm1_gate_input_6
I1223 20:35:12.911756 47803 net.cpp:157] Top shape: 1 3 1024 (3072)
I1223 20:35:12.911770 47803 net.cpp:165] Memory required for data: 1413888
I1223 20:35:12.911787 47803 layer_factory.hpp:77] Creating layer lstm1_unit_6
I1223 20:35:12.911806 47803 net.cpp:100] Creating Layer lstm1_unit_6
I1223 20:35:12.911823 47803 net.cpp:434] lstm1_unit_6 <- c_5
I1223 20:35:12.911841 47803 net.cpp:434] lstm1_unit_6 <- gate_input_6
I1223 20:35:12.911872 47803 net.cpp:434] lstm1_unit_6 <- cont_6_lstm1_cont_slice_5_split_1
I1223 20:35:12.911893 47803 net.cpp:408] lstm1_unit_6 -> c_6
I1223 20:35:12.911916 47803 net.cpp:408] lstm1_unit_6 -> h_6
I1223 20:35:12.912006 47803 net.cpp:150] Setting up lstm1_unit_6
I1223 20:35:12.912029 47803 net.cpp:157] Top shape: 1 3 256 (768)
I1223 20:35:12.912045 47803 net.cpp:157] Top shape: 1 3 256 (768)
I1223 20:35:12.912060 47803 net.cpp:165] Memory required for data: 1420032
I1223 20:35:12.912075 47803 layer_factory.hpp:77] Creating layer h_6_lstm1_unit_6_1_split
I1223 20:35:12.912102 47803 net.cpp:100] Creating Layer h_6_lstm1_unit_6_1_split
I1223 20:35:12.912119 47803 net.cpp:434] h_6_lstm1_unit_6_1_split <- h_6
I1223 20:35:12.912139 47803 net.cpp:408] h_6_lstm1_unit_6_1_split -> h_6_lstm1_unit_6_1_split_0
I1223 20:35:12.912161 47803 net.cpp:408] h_6_lstm1_unit_6_1_split -> h_6_lstm1_unit_6_1_split_1
I1223 20:35:12.912235 47803 net.cpp:150] Setting up h_6_lstm1_unit_6_1_split
I1223 20:35:12.912256 47803 net.cpp:157] Top shape: 1 3 256 (768)
I1223 20:35:12.912273 47803 net.cpp:157] Top shape: 1 3 256 (768)
I1223 20:35:12.912287 47803 net.cpp:165] Memory required for data: 1426176
I1223 20:35:12.912303 47803 layer_factory.hpp:77] Creating layer lstm1_h_conted_6
I1223 20:35:12.912327 47803 net.cpp:100] Creating Layer lstm1_h_conted_6
I1223 20:35:12.912344 47803 net.cpp:434] lstm1_h_conted_6 <- h_6_lstm1_unit_6_1_split_0
I1223 20:35:12.912361 47803 net.cpp:434] lstm1_h_conted_6 <- cont_7_lstm1_cont_slice_6_split_0
I1223 20:35:12.912381 47803 net.cpp:408] lstm1_h_conted_6 -> h_conted_6
I1223 20:35:12.912499 47803 net.cpp:150] Setting up lstm1_h_conted_6
I1223 20:35:12.912525 47803 net.cpp:157] Top shape: 1 3 256 (768)
I1223 20:35:12.912540 47803 net.cpp:165] Memory required for data: 1429248
I1223 20:35:12.912555 47803 layer_factory.hpp:77] Creating layer lstm1_transform_7
I1223 20:35:12.912577 47803 net.cpp:100] Creating Layer lstm1_transform_7
I1223 20:35:12.912595 47803 net.cpp:434] lstm1_transform_7 <- h_conted_6
I1223 20:35:12.912616 47803 net.cpp:408] lstm1_transform_7 -> W_hc_h_6
I1223 20:35:12.916362 47803 net.cpp:150] Setting up lstm1_transform_7
I1223 20:35:12.916457 47803 net.cpp:157] Top shape: 1 3 1024 (3072)
I1223 20:35:12.916474 47803 net.cpp:165] Memory required for data: 1441536
I1223 20:35:12.916503 47803 net.cpp:493] Sharing parameters 'W_hc' owned by layer 'lstm1_transform_1', param index 0
I1223 20:35:12.916524 47803 layer_factory.hpp:77] Creating layer lstm1_gate_input_7
I1223 20:35:12.916553 47803 net.cpp:100] Creating Layer lstm1_gate_input_7
I1223 20:35:12.916574 47803 net.cpp:434] lstm1_gate_input_7 <- W_hc_h_6
I1223 20:35:12.916595 47803 net.cpp:434] lstm1_gate_input_7 <- W_xc_x_7
I1223 20:35:12.916620 47803 net.cpp:408] lstm1_gate_input_7 -> gate_input_7
I1223 20:35:12.916692 47803 net.cpp:150] Setting up lstm1_gate_input_7
I1223 20:35:12.916715 47803 net.cpp:157] Top shape: 1 3 1024 (3072)
I1223 20:35:12.916730 47803 net.cpp:165] Memory required for data: 1453824
I1223 20:35:12.916745 47803 layer_factory.hpp:77] Creating layer lstm1_unit_7
I1223 20:35:12.916765 47803 net.cpp:100] Creating Layer lstm1_unit_7
I1223 20:35:12.916782 47803 net.cpp:434] lstm1_unit_7 <- c_6
I1223 20:35:12.916800 47803 net.cpp:434] lstm1_unit_7 <- gate_input_7
I1223 20:35:12.916820 47803 net.cpp:434] lstm1_unit_7 <- cont_7_lstm1_cont_slice_6_split_1
I1223 20:35:12.916838 47803 net.cpp:408] lstm1_unit_7 -> c_7
I1223 20:35:12.916859 47803 net.cpp:408] lstm1_unit_7 -> h_7
I1223 20:35:12.916951 47803 net.cpp:150] Setting up lstm1_unit_7
I1223 20:35:12.916973 47803 net.cpp:157] Top shape: 1 3 256 (768)
I1223 20:35:12.916990 47803 net.cpp:157] Top shape: 1 3 256 (768)
I1223 20:35:12.917004 47803 net.cpp:165] Memory required for data: 1459968
I1223 20:35:12.917021 47803 layer_factory.hpp:77] Creating layer h_7_lstm1_unit_7_1_split
I1223 20:35:12.917039 47803 net.cpp:100] Creating Layer h_7_lstm1_unit_7_1_split
I1223 20:35:12.917055 47803 net.cpp:434] h_7_lstm1_unit_7_1_split <- h_7
I1223 20:35:12.917086 47803 net.cpp:408] h_7_lstm1_unit_7_1_split -> h_7_lstm1_unit_7_1_split_0
I1223 20:35:12.917110 47803 net.cpp:408] h_7_lstm1_unit_7_1_split -> h_7_lstm1_unit_7_1_split_1
I1223 20:35:12.917186 47803 net.cpp:150] Setting up h_7_lstm1_unit_7_1_split
I1223 20:35:12.917207 47803 net.cpp:157] Top shape: 1 3 256 (768)
I1223 20:35:12.917224 47803 net.cpp:157] Top shape: 1 3 256 (768)
I1223 20:35:12.917239 47803 net.cpp:165] Memory required for data: 1466112
I1223 20:35:12.917255 47803 layer_factory.hpp:77] Creating layer lstm1_h_conted_7
I1223 20:35:12.917279 47803 net.cpp:100] Creating Layer lstm1_h_conted_7
I1223 20:35:12.917295 47803 net.cpp:434] lstm1_h_conted_7 <- h_7_lstm1_unit_7_1_split_0
I1223 20:35:12.917315 47803 net.cpp:434] lstm1_h_conted_7 <- cont_8_lstm1_cont_slice_7_split_0
I1223 20:35:12.917333 47803 net.cpp:408] lstm1_h_conted_7 -> h_conted_7
I1223 20:35:12.917454 47803 net.cpp:150] Setting up lstm1_h_conted_7
I1223 20:35:12.917475 47803 net.cpp:157] Top shape: 1 3 256 (768)
I1223 20:35:12.917490 47803 net.cpp:165] Memory required for data: 1469184
I1223 20:35:12.917506 47803 layer_factory.hpp:77] Creating layer lstm1_transform_8
I1223 20:35:12.917532 47803 net.cpp:100] Creating Layer lstm1_transform_8
I1223 20:35:12.917549 47803 net.cpp:434] lstm1_transform_8 <- h_conted_7
I1223 20:35:12.917569 47803 net.cpp:408] lstm1_transform_8 -> W_hc_h_7
I1223 20:35:12.921021 47803 net.cpp:150] Setting up lstm1_transform_8
I1223 20:35:12.921106 47803 net.cpp:157] Top shape: 1 3 1024 (3072)
I1223 20:35:12.921121 47803 net.cpp:165] Memory required for data: 1481472
I1223 20:35:12.921142 47803 net.cpp:493] Sharing parameters 'W_hc' owned by layer 'lstm1_transform_1', param index 0
I1223 20:35:12.921159 47803 layer_factory.hpp:77] Creating layer lstm1_gate_input_8
I1223 20:35:12.921186 47803 net.cpp:100] Creating Layer lstm1_gate_input_8
I1223 20:35:12.921205 47803 net.cpp:434] lstm1_gate_input_8 <- W_hc_h_7
I1223 20:35:12.921224 47803 net.cpp:434] lstm1_gate_input_8 <- W_xc_x_8
I1223 20:35:12.921244 47803 net.cpp:408] lstm1_gate_input_8 -> gate_input_8
I1223 20:35:12.921313 47803 net.cpp:150] Setting up lstm1_gate_input_8
I1223 20:35:12.921334 47803 net.cpp:157] Top shape: 1 3 1024 (3072)
I1223 20:35:12.921347 47803 net.cpp:165] Memory required for data: 1493760
I1223 20:35:12.921362 47803 layer_factory.hpp:77] Creating layer lstm1_unit_8
I1223 20:35:12.921381 47803 net.cpp:100] Creating Layer lstm1_unit_8
I1223 20:35:12.921397 47803 net.cpp:434] lstm1_unit_8 <- c_7
I1223 20:35:12.921413 47803 net.cpp:434] lstm1_unit_8 <- gate_input_8
I1223 20:35:12.921429 47803 net.cpp:434] lstm1_unit_8 <- cont_8_lstm1_cont_slice_7_split_1
I1223 20:35:12.921449 47803 net.cpp:408] lstm1_unit_8 -> c_8
I1223 20:35:12.921469 47803 net.cpp:408] lstm1_unit_8 -> h_8
I1223 20:35:12.921552 47803 net.cpp:150] Setting up lstm1_unit_8
I1223 20:35:12.921573 47803 net.cpp:157] Top shape: 1 3 256 (768)
I1223 20:35:12.921588 47803 net.cpp:157] Top shape: 1 3 256 (768)
I1223 20:35:12.921602 47803 net.cpp:165] Memory required for data: 1499904
I1223 20:35:12.921617 47803 layer_factory.hpp:77] Creating layer h_8_lstm1_unit_8_1_split
I1223 20:35:12.921635 47803 net.cpp:100] Creating Layer h_8_lstm1_unit_8_1_split
I1223 20:35:12.921650 47803 net.cpp:434] h_8_lstm1_unit_8_1_split <- h_8
I1223 20:35:12.921670 47803 net.cpp:408] h_8_lstm1_unit_8_1_split -> h_8_lstm1_unit_8_1_split_0
I1223 20:35:12.921690 47803 net.cpp:408] h_8_lstm1_unit_8_1_split -> h_8_lstm1_unit_8_1_split_1
I1223 20:35:12.921754 47803 net.cpp:150] Setting up h_8_lstm1_unit_8_1_split
I1223 20:35:12.921774 47803 net.cpp:157] Top shape: 1 3 256 (768)
I1223 20:35:12.921789 47803 net.cpp:157] Top shape: 1 3 256 (768)
I1223 20:35:12.921802 47803 net.cpp:165] Memory required for data: 1506048
I1223 20:35:12.921818 47803 layer_factory.hpp:77] Creating layer lstm1_h_conted_8
I1223 20:35:12.921838 47803 net.cpp:100] Creating Layer lstm1_h_conted_8
I1223 20:35:12.921854 47803 net.cpp:434] lstm1_h_conted_8 <- h_8_lstm1_unit_8_1_split_0
I1223 20:35:12.921871 47803 net.cpp:434] lstm1_h_conted_8 <- cont_9_lstm1_cont_slice_8_split_0
I1223 20:35:12.921901 47803 net.cpp:408] lstm1_h_conted_8 -> h_conted_8
I1223 20:35:12.922013 47803 net.cpp:150] Setting up lstm1_h_conted_8
I1223 20:35:12.922034 47803 net.cpp:157] Top shape: 1 3 256 (768)
I1223 20:35:12.922049 47803 net.cpp:165] Memory required for data: 1509120
I1223 20:35:12.922062 47803 layer_factory.hpp:77] Creating layer lstm1_transform_9
I1223 20:35:12.922085 47803 net.cpp:100] Creating Layer lstm1_transform_9
I1223 20:35:12.922099 47803 net.cpp:434] lstm1_transform_9 <- h_conted_8
I1223 20:35:12.922117 47803 net.cpp:408] lstm1_transform_9 -> W_hc_h_8
I1223 20:35:12.925585 47803 net.cpp:150] Setting up lstm1_transform_9
I1223 20:35:12.925680 47803 net.cpp:157] Top shape: 1 3 1024 (3072)
I1223 20:35:12.925696 47803 net.cpp:165] Memory required for data: 1521408
I1223 20:35:12.925716 47803 net.cpp:493] Sharing parameters 'W_hc' owned by layer 'lstm1_transform_1', param index 0
I1223 20:35:12.925735 47803 layer_factory.hpp:77] Creating layer lstm1_gate_input_9
I1223 20:35:12.925760 47803 net.cpp:100] Creating Layer lstm1_gate_input_9
I1223 20:35:12.925778 47803 net.cpp:434] lstm1_gate_input_9 <- W_hc_h_8
I1223 20:35:12.925798 47803 net.cpp:434] lstm1_gate_input_9 <- W_xc_x_9
I1223 20:35:12.925819 47803 net.cpp:408] lstm1_gate_input_9 -> gate_input_9
I1223 20:35:12.925889 47803 net.cpp:150] Setting up lstm1_gate_input_9
I1223 20:35:12.925909 47803 net.cpp:157] Top shape: 1 3 1024 (3072)
I1223 20:35:12.925922 47803 net.cpp:165] Memory required for data: 1533696
I1223 20:35:12.925936 47803 layer_factory.hpp:77] Creating layer lstm1_unit_9
I1223 20:35:12.925981 47803 net.cpp:100] Creating Layer lstm1_unit_9
I1223 20:35:12.925998 47803 net.cpp:434] lstm1_unit_9 <- c_8
I1223 20:35:12.926015 47803 net.cpp:434] lstm1_unit_9 <- gate_input_9
I1223 20:35:12.926033 47803 net.cpp:434] lstm1_unit_9 <- cont_9_lstm1_cont_slice_8_split_1
I1223 20:35:12.926050 47803 net.cpp:408] lstm1_unit_9 -> c_9
I1223 20:35:12.926100 47803 net.cpp:408] lstm1_unit_9 -> h_9
I1223 20:35:12.926182 47803 net.cpp:150] Setting up lstm1_unit_9
I1223 20:35:12.926204 47803 net.cpp:157] Top shape: 1 3 256 (768)
I1223 20:35:12.926221 47803 net.cpp:157] Top shape: 1 3 256 (768)
I1223 20:35:12.926254 47803 net.cpp:165] Memory required for data: 1539840
I1223 20:35:12.926271 47803 layer_factory.hpp:77] Creating layer h_9_lstm1_unit_9_1_split
I1223 20:35:12.926290 47803 net.cpp:100] Creating Layer h_9_lstm1_unit_9_1_split
I1223 20:35:12.926304 47803 net.cpp:434] h_9_lstm1_unit_9_1_split <- h_9
I1223 20:35:12.926326 47803 net.cpp:408] h_9_lstm1_unit_9_1_split -> h_9_lstm1_unit_9_1_split_0
I1223 20:35:12.926345 47803 net.cpp:408] h_9_lstm1_unit_9_1_split -> h_9_lstm1_unit_9_1_split_1
I1223 20:35:12.926415 47803 net.cpp:150] Setting up h_9_lstm1_unit_9_1_split
I1223 20:35:12.926435 47803 net.cpp:157] Top shape: 1 3 256 (768)
I1223 20:35:12.926450 47803 net.cpp:157] Top shape: 1 3 256 (768)
I1223 20:35:12.926465 47803 net.cpp:165] Memory required for data: 1545984
I1223 20:35:12.926478 47803 layer_factory.hpp:77] Creating layer lstm1_h_conted_9
I1223 20:35:12.926499 47803 net.cpp:100] Creating Layer lstm1_h_conted_9
I1223 20:35:12.926514 47803 net.cpp:434] lstm1_h_conted_9 <- h_9_lstm1_unit_9_1_split_0
I1223 20:35:12.926533 47803 net.cpp:434] lstm1_h_conted_9 <- cont_10_lstm1_cont_slice_9_split_0
I1223 20:35:12.926553 47803 net.cpp:408] lstm1_h_conted_9 -> h_conted_9
I1223 20:35:12.926662 47803 net.cpp:150] Setting up lstm1_h_conted_9
I1223 20:35:12.926684 47803 net.cpp:157] Top shape: 1 3 256 (768)
I1223 20:35:12.926698 47803 net.cpp:165] Memory required for data: 1549056
I1223 20:35:12.926712 47803 layer_factory.hpp:77] Creating layer lstm1_transform_10
I1223 20:35:12.926738 47803 net.cpp:100] Creating Layer lstm1_transform_10
I1223 20:35:12.926753 47803 net.cpp:434] lstm1_transform_10 <- h_conted_9
I1223 20:35:12.926772 47803 net.cpp:408] lstm1_transform_10 -> W_hc_h_9
I1223 20:35:12.930207 47803 net.cpp:150] Setting up lstm1_transform_10
I1223 20:35:12.930308 47803 net.cpp:157] Top shape: 1 3 1024 (3072)
I1223 20:35:12.930341 47803 net.cpp:165] Memory required for data: 1561344
I1223 20:35:12.930362 47803 net.cpp:493] Sharing parameters 'W_hc' owned by layer 'lstm1_transform_1', param index 0
I1223 20:35:12.930380 47803 layer_factory.hpp:77] Creating layer lstm1_gate_input_10
I1223 20:35:12.930408 47803 net.cpp:100] Creating Layer lstm1_gate_input_10
I1223 20:35:12.930425 47803 net.cpp:434] lstm1_gate_input_10 <- W_hc_h_9
I1223 20:35:12.930444 47803 net.cpp:434] lstm1_gate_input_10 <- W_xc_x_10
I1223 20:35:12.930464 47803 net.cpp:408] lstm1_gate_input_10 -> gate_input_10
I1223 20:35:12.930532 47803 net.cpp:150] Setting up lstm1_gate_input_10
I1223 20:35:12.930554 47803 net.cpp:157] Top shape: 1 3 1024 (3072)
I1223 20:35:12.930567 47803 net.cpp:165] Memory required for data: 1573632
I1223 20:35:12.930583 47803 layer_factory.hpp:77] Creating layer lstm1_unit_10
I1223 20:35:12.930600 47803 net.cpp:100] Creating Layer lstm1_unit_10
I1223 20:35:12.930616 47803 net.cpp:434] lstm1_unit_10 <- c_9
I1223 20:35:12.930632 47803 net.cpp:434] lstm1_unit_10 <- gate_input_10
I1223 20:35:12.930649 47803 net.cpp:434] lstm1_unit_10 <- cont_10_lstm1_cont_slice_9_split_1
I1223 20:35:12.930670 47803 net.cpp:408] lstm1_unit_10 -> c_10
I1223 20:35:12.930690 47803 net.cpp:408] lstm1_unit_10 -> h_10
I1223 20:35:12.930771 47803 net.cpp:150] Setting up lstm1_unit_10
I1223 20:35:12.930793 47803 net.cpp:157] Top shape: 1 3 256 (768)
I1223 20:35:12.930809 47803 net.cpp:157] Top shape: 1 3 256 (768)
I1223 20:35:12.930821 47803 net.cpp:165] Memory required for data: 1579776
I1223 20:35:12.930836 47803 layer_factory.hpp:77] Creating layer h_10_lstm1_unit_10_1_split
I1223 20:35:12.930855 47803 net.cpp:100] Creating Layer h_10_lstm1_unit_10_1_split
I1223 20:35:12.930869 47803 net.cpp:434] h_10_lstm1_unit_10_1_split <- h_10
I1223 20:35:12.930891 47803 net.cpp:408] h_10_lstm1_unit_10_1_split -> h_10_lstm1_unit_10_1_split_0
I1223 20:35:12.930910 47803 net.cpp:408] h_10_lstm1_unit_10_1_split -> h_10_lstm1_unit_10_1_split_1
I1223 20:35:12.930974 47803 net.cpp:150] Setting up h_10_lstm1_unit_10_1_split
I1223 20:35:12.930995 47803 net.cpp:157] Top shape: 1 3 256 (768)
I1223 20:35:12.931010 47803 net.cpp:157] Top shape: 1 3 256 (768)
I1223 20:35:12.931025 47803 net.cpp:165] Memory required for data: 1585920
I1223 20:35:12.931038 47803 layer_factory.hpp:77] Creating layer lstm1_h_conted_10
I1223 20:35:12.931061 47803 net.cpp:100] Creating Layer lstm1_h_conted_10
I1223 20:35:12.931077 47803 net.cpp:434] lstm1_h_conted_10 <- h_10_lstm1_unit_10_1_split_0
I1223 20:35:12.931093 47803 net.cpp:434] lstm1_h_conted_10 <- cont_11_lstm1_cont_slice_10_split_0
I1223 20:35:12.931113 47803 net.cpp:408] lstm1_h_conted_10 -> h_conted_10
I1223 20:35:12.931227 47803 net.cpp:150] Setting up lstm1_h_conted_10
I1223 20:35:12.931249 47803 net.cpp:157] Top shape: 1 3 256 (768)
I1223 20:35:12.931263 47803 net.cpp:165] Memory required for data: 1588992
I1223 20:35:12.931278 47803 layer_factory.hpp:77] Creating layer lstm1_transform_11
I1223 20:35:12.931300 47803 net.cpp:100] Creating Layer lstm1_transform_11
I1223 20:35:12.931315 47803 net.cpp:434] lstm1_transform_11 <- h_conted_10
I1223 20:35:12.931334 47803 net.cpp:408] lstm1_transform_11 -> W_hc_h_10
I1223 20:35:12.934772 47803 net.cpp:150] Setting up lstm1_transform_11
I1223 20:35:12.934847 47803 net.cpp:157] Top shape: 1 3 1024 (3072)
I1223 20:35:12.934864 47803 net.cpp:165] Memory required for data: 1601280
I1223 20:35:12.934883 47803 net.cpp:493] Sharing parameters 'W_hc' owned by layer 'lstm1_transform_1', param index 0
I1223 20:35:12.934900 47803 layer_factory.hpp:77] Creating layer lstm1_gate_input_11
I1223 20:35:12.934923 47803 net.cpp:100] Creating Layer lstm1_gate_input_11
I1223 20:35:12.934940 47803 net.cpp:434] lstm1_gate_input_11 <- W_hc_h_10
I1223 20:35:12.934959 47803 net.cpp:434] lstm1_gate_input_11 <- W_xc_x_11
I1223 20:35:12.934978 47803 net.cpp:408] lstm1_gate_input_11 -> gate_input_11
I1223 20:35:12.935044 47803 net.cpp:150] Setting up lstm1_gate_input_11
I1223 20:35:12.935065 47803 net.cpp:157] Top shape: 1 3 1024 (3072)
I1223 20:35:12.935089 47803 net.cpp:165] Memory required for data: 1613568
I1223 20:35:12.935104 47803 layer_factory.hpp:77] Creating layer lstm1_unit_11
I1223 20:35:12.935127 47803 net.cpp:100] Creating Layer lstm1_unit_11
I1223 20:35:12.935142 47803 net.cpp:434] lstm1_unit_11 <- c_10
I1223 20:35:12.935159 47803 net.cpp:434] lstm1_unit_11 <- gate_input_11
I1223 20:35:12.935175 47803 net.cpp:434] lstm1_unit_11 <- cont_11_lstm1_cont_slice_10_split_1
I1223 20:35:12.935194 47803 net.cpp:408] lstm1_unit_11 -> c_11
I1223 20:35:12.935214 47803 net.cpp:408] lstm1_unit_11 -> h_11
I1223 20:35:12.935300 47803 net.cpp:150] Setting up lstm1_unit_11
I1223 20:35:12.935322 47803 net.cpp:157] Top shape: 1 3 256 (768)
I1223 20:35:12.935338 47803 net.cpp:157] Top shape: 1 3 256 (768)
I1223 20:35:12.935351 47803 net.cpp:165] Memory required for data: 1619712
I1223 20:35:12.935365 47803 layer_factory.hpp:77] Creating layer h_11_lstm1_unit_11_1_split
I1223 20:35:12.935384 47803 net.cpp:100] Creating Layer h_11_lstm1_unit_11_1_split
I1223 20:35:12.935398 47803 net.cpp:434] h_11_lstm1_unit_11_1_split <- h_11
I1223 20:35:12.935418 47803 net.cpp:408] h_11_lstm1_unit_11_1_split -> h_11_lstm1_unit_11_1_split_0
I1223 20:35:12.935438 47803 net.cpp:408] h_11_lstm1_unit_11_1_split -> h_11_lstm1_unit_11_1_split_1
I1223 20:35:12.935505 47803 net.cpp:150] Setting up h_11_lstm1_unit_11_1_split
I1223 20:35:12.935528 47803 net.cpp:157] Top shape: 1 3 256 (768)
I1223 20:35:12.935542 47803 net.cpp:157] Top shape: 1 3 256 (768)
I1223 20:35:12.935556 47803 net.cpp:165] Memory required for data: 1625856
I1223 20:35:12.935570 47803 layer_factory.hpp:77] Creating layer lstm1_h_conted_11
I1223 20:35:12.935590 47803 net.cpp:100] Creating Layer lstm1_h_conted_11
I1223 20:35:12.935606 47803 net.cpp:434] lstm1_h_conted_11 <- h_11_lstm1_unit_11_1_split_0
I1223 20:35:12.935622 47803 net.cpp:434] lstm1_h_conted_11 <- cont_12_lstm1_cont_slice_11_split_0
I1223 20:35:12.935642 47803 net.cpp:408] lstm1_h_conted_11 -> h_conted_11
I1223 20:35:12.935752 47803 net.cpp:150] Setting up lstm1_h_conted_11
I1223 20:35:12.935773 47803 net.cpp:157] Top shape: 1 3 256 (768)
I1223 20:35:12.935788 47803 net.cpp:165] Memory required for data: 1628928
I1223 20:35:12.935802 47803 layer_factory.hpp:77] Creating layer lstm1_transform_12
I1223 20:35:12.935823 47803 net.cpp:100] Creating Layer lstm1_transform_12
I1223 20:35:12.935838 47803 net.cpp:434] lstm1_transform_12 <- h_conted_11
I1223 20:35:12.935863 47803 net.cpp:408] lstm1_transform_12 -> W_hc_h_11
I1223 20:35:12.939307 47803 net.cpp:150] Setting up lstm1_transform_12
I1223 20:35:12.939388 47803 net.cpp:157] Top shape: 1 3 1024 (3072)
I1223 20:35:12.939404 47803 net.cpp:165] Memory required for data: 1641216
I1223 20:35:12.939424 47803 net.cpp:493] Sharing parameters 'W_hc' owned by layer 'lstm1_transform_1', param index 0
I1223 20:35:12.939442 47803 layer_factory.hpp:77] Creating layer lstm1_gate_input_12
I1223 20:35:12.939466 47803 net.cpp:100] Creating Layer lstm1_gate_input_12
I1223 20:35:12.939483 47803 net.cpp:434] lstm1_gate_input_12 <- W_hc_h_11
I1223 20:35:12.939502 47803 net.cpp:434] lstm1_gate_input_12 <- W_xc_x_12
I1223 20:35:12.939522 47803 net.cpp:408] lstm1_gate_input_12 -> gate_input_12
I1223 20:35:12.939592 47803 net.cpp:150] Setting up lstm1_gate_input_12
I1223 20:35:12.939613 47803 net.cpp:157] Top shape: 1 3 1024 (3072)
I1223 20:35:12.939627 47803 net.cpp:165] Memory required for data: 1653504
I1223 20:35:12.939641 47803 layer_factory.hpp:77] Creating layer lstm1_unit_12
I1223 20:35:12.939661 47803 net.cpp:100] Creating Layer lstm1_unit_12
I1223 20:35:12.939676 47803 net.cpp:434] lstm1_unit_12 <- c_11
I1223 20:35:12.939692 47803 net.cpp:434] lstm1_unit_12 <- gate_input_12
I1223 20:35:12.939708 47803 net.cpp:434] lstm1_unit_12 <- cont_12_lstm1_cont_slice_11_split_1
I1223 20:35:12.939728 47803 net.cpp:408] lstm1_unit_12 -> c_12
I1223 20:35:12.939746 47803 net.cpp:408] lstm1_unit_12 -> h_12
I1223 20:35:12.939831 47803 net.cpp:150] Setting up lstm1_unit_12
I1223 20:35:12.939851 47803 net.cpp:157] Top shape: 1 3 256 (768)
I1223 20:35:12.939878 47803 net.cpp:157] Top shape: 1 3 256 (768)
I1223 20:35:12.939893 47803 net.cpp:165] Memory required for data: 1659648
I1223 20:35:12.939908 47803 layer_factory.hpp:77] Creating layer h_12_lstm1_unit_12_1_split
I1223 20:35:12.939929 47803 net.cpp:100] Creating Layer h_12_lstm1_unit_12_1_split
I1223 20:35:12.939944 47803 net.cpp:434] h_12_lstm1_unit_12_1_split <- h_12
I1223 20:35:12.939962 47803 net.cpp:408] h_12_lstm1_unit_12_1_split -> h_12_lstm1_unit_12_1_split_0
I1223 20:35:12.939982 47803 net.cpp:408] h_12_lstm1_unit_12_1_split -> h_12_lstm1_unit_12_1_split_1
I1223 20:35:12.940052 47803 net.cpp:150] Setting up h_12_lstm1_unit_12_1_split
I1223 20:35:12.940073 47803 net.cpp:157] Top shape: 1 3 256 (768)
I1223 20:35:12.940089 47803 net.cpp:157] Top shape: 1 3 256 (768)
I1223 20:35:12.940102 47803 net.cpp:165] Memory required for data: 1665792
I1223 20:35:12.940117 47803 layer_factory.hpp:77] Creating layer lstm1_h_conted_12
I1223 20:35:12.940136 47803 net.cpp:100] Creating Layer lstm1_h_conted_12
I1223 20:35:12.940152 47803 net.cpp:434] lstm1_h_conted_12 <- h_12_lstm1_unit_12_1_split_0
I1223 20:35:12.940168 47803 net.cpp:434] lstm1_h_conted_12 <- cont_13_lstm1_cont_slice_12_split_0
I1223 20:35:12.940189 47803 net.cpp:408] lstm1_h_conted_12 -> h_conted_12
I1223 20:35:12.940313 47803 net.cpp:150] Setting up lstm1_h_conted_12
I1223 20:35:12.940336 47803 net.cpp:157] Top shape: 1 3 256 (768)
I1223 20:35:12.940351 47803 net.cpp:165] Memory required for data: 1668864
I1223 20:35:12.940366 47803 layer_factory.hpp:77] Creating layer lstm1_transform_13
I1223 20:35:12.940389 47803 net.cpp:100] Creating Layer lstm1_transform_13
I1223 20:35:12.940404 47803 net.cpp:434] lstm1_transform_13 <- h_conted_12
I1223 20:35:12.940423 47803 net.cpp:408] lstm1_transform_13 -> W_hc_h_12
I1223 20:35:12.943963 47803 net.cpp:150] Setting up lstm1_transform_13
I1223 20:35:12.944052 47803 net.cpp:157] Top shape: 1 3 1024 (3072)
I1223 20:35:12.944069 47803 net.cpp:165] Memory required for data: 1681152
I1223 20:35:12.944092 47803 net.cpp:493] Sharing parameters 'W_hc' owned by layer 'lstm1_transform_1', param index 0
I1223 20:35:12.944114 47803 layer_factory.hpp:77] Creating layer lstm1_gate_input_13
I1223 20:35:12.944141 47803 net.cpp:100] Creating Layer lstm1_gate_input_13
I1223 20:35:12.944160 47803 net.cpp:434] lstm1_gate_input_13 <- W_hc_h_12
I1223 20:35:12.944180 47803 net.cpp:434] lstm1_gate_input_13 <- W_xc_x_13
I1223 20:35:12.944205 47803 net.cpp:408] lstm1_gate_input_13 -> gate_input_13
I1223 20:35:12.944278 47803 net.cpp:150] Setting up lstm1_gate_input_13
I1223 20:35:12.944300 47803 net.cpp:157] Top shape: 1 3 1024 (3072)
I1223 20:35:12.944315 47803 net.cpp:165] Memory required for data: 1693440
I1223 20:35:12.944330 47803 layer_factory.hpp:77] Creating layer lstm1_unit_13
I1223 20:35:12.944350 47803 net.cpp:100] Creating Layer lstm1_unit_13
I1223 20:35:12.944366 47803 net.cpp:434] lstm1_unit_13 <- c_12
I1223 20:35:12.944385 47803 net.cpp:434] lstm1_unit_13 <- gate_input_13
I1223 20:35:12.944401 47803 net.cpp:434] lstm1_unit_13 <- cont_13_lstm1_cont_slice_12_split_1
I1223 20:35:12.944423 47803 net.cpp:408] lstm1_unit_13 -> c_13
I1223 20:35:12.944445 47803 net.cpp:408] lstm1_unit_13 -> h_13
I1223 20:35:12.944551 47803 net.cpp:150] Setting up lstm1_unit_13
I1223 20:35:12.944573 47803 net.cpp:157] Top shape: 1 3 256 (768)
I1223 20:35:12.944591 47803 net.cpp:157] Top shape: 1 3 256 (768)
I1223 20:35:12.944604 47803 net.cpp:165] Memory required for data: 1699584
I1223 20:35:12.944619 47803 layer_factory.hpp:77] Creating layer h_13_lstm1_unit_13_1_split
I1223 20:35:12.944638 47803 net.cpp:100] Creating Layer h_13_lstm1_unit_13_1_split
I1223 20:35:12.944654 47803 net.cpp:434] h_13_lstm1_unit_13_1_split <- h_13
I1223 20:35:12.944674 47803 net.cpp:408] h_13_lstm1_unit_13_1_split -> h_13_lstm1_unit_13_1_split_0
I1223 20:35:12.944694 47803 net.cpp:408] h_13_lstm1_unit_13_1_split -> h_13_lstm1_unit_13_1_split_1
I1223 20:35:12.944769 47803 net.cpp:150] Setting up h_13_lstm1_unit_13_1_split
I1223 20:35:12.944792 47803 net.cpp:157] Top shape: 1 3 256 (768)
I1223 20:35:12.944820 47803 net.cpp:157] Top shape: 1 3 256 (768)
I1223 20:35:12.944836 47803 net.cpp:165] Memory required for data: 1705728
I1223 20:35:12.944851 47803 layer_factory.hpp:77] Creating layer lstm1_h_conted_13
I1223 20:35:12.944875 47803 net.cpp:100] Creating Layer lstm1_h_conted_13
I1223 20:35:12.944891 47803 net.cpp:434] lstm1_h_conted_13 <- h_13_lstm1_unit_13_1_split_0
I1223 20:35:12.944910 47803 net.cpp:434] lstm1_h_conted_13 <- cont_14_lstm1_cont_slice_13_split_0
I1223 20:35:12.944928 47803 net.cpp:408] lstm1_h_conted_13 -> h_conted_13
I1223 20:35:12.945052 47803 net.cpp:150] Setting up lstm1_h_conted_13
I1223 20:35:12.945075 47803 net.cpp:157] Top shape: 1 3 256 (768)
I1223 20:35:12.945091 47803 net.cpp:165] Memory required for data: 1708800
I1223 20:35:12.945106 47803 layer_factory.hpp:77] Creating layer lstm1_transform_14
I1223 20:35:12.945129 47803 net.cpp:100] Creating Layer lstm1_transform_14
I1223 20:35:12.945147 47803 net.cpp:434] lstm1_transform_14 <- h_conted_13
I1223 20:35:12.945165 47803 net.cpp:408] lstm1_transform_14 -> W_hc_h_13
I1223 20:35:12.948940 47803 net.cpp:150] Setting up lstm1_transform_14
I1223 20:35:12.949038 47803 net.cpp:157] Top shape: 1 3 1024 (3072)
I1223 20:35:12.949055 47803 net.cpp:165] Memory required for data: 1721088
I1223 20:35:12.949076 47803 net.cpp:493] Sharing parameters 'W_hc' owned by layer 'lstm1_transform_1', param index 0
I1223 20:35:12.949096 47803 layer_factory.hpp:77] Creating layer lstm1_gate_input_14
I1223 20:35:12.949126 47803 net.cpp:100] Creating Layer lstm1_gate_input_14
I1223 20:35:12.949146 47803 net.cpp:434] lstm1_gate_input_14 <- W_hc_h_13
I1223 20:35:12.949167 47803 net.cpp:434] lstm1_gate_input_14 <- W_xc_x_14
I1223 20:35:12.949187 47803 net.cpp:408] lstm1_gate_input_14 -> gate_input_14
I1223 20:35:12.949259 47803 net.cpp:150] Setting up lstm1_gate_input_14
I1223 20:35:12.949281 47803 net.cpp:157] Top shape: 1 3 1024 (3072)
I1223 20:35:12.949296 47803 net.cpp:165] Memory required for data: 1733376
I1223 20:35:12.949312 47803 layer_factory.hpp:77] Creating layer lstm1_unit_14
I1223 20:35:12.949336 47803 net.cpp:100] Creating Layer lstm1_unit_14
I1223 20:35:12.949353 47803 net.cpp:434] lstm1_unit_14 <- c_13
I1223 20:35:12.949371 47803 net.cpp:434] lstm1_unit_14 <- gate_input_14
I1223 20:35:12.949388 47803 net.cpp:434] lstm1_unit_14 <- cont_14_lstm1_cont_slice_13_split_1
I1223 20:35:12.949409 47803 net.cpp:408] lstm1_unit_14 -> c_14
I1223 20:35:12.949430 47803 net.cpp:408] lstm1_unit_14 -> h_14
I1223 20:35:12.949525 47803 net.cpp:150] Setting up lstm1_unit_14
I1223 20:35:12.949548 47803 net.cpp:157] Top shape: 1 3 256 (768)
I1223 20:35:12.949565 47803 net.cpp:157] Top shape: 1 3 256 (768)
I1223 20:35:12.949580 47803 net.cpp:165] Memory required for data: 1739520
I1223 20:35:12.949595 47803 layer_factory.hpp:77] Creating layer h_14_lstm1_unit_14_1_split
I1223 20:35:12.949615 47803 net.cpp:100] Creating Layer h_14_lstm1_unit_14_1_split
I1223 20:35:12.949631 47803 net.cpp:434] h_14_lstm1_unit_14_1_split <- h_14
I1223 20:35:12.949652 47803 net.cpp:408] h_14_lstm1_unit_14_1_split -> h_14_lstm1_unit_14_1_split_0
I1223 20:35:12.949676 47803 net.cpp:408] h_14_lstm1_unit_14_1_split -> h_14_lstm1_unit_14_1_split_1
I1223 20:35:12.949750 47803 net.cpp:150] Setting up h_14_lstm1_unit_14_1_split
I1223 20:35:12.949772 47803 net.cpp:157] Top shape: 1 3 256 (768)
I1223 20:35:12.949790 47803 net.cpp:157] Top shape: 1 3 256 (768)
I1223 20:35:12.949805 47803 net.cpp:165] Memory required for data: 1745664
I1223 20:35:12.949820 47803 layer_factory.hpp:77] Creating layer lstm1_h_conted_14
I1223 20:35:12.949841 47803 net.cpp:100] Creating Layer lstm1_h_conted_14
I1223 20:35:12.949857 47803 net.cpp:434] lstm1_h_conted_14 <- h_14_lstm1_unit_14_1_split_0
I1223 20:35:12.949875 47803 net.cpp:434] lstm1_h_conted_14 <- cont_15_lstm1_cont_slice_14_split_0
I1223 20:35:12.949897 47803 net.cpp:408] lstm1_h_conted_14 -> h_conted_14
I1223 20:35:12.950021 47803 net.cpp:150] Setting up lstm1_h_conted_14
I1223 20:35:12.950043 47803 net.cpp:157] Top shape: 1 3 256 (768)
I1223 20:35:12.950069 47803 net.cpp:165] Memory required for data: 1748736
I1223 20:35:12.950088 47803 layer_factory.hpp:77] Creating layer lstm1_transform_15
I1223 20:35:12.950109 47803 net.cpp:100] Creating Layer lstm1_transform_15
I1223 20:35:12.950126 47803 net.cpp:434] lstm1_transform_15 <- h_conted_14
I1223 20:35:12.950145 47803 net.cpp:408] lstm1_transform_15 -> W_hc_h_14
I1223 20:35:12.953925 47803 net.cpp:150] Setting up lstm1_transform_15
I1223 20:35:12.954020 47803 net.cpp:157] Top shape: 1 3 1024 (3072)
I1223 20:35:12.954038 47803 net.cpp:165] Memory required for data: 1761024
I1223 20:35:12.954066 47803 net.cpp:493] Sharing parameters 'W_hc' owned by layer 'lstm1_transform_1', param index 0
I1223 20:35:12.954087 47803 layer_factory.hpp:77] Creating layer lstm1_gate_input_15
I1223 20:35:12.954114 47803 net.cpp:100] Creating Layer lstm1_gate_input_15
I1223 20:35:12.954133 47803 net.cpp:434] lstm1_gate_input_15 <- W_hc_h_14
I1223 20:35:12.954154 47803 net.cpp:434] lstm1_gate_input_15 <- W_xc_x_15
I1223 20:35:12.954175 47803 net.cpp:408] lstm1_gate_input_15 -> gate_input_15
I1223 20:35:12.954275 47803 net.cpp:150] Setting up lstm1_gate_input_15
I1223 20:35:12.954304 47803 net.cpp:157] Top shape: 1 3 1024 (3072)
I1223 20:35:12.954319 47803 net.cpp:165] Memory required for data: 1773312
I1223 20:35:12.954336 47803 layer_factory.hpp:77] Creating layer lstm1_unit_15
I1223 20:35:12.954356 47803 net.cpp:100] Creating Layer lstm1_unit_15
I1223 20:35:12.954373 47803 net.cpp:434] lstm1_unit_15 <- c_14
I1223 20:35:12.954392 47803 net.cpp:434] lstm1_unit_15 <- gate_input_15
I1223 20:35:12.954409 47803 net.cpp:434] lstm1_unit_15 <- cont_15_lstm1_cont_slice_14_split_1
I1223 20:35:12.954429 47803 net.cpp:408] lstm1_unit_15 -> c_15
I1223 20:35:12.954450 47803 net.cpp:408] lstm1_unit_15 -> h_15
I1223 20:35:12.954548 47803 net.cpp:150] Setting up lstm1_unit_15
I1223 20:35:12.954571 47803 net.cpp:157] Top shape: 1 3 256 (768)
I1223 20:35:12.954587 47803 net.cpp:157] Top shape: 1 3 256 (768)
I1223 20:35:12.954602 47803 net.cpp:165] Memory required for data: 1779456
I1223 20:35:12.954617 47803 layer_factory.hpp:77] Creating layer h_15_lstm1_unit_15_1_split
I1223 20:35:12.954638 47803 net.cpp:100] Creating Layer h_15_lstm1_unit_15_1_split
I1223 20:35:12.954654 47803 net.cpp:434] h_15_lstm1_unit_15_1_split <- h_15
I1223 20:35:12.954674 47803 net.cpp:408] h_15_lstm1_unit_15_1_split -> h_15_lstm1_unit_15_1_split_0
I1223 20:35:12.954696 47803 net.cpp:408] h_15_lstm1_unit_15_1_split -> h_15_lstm1_unit_15_1_split_1
I1223 20:35:12.954772 47803 net.cpp:150] Setting up h_15_lstm1_unit_15_1_split
I1223 20:35:12.954794 47803 net.cpp:157] Top shape: 1 3 256 (768)
I1223 20:35:12.954812 47803 net.cpp:157] Top shape: 1 3 256 (768)
I1223 20:35:12.954825 47803 net.cpp:165] Memory required for data: 1785600
I1223 20:35:12.954840 47803 layer_factory.hpp:77] Creating layer lstm1_h_conted_15
I1223 20:35:12.954861 47803 net.cpp:100] Creating Layer lstm1_h_conted_15
I1223 20:35:12.954879 47803 net.cpp:434] lstm1_h_conted_15 <- h_15_lstm1_unit_15_1_split_0
I1223 20:35:12.954896 47803 net.cpp:434] lstm1_h_conted_15 <- cont_16_lstm1_cont_slice_15_split_0
I1223 20:35:12.954918 47803 net.cpp:408] lstm1_h_conted_15 -> h_conted_15
I1223 20:35:12.955045 47803 net.cpp:150] Setting up lstm1_h_conted_15
I1223 20:35:12.955068 47803 net.cpp:157] Top shape: 1 3 256 (768)
I1223 20:35:12.955083 47803 net.cpp:165] Memory required for data: 1788672
I1223 20:35:12.955099 47803 layer_factory.hpp:77] Creating layer lstm1_transform_16
I1223 20:35:12.955122 47803 net.cpp:100] Creating Layer lstm1_transform_16
I1223 20:35:12.955139 47803 net.cpp:434] lstm1_transform_16 <- h_conted_15
I1223 20:35:12.955159 47803 net.cpp:408] lstm1_transform_16 -> W_hc_h_15
I1223 20:35:12.959055 47803 net.cpp:150] Setting up lstm1_transform_16
I1223 20:35:12.959151 47803 net.cpp:157] Top shape: 1 3 1024 (3072)
I1223 20:35:12.959169 47803 net.cpp:165] Memory required for data: 1800960
I1223 20:35:12.959192 47803 net.cpp:493] Sharing parameters 'W_hc' owned by layer 'lstm1_transform_1', param index 0
I1223 20:35:12.959225 47803 layer_factory.hpp:77] Creating layer lstm1_gate_input_16
I1223 20:35:12.959257 47803 net.cpp:100] Creating Layer lstm1_gate_input_16
I1223 20:35:12.959277 47803 net.cpp:434] lstm1_gate_input_16 <- W_hc_h_15
I1223 20:35:12.959298 47803 net.cpp:434] lstm1_gate_input_16 <- W_xc_x_16
I1223 20:35:12.959321 47803 net.cpp:408] lstm1_gate_input_16 -> gate_input_16
I1223 20:35:12.959395 47803 net.cpp:150] Setting up lstm1_gate_input_16
I1223 20:35:12.959419 47803 net.cpp:157] Top shape: 1 3 1024 (3072)
I1223 20:35:12.959434 47803 net.cpp:165] Memory required for data: 1813248
I1223 20:35:12.959448 47803 layer_factory.hpp:77] Creating layer lstm1_unit_16
I1223 20:35:12.959468 47803 net.cpp:100] Creating Layer lstm1_unit_16
I1223 20:35:12.959486 47803 net.cpp:434] lstm1_unit_16 <- c_15
I1223 20:35:12.959503 47803 net.cpp:434] lstm1_unit_16 <- gate_input_16
I1223 20:35:12.959522 47803 net.cpp:434] lstm1_unit_16 <- cont_16_lstm1_cont_slice_15_split_1
I1223 20:35:12.959544 47803 net.cpp:408] lstm1_unit_16 -> c_16
I1223 20:35:12.959568 47803 net.cpp:408] lstm1_unit_16 -> h_16
I1223 20:35:12.959662 47803 net.cpp:150] Setting up lstm1_unit_16
I1223 20:35:12.959684 47803 net.cpp:157] Top shape: 1 3 256 (768)
I1223 20:35:12.959700 47803 net.cpp:157] Top shape: 1 3 256 (768)
I1223 20:35:12.959715 47803 net.cpp:165] Memory required for data: 1819392
I1223 20:35:12.959730 47803 layer_factory.hpp:77] Creating layer lstm1_
I1223 20:35:12.959749 47803 net.cpp:100] Creating Layer lstm1_
I1223 20:35:12.959765 47803 net.cpp:434] lstm1_ <- c_16
I1223 20:35:12.959784 47803 net.cpp:408] lstm1_ -> c_T
I1223 20:35:12.959838 47803 net.cpp:150] Setting up lstm1_
I1223 20:35:12.959861 47803 net.cpp:157] Top shape: 1 3 256 (768)
I1223 20:35:12.959875 47803 net.cpp:165] Memory required for data: 1822464
I1223 20:35:12.959892 47803 layer_factory.hpp:77] Creating layer lstm1_h_concat
I1223 20:35:12.959918 47803 net.cpp:100] Creating Layer lstm1_h_concat
I1223 20:35:12.959936 47803 net.cpp:434] lstm1_h_concat <- h_1_lstm1_unit_1_1_split_1
I1223 20:35:12.959954 47803 net.cpp:434] lstm1_h_concat <- h_2_lstm1_unit_2_1_split_1
…
I1223 20:35:12.962415 47803 net.cpp:228] lstm1_ does not need backward computation.
I1223 20:35:12.962430 47803 net.cpp:270] This network produces output c_T
I1223 20:35:12.962452 47803 net.cpp:270] This network produces output h_pseudoloss
I1223 20:35:12.967156 47803 net.cpp:283] Network initialization done.
I1223 20:35:12.967669 47803 recurrent_layer.cpp:150] Adding parameter 0: W_xc
I1223 20:35:12.967694 47803 recurrent_layer.cpp:150] Adding parameter 1: b_c
I1223 20:35:12.967711 47803 recurrent_layer.cpp:150] Adding parameter 2: W_hc
I1223 20:35:12.968132 47803 net.cpp:150] Setting up lstm1
I1223 20:35:12.968165 47803 net.cpp:157] Top shape: 16 3 256 (12288)
I1223 20:35:12.968181 47803 net.cpp:165] Memory required for data: 817219776
I1223 20:35:12.968210 47803 layer_factory.hpp:77] Creating layer lstm1-drop
I1223 20:35:12.968241 47803 net.cpp:100] Creating Layer lstm1-drop
I1223 20:35:12.968261 47803 net.cpp:434] lstm1-drop <- lstm1
I1223 20:35:12.968286 47803 net.cpp:408] lstm1-drop -> lstm1-drop
I1223 20:35:12.968374 47803 net.cpp:150] Setting up lstm1-drop
I1223 20:35:12.968397 47803 net.cpp:157] Top shape: 16 3 256 (12288)
I1223 20:35:12.968412 47803 net.cpp:165] Memory required for data: 817268928
I1223 20:35:12.968428 47803 layer_factory.hpp:77] Creating layer fc8-final
I1223 20:35:12.968454 47803 net.cpp:100] Creating Layer fc8-final
I1223 20:35:12.968472 47803 net.cpp:434] fc8-final <- lstm1-drop
I1223 20:35:12.968490 47803 net.cpp:408] fc8-final -> fc8-final
I1223 20:35:12.968685 47803 net.cpp:150] Setting up fc8-final
I1223 20:35:12.968710 47803 net.cpp:157] Top shape: 16 3 2 (96)
I1223 20:35:12.968726 47803 net.cpp:165] Memory required for data: 817269312
I1223 20:35:12.968755 47803 layer_factory.hpp:77] Creating layer fc8-final_fc8-final_0_split
I1223 20:35:12.968776 47803 net.cpp:100] Creating Layer fc8-final_fc8-final_0_split
I1223 20:35:12.968792 47803 net.cpp:434] fc8-final_fc8-final_0_split <- fc8-final
I1223 20:35:12.968812 47803 net.cpp:408] fc8-final_fc8-final_0_split -> fc8-final_fc8-final_0_split_0
I1223 20:35:12.968834 47803 net.cpp:408] fc8-final_fc8-final_0_split -> fc8-final_fc8-final_0_split_1
I1223 20:35:12.968910 47803 net.cpp:150] Setting up fc8-final_fc8-final_0_split
I1223 20:35:12.968933 47803 net.cpp:157] Top shape: 16 3 2 (96)
I1223 20:35:12.968950 47803 net.cpp:157] Top shape: 16 3 2 (96)
I1223 20:35:12.968966 47803 net.cpp:165] Memory required for data: 817270080
I1223 20:35:12.968982 47803 layer_factory.hpp:77] Creating layer loss
I1223 20:35:12.969004 47803 net.cpp:100] Creating Layer loss
I1223 20:35:12.969022 47803 net.cpp:434] loss <- fc8-final_fc8-final_0_split_0
I1223 20:35:12.969039 47803 net.cpp:434] loss <- reshape-label_reshape-label_0_split_0
I1223 20:35:12.969059 47803 net.cpp:408] loss -> loss
…
