…
I1223 08:06:34.849653 10817 net.cpp:58] Initializing net from parameters: 
name: "frames_NOLSTM"
state {
  phase: TRAIN
  level: 0
  stage: ""
}
layer {
  name: "data"
  type: "ImageData"
  top: "data"
  top: "label"
  include {
    phase: TRAIN
  }
  transform_param {
    mirror: true
    crop_size: 227
    mean_value: 103.939
    mean_value: 116.779
    mean_value: 123.68
  }
  image_data_param {
    source: "train_frame_NOLSTM.txt"
    batch_size: 128
    new_height: 240
    new_width: 320
    root_folder: "/home/tbochens/Images/FrameSequence/results/Facebook/"
  }
}
layer {
  name: "conv1"
  type: "Convolution"
  bottom: "data"
  top: "conv1"
  param {
    lr_mult: 1
    decay_mult: 1
  }
  param {
    lr_mult: 2
    decay_mult: 0
  }
  convolution_param {
    num_output: 96
    kernel_size: 7
    stride: 2
    weight_filler {
      type: "gaussian"
      std: 0.01
    }
    bias_filler {
      type: "constant"
      value: 0.1
    }
  }
}
layer {
  name: "relu1"
  type: "ReLU"
  bottom: "conv1"
  top: "conv1"
}
layer {
  name: "pool1"
  type: "Pooling"
  bottom: "conv1"
  top: "pool1"
  pooling_param {
    pool: MAX
    kernel_size: 3
    stride: 2
  }
}
layer {
  name: "norm1"
  type: "LRN"
  bottom: "pool1"
  top: "norm1"
  lrn_param {
    local_size: 5
    alpha: 0.0001
    beta: 0.75
  }
}
layer {
  name: "conv2"
  type: "Convolution"
  bottom: "norm1"
  top: "conv2"
  param {
    lr_mult: 1
    decay_mult: 1
  }
  param {
    lr_mult: 2
    decay_mult: 0
  }
  convolution_param {
    num_output: 384
    kernel_size: 5
    group: 2
    stride: 2
    weight_filler {
      type: "gaussian"
      std: 0.01
    }
    bias_filler {
      type: "constant"
      value: 0.1
    }
  }
}
layer {
  name: "relu2"
  type: "ReLU"
  bottom: "conv2"
  top: "conv2"
}
layer {
  name: "pool2"
  type: "Pooling"
  bottom: "conv2"
  top: "pool2"
  pooling_param {
    pool: MAX
    kernel_size: 3
    stride: 2
  }
}
layer {
  name: "norm2"
  type: "LRN"
  bottom: "pool2"
  top: "norm2"
  lrn_param {
    local_size: 5
    alpha: 0.0001
    beta: 0.75
  }
}
layer {
  name: "conv3"
  type: "Convolution"
  bottom: "norm2"
  top: "conv3"
  param {
    lr_mult: 1
    decay_mult: 1
  }
  param {
    lr_mult: 2
    decay_mult: 0
  }
  convolution_param {
    num_output: 512
    pad: 1
    kernel_size: 3
    weight_filler {
      type: "gaussian"
      std: 0.01
    }
    bias_filler {
      type: "constant"
      value: 0.1
    }
  }
}
layer {
  name: "relu3"
  type: "ReLU"
  bottom: "conv3"
  top: "conv3"
}
layer {
  name: "conv4"
  type: "Convolution"
  bottom: "conv3"
  top: "conv4"
  param {
    lr_mult: 1
    decay_mult: 1
  }
  param {
    lr_mult: 2
    decay_mult: 0
  }
  convolution_param {
    num_output: 512
    pad: 1
    kernel_size: 3
    group: 2
    weight_filler {
      type: "gaussian"
      std: 0.01
    }
    bias_filler {
      type: "constant"
      value: 0.1
    }
  }
}
layer {
  name: "relu4"
  type: "ReLU"
  bottom: "conv4"
  top: "conv4"
}
layer {
  name: "conv5"
  type: "Convolution"
  bottom: "conv4"
  top: "conv5"
  param {
    lr_mult: 1
    decay_mult: 1
  }
  param {
    lr_mult: 2
    decay_mult: 0
  }
  convolution_param {
    num_output: 384
    pad: 1
    kernel_size: 3
    group: 2
    weight_filler {
      type: "gaussian"
      std: 0.01
    }
    bias_filler {
      type: "constant"
      value: 0.1
    }
  }
}
layer {
  name: "relu5"
  type: "ReLU"
  bottom: "conv5"
  top: "conv5"
}
layer {
  name: "pool5"
  type: "Pooling"
  bottom: "conv5"
  top: "pool5"
  pooling_param {
    pool: MAX
    kernel_size: 3
    stride: 2
  }
}
layer {
  name: "fc6"
  type: "InnerProduct"
  bottom: "pool5"
  top: "fc6"
  param {
    lr_mult: 1
    decay_mult: 1
  }
  param {
    lr_mult: 2
    decay_mult: 0
  }
  inner_product_param {
    num_output: 4096
    weight_filler {
      type: "gaussian"
      std: 0.01
    }
    bias_filler {
      type: "constant"
      value: 0.1
    }
  }
}
layer {
  name: "relu6"
  type: "ReLU"
  bottom: "fc6"
  top: "fc6"
}
layer {
  name: "drop6"
  type: "Dropout"
  bottom: "fc6"
  top: "fc6"
  dropout_param {
    dropout_ratio: 0.5
  }
}
layer {
  name: "fc7"
  type: "InnerProduct"
  bottom: "fc6"
  top: "fc7"
  param {
    lr_mult: 1
    decay_mult: 1
  }
  param {
    lr_mult: 2
    decay_mult: 0
  }
  inner_product_param {
    num_output: 4096
    weight_filler {
      type: "gaussian"
      std: 0.01
    }
    bias_filler {
      type: "constant"
      value: 0.1
    }
  }
}
layer {
  name: "relu7"
  type: "ReLU"
  bottom: "fc7"
  top: "fc7"
}
layer {
  name: "drop7"
  type: "Dropout"
  bottom: "fc7"
  top: "fc7"
  dropout_param {
    dropout_ratio: 0.5
  }
}
layer {
  name: "fc8-ucf"
  type: "InnerProduct"
  bottom: "fc7"
  top: "fc8-ucf"
  param {
    lr_mult: 10
    decay_mult: 1
  }
  param {
    lr_mult: 20
    decay_mult: 0
  }
  inner_product_param {
    num_output: 2
    weight_filler {
      type: "gaussian"
      std: 0.01
    }
    bias_filler {
      type: "constant"
      value: 0
    }
  }
}
layer {
  name: "loss"
  type: "SoftmaxWithLoss"
  bottom: "fc8-ucf"
  bottom: "label"
  top: "loss"
}
layer {
  name: "accuracy"
  type: "Accuracy"
  bottom: "fc8-ucf"
  bottom: "label"
  top: "accuracy"
}
I1223 08:06:34.849783 10817 layer_factory.hpp:77] Creating layer data
I1223 08:06:34.849822 10817 net.cpp:100] Creating Layer data
I1223 08:06:34.849828 10817 net.cpp:408] data -> data
I1223 08:06:34.849853 10817 net.cpp:408] data -> label
I1223 08:06:34.849880 10817 image_data_layer.cpp:38] Opening file train_frame_NOLSTM.txt
I1223 08:06:35.131467 10817 image_data_layer.cpp:58] A total of 628096 images.
I1223 08:06:35.626446 10817 image_data_layer.cpp:85] output data size: 128,3,227,227
I1223 08:06:35.816105 10817 net.cpp:150] Setting up data
I1223 08:06:35.816149 10817 net.cpp:157] Top shape: 128 3 227 227 (19787136)
I1223 08:06:35.816154 10817 net.cpp:157] Top shape: 128 (128)
I1223 08:06:35.816155 10817 net.cpp:165] Memory required for data: 79149056
I1223 08:06:35.816184 10817 layer_factory.hpp:77] Creating layer label_data_1_split
I1223 08:06:35.816215 10817 net.cpp:100] Creating Layer label_data_1_split
I1223 08:06:35.816220 10817 net.cpp:434] label_data_1_split <- label
I1223 08:06:35.816233 10817 net.cpp:408] label_data_1_split -> label_data_1_split_0
I1223 08:06:35.816244 10817 net.cpp:408] label_data_1_split -> label_data_1_split_1
I1223 08:06:35.816499 10817 net.cpp:150] Setting up label_data_1_split
I1223 08:06:35.816507 10817 net.cpp:157] Top shape: 128 (128)
I1223 08:06:35.816509 10817 net.cpp:157] Top shape: 128 (128)
I1223 08:06:35.816511 10817 net.cpp:165] Memory required for data: 79150080
I1223 08:06:35.816514 10817 layer_factory.hpp:77] Creating layer conv1
I1223 08:06:35.816535 10817 net.cpp:100] Creating Layer conv1
I1223 08:06:35.816537 10817 net.cpp:434] conv1 <- data
I1223 08:06:35.816543 10817 net.cpp:408] conv1 -> conv1
I1223 08:06:35.997684 10817 net.cpp:150] Setting up conv1
I1223 08:06:35.997723 10817 net.cpp:157] Top shape: 128 96 111 111 (151400448)
I1223 08:06:35.997726 10817 net.cpp:165] Memory required for data: 684751872
I1223 08:06:35.997747 10817 layer_factory.hpp:77] Creating layer relu1
I1223 08:06:35.997759 10817 net.cpp:100] Creating Layer relu1
I1223 08:06:35.997762 10817 net.cpp:434] relu1 <- conv1
I1223 08:06:35.997767 10817 net.cpp:395] relu1 -> conv1 (in-place)
I1223 08:06:35.998060 10817 net.cpp:150] Setting up relu1
I1223 08:06:35.998071 10817 net.cpp:157] Top shape: 128 96 111 111 (151400448)
I1223 08:06:35.998075 10817 net.cpp:165] Memory required for data: 1290353664
I1223 08:06:35.998077 10817 layer_factory.hpp:77] Creating layer pool1
I1223 08:06:35.998086 10817 net.cpp:100] Creating Layer pool1
I1223 08:06:35.998088 10817 net.cpp:434] pool1 <- conv1
I1223 08:06:35.998092 10817 net.cpp:408] pool1 -> pool1
I1223 08:06:35.998136 10817 net.cpp:150] Setting up pool1
I1223 08:06:35.998154 10817 net.cpp:157] Top shape: 128 96 55 55 (37171200)
I1223 08:06:35.998157 10817 net.cpp:165] Memory required for data: 1439038464
I1223 08:06:35.998158 10817 layer_factory.hpp:77] Creating layer norm1
I1223 08:06:35.998165 10817 net.cpp:100] Creating Layer norm1
I1223 08:06:35.998167 10817 net.cpp:434] norm1 <- pool1
I1223 08:06:35.998170 10817 net.cpp:408] norm1 -> norm1
I1223 08:06:35.998365 10817 net.cpp:150] Setting up norm1
I1223 08:06:35.998374 10817 net.cpp:157] Top shape: 128 96 55 55 (37171200)
I1223 08:06:35.998378 10817 net.cpp:165] Memory required for data: 1587723264
I1223 08:06:35.998381 10817 layer_factory.hpp:77] Creating layer conv2
I1223 08:06:35.998392 10817 net.cpp:100] Creating Layer conv2
I1223 08:06:35.998394 10817 net.cpp:434] conv2 <- norm1
I1223 08:06:35.998399 10817 net.cpp:408] conv2 -> conv2
I1223 08:06:36.005125 10817 net.cpp:150] Setting up conv2
I1223 08:06:36.005138 10817 net.cpp:157] Top shape: 128 384 26 26 (33226752)
I1223 08:06:36.005141 10817 net.cpp:165] Memory required for data: 1720630272
I1223 08:06:36.005149 10817 layer_factory.hpp:77] Creating layer relu2
I1223 08:06:36.005156 10817 net.cpp:100] Creating Layer relu2
I1223 08:06:36.005157 10817 net.cpp:434] relu2 <- conv2
I1223 08:06:36.005161 10817 net.cpp:395] relu2 -> conv2 (in-place)
I1223 08:06:36.005305 10817 net.cpp:150] Setting up relu2
I1223 08:06:36.005312 10817 net.cpp:157] Top shape: 128 384 26 26 (33226752)
I1223 08:06:36.005314 10817 net.cpp:165] Memory required for data: 1853537280
I1223 08:06:36.005317 10817 layer_factory.hpp:77] Creating layer pool2
I1223 08:06:36.005323 10817 net.cpp:100] Creating Layer pool2
I1223 08:06:36.005326 10817 net.cpp:434] pool2 <- conv2
I1223 08:06:36.005329 10817 net.cpp:408] pool2 -> pool2
I1223 08:06:36.005363 10817 net.cpp:150] Setting up pool2
I1223 08:06:36.005368 10817 net.cpp:157] Top shape: 128 384 13 13 (8306688)
I1223 08:06:36.005370 10817 net.cpp:165] Memory required for data: 1886764032
I1223 08:06:36.005373 10817 layer_factory.hpp:77] Creating layer norm2
I1223 08:06:36.005378 10817 net.cpp:100] Creating Layer norm2
I1223 08:06:36.005379 10817 net.cpp:434] norm2 <- pool2
I1223 08:06:36.005383 10817 net.cpp:408] norm2 -> norm2
I1223 08:06:36.005681 10817 net.cpp:150] Setting up norm2
I1223 08:06:36.005692 10817 net.cpp:157] Top shape: 128 384 13 13 (8306688)
I1223 08:06:36.005694 10817 net.cpp:165] Memory required for data: 1919990784
I1223 08:06:36.005700 10817 layer_factory.hpp:77] Creating layer conv3
I1223 08:06:36.005707 10817 net.cpp:100] Creating Layer conv3
I1223 08:06:36.005710 10817 net.cpp:434] conv3 <- norm2
I1223 08:06:36.005714 10817 net.cpp:408] conv3 -> conv3
I1223 08:06:36.024818 10817 net.cpp:150] Setting up conv3
I1223 08:06:36.024833 10817 net.cpp:157] Top shape: 128 512 13 13 (11075584)
I1223 08:06:36.024835 10817 net.cpp:165] Memory required for data: 1964293120
I1223 08:06:36.024843 10817 layer_factory.hpp:77] Creating layer relu3
I1223 08:06:36.024848 10817 net.cpp:100] Creating Layer relu3
I1223 08:06:36.024852 10817 net.cpp:434] relu3 <- conv3
I1223 08:06:36.024854 10817 net.cpp:395] relu3 -> conv3 (in-place)
I1223 08:06:36.025004 10817 net.cpp:150] Setting up relu3
I1223 08:06:36.025013 10817 net.cpp:157] Top shape: 128 512 13 13 (11075584)
I1223 08:06:36.025015 10817 net.cpp:165] Memory required for data: 2008595456
I1223 08:06:36.025017 10817 layer_factory.hpp:77] Creating layer conv4
I1223 08:06:36.025024 10817 net.cpp:100] Creating Layer conv4
I1223 08:06:36.025027 10817 net.cpp:434] conv4 <- conv3
I1223 08:06:36.025032 10817 net.cpp:408] conv4 -> conv4
I1223 08:06:36.038362 10817 net.cpp:150] Setting up conv4
I1223 08:06:36.038377 10817 net.cpp:157] Top shape: 128 512 13 13 (11075584)
I1223 08:06:36.038389 10817 net.cpp:165] Memory required for data: 2052897792
I1223 08:06:36.038395 10817 layer_factory.hpp:77] Creating layer relu4
I1223 08:06:36.038403 10817 net.cpp:100] Creating Layer relu4
I1223 08:06:36.038404 10817 net.cpp:434] relu4 <- conv4
I1223 08:06:36.038410 10817 net.cpp:395] relu4 -> conv4 (in-place)
I1223 08:06:36.038573 10817 net.cpp:150] Setting up relu4
I1223 08:06:36.038583 10817 net.cpp:157] Top shape: 128 512 13 13 (11075584)
I1223 08:06:36.038584 10817 net.cpp:165] Memory required for data: 2097200128
I1223 08:06:36.038586 10817 layer_factory.hpp:77] Creating layer conv5
I1223 08:06:36.038595 10817 net.cpp:100] Creating Layer conv5
I1223 08:06:36.038597 10817 net.cpp:434] conv5 <- conv4
I1223 08:06:36.038602 10817 net.cpp:408] conv5 -> conv5
I1223 08:06:36.049360 10817 net.cpp:150] Setting up conv5
I1223 08:06:36.049384 10817 net.cpp:157] Top shape: 128 384 13 13 (8306688)
I1223 08:06:36.049386 10817 net.cpp:165] Memory required for data: 2130426880
I1223 08:06:36.049394 10817 layer_factory.hpp:77] Creating layer relu5
I1223 08:06:36.049399 10817 net.cpp:100] Creating Layer relu5
I1223 08:06:36.049401 10817 net.cpp:434] relu5 <- conv5
I1223 08:06:36.049406 10817 net.cpp:395] relu5 -> conv5 (in-place)
I1223 08:06:36.049721 10817 net.cpp:150] Setting up relu5
I1223 08:06:36.049731 10817 net.cpp:157] Top shape: 128 384 13 13 (8306688)
I1223 08:06:36.049734 10817 net.cpp:165] Memory required for data: 2163653632
I1223 08:06:36.049736 10817 layer_factory.hpp:77] Creating layer pool5
I1223 08:06:36.049746 10817 net.cpp:100] Creating Layer pool5
I1223 08:06:36.049748 10817 net.cpp:434] pool5 <- conv5
I1223 08:06:36.049752 10817 net.cpp:408] pool5 -> pool5
I1223 08:06:36.049794 10817 net.cpp:150] Setting up pool5
I1223 08:06:36.049810 10817 net.cpp:157] Top shape: 128 384 6 6 (1769472)
I1223 08:06:36.049813 10817 net.cpp:165] Memory required for data: 2170731520
I1223 08:06:36.049815 10817 layer_factory.hpp:77] Creating layer fc6
I1223 08:06:36.049834 10817 net.cpp:100] Creating Layer fc6
I1223 08:06:36.049836 10817 net.cpp:434] fc6 <- pool5
I1223 08:06:36.049839 10817 net.cpp:408] fc6 -> fc6
I1223 08:06:36.636495 10817 net.cpp:150] Setting up fc6
I1223 08:06:36.636538 10817 net.cpp:157] Top shape: 128 4096 (524288)
I1223 08:06:36.636539 10817 net.cpp:165] Memory required for data: 2172828672
I1223 08:06:36.636560 10817 layer_factory.hpp:77] Creating layer relu6
I1223 08:06:36.636570 10817 net.cpp:100] Creating Layer relu6
I1223 08:06:36.636574 10817 net.cpp:434] relu6 <- fc6
I1223 08:06:36.636581 10817 net.cpp:395] relu6 -> fc6 (in-place)
I1223 08:06:36.636822 10817 net.cpp:150] Setting up relu6
I1223 08:06:36.636831 10817 net.cpp:157] Top shape: 128 4096 (524288)
I1223 08:06:36.636833 10817 net.cpp:165] Memory required for data: 2174925824
I1223 08:06:36.636836 10817 layer_factory.hpp:77] Creating layer drop6
I1223 08:06:36.636843 10817 net.cpp:100] Creating Layer drop6
I1223 08:06:36.636845 10817 net.cpp:434] drop6 <- fc6
I1223 08:06:36.636849 10817 net.cpp:395] drop6 -> fc6 (in-place)
I1223 08:06:36.636879 10817 net.cpp:150] Setting up drop6
I1223 08:06:36.636885 10817 net.cpp:157] Top shape: 128 4096 (524288)
I1223 08:06:36.636888 10817 net.cpp:165] Memory required for data: 2177022976
I1223 08:06:36.636888 10817 layer_factory.hpp:77] Creating layer fc7
I1223 08:06:36.636899 10817 net.cpp:100] Creating Layer fc7
I1223 08:06:36.636911 10817 net.cpp:434] fc7 <- fc6
I1223 08:06:36.636919 10817 net.cpp:408] fc7 -> fc7
I1223 08:06:36.814976 10817 net.cpp:150] Setting up fc7
I1223 08:06:36.815003 10817 net.cpp:157] Top shape: 128 4096 (524288)
I1223 08:06:36.815006 10817 net.cpp:165] Memory required for data: 2179120128
I1223 08:06:36.815017 10817 layer_factory.hpp:77] Creating layer relu7
I1223 08:06:36.815028 10817 net.cpp:100] Creating Layer relu7
I1223 08:06:36.815032 10817 net.cpp:434] relu7 <- fc7
I1223 08:06:36.815037 10817 net.cpp:395] relu7 -> fc7 (in-place)
I1223 08:06:36.815496 10817 net.cpp:150] Setting up relu7
I1223 08:06:36.815508 10817 net.cpp:157] Top shape: 128 4096 (524288)
I1223 08:06:36.815510 10817 net.cpp:165] Memory required for data: 2181217280
I1223 08:06:36.815512 10817 layer_factory.hpp:77] Creating layer drop7
I1223 08:06:36.815520 10817 net.cpp:100] Creating Layer drop7
I1223 08:06:36.815521 10817 net.cpp:434] drop7 <- fc7
I1223 08:06:36.815528 10817 net.cpp:395] drop7 -> fc7 (in-place)
I1223 08:06:36.815551 10817 net.cpp:150] Setting up drop7
I1223 08:06:36.815557 10817 net.cpp:157] Top shape: 128 4096 (524288)
I1223 08:06:36.815558 10817 net.cpp:165] Memory required for data: 2183314432
I1223 08:06:36.815560 10817 layer_factory.hpp:77] Creating layer fc8-ucf
I1223 08:06:36.815565 10817 net.cpp:100] Creating Layer fc8-ucf
I1223 08:06:36.815567 10817 net.cpp:434] fc8-ucf <- fc7
I1223 08:06:36.815573 10817 net.cpp:408] fc8-ucf -> fc8-ucf
I1223 08:06:36.815762 10817 net.cpp:150] Setting up fc8-ucf
I1223 08:06:36.815770 10817 net.cpp:157] Top shape: 128 2 (256)
I1223 08:06:36.815771 10817 net.cpp:165] Memory required for data: 2183315456
I1223 08:06:36.815776 10817 layer_factory.hpp:77] Creating layer fc8-ucf_fc8-ucf_0_split
I1223 08:06:36.815781 10817 net.cpp:100] Creating Layer fc8-ucf_fc8-ucf_0_split
I1223 08:06:36.815783 10817 net.cpp:434] fc8-ucf_fc8-ucf_0_split <- fc8-ucf
I1223 08:06:36.815789 10817 net.cpp:408] fc8-ucf_fc8-ucf_0_split -> fc8-ucf_fc8-ucf_0_split_0
I1223 08:06:36.815794 10817 net.cpp:408] fc8-ucf_fc8-ucf_0_split -> fc8-ucf_fc8-ucf_0_split_1
I1223 08:06:36.815824 10817 net.cpp:150] Setting up fc8-ucf_fc8-ucf_0_split
I1223 08:06:36.815829 10817 net.cpp:157] Top shape: 128 2 (256)
I1223 08:06:36.815830 10817 net.cpp:157] Top shape: 128 2 (256)
I1223 08:06:36.815832 10817 net.cpp:165] Memory required for data: 2183317504
I1223 08:06:36.815834 10817 layer_factory.hpp:77] Creating layer loss
I1223 08:06:36.815840 10817 net.cpp:100] Creating Layer loss
I1223 08:06:36.815841 10817 net.cpp:434] loss <- fc8-ucf_fc8-ucf_0_split_0
I1223 08:06:36.815845 10817 net.cpp:434] loss <- label_data_1_split_0
I1223 08:06:36.815848 10817 net.cpp:408] loss -> loss
…
