…
I1130 16:45:19.465577 28372 net.cpp:322] The NetState phase (0) differed from the phase (1) specified by a rule in layer accuracy
I1130 16:45:19.465761 28372 net.cpp:58] Initializing net from parameters: 
name: "VideoPopularityCaffeNet"
state {
  phase: TRAIN
  level: 0
  stage: ""
}
layer {
  name: "data"
  type: "Data"
  top: "data"
  top: "label"
  include {
    phase: TRAIN
  }
  transform_param {
    mirror: true
    crop_size: 227
    mean_file: "/home/tbochens/Nets/FineTuning/imagenet_mean.binaryproto"
  }
  data_param {
    source: "/home/tbochens/Nets/FineTuning/Facebook/thumb_2/train_thumb_2_lmdb"
    batch_size: 64
    backend: LMDB
  }
}
layer {
  name: "conv1"
  type: "Convolution"
  bottom: "data"
  top: "conv1"
  param {
    lr_mult: 1
    decay_mult: 1
  }
  param {
    lr_mult: 2
    decay_mult: 0
  }
  convolution_param {
    num_output: 96
    kernel_size: 11
    stride: 4
    weight_filler {
      type: "gaussian"
      std: 0.01
    }
    bias_filler {
      type: "constant"
      value: 0
    }
  }
}
layer {
  name: "relu1"
  type: "ReLU"
  bottom: "conv1"
  top: "conv1"
}
layer {
  name: "pool1"
  type: "Pooling"
  bottom: "conv1"
  top: "pool1"
  pooling_param {
    pool: MAX
    kernel_size: 3
    stride: 2
  }
}
layer {
  name: "norm1"
  type: "LRN"
  bottom: "pool1"
  top: "norm1"
  lrn_param {
    local_size: 5
    alpha: 0.0001
    beta: 0.75
  }
}
layer {
  name: "conv2"
  type: "Convolution"
  bottom: "norm1"
  top: "conv2"
  param {
    lr_mult: 1
    decay_mult: 1
  }
  param {
    lr_mult: 2
    decay_mult: 0
  }
  convolution_param {
    num_output: 256
    pad: 2
    kernel_size: 5
    group: 2
    weight_filler {
      type: "gaussian"
      std: 0.01
    }
    bias_filler {
      type: "constant"
      value: 1
    }
  }
}
layer {
  name: "relu2"
  type: "ReLU"
  bottom: "conv2"
  top: "conv2"
}
layer {
  name: "pool2"
  type: "Pooling"
  bottom: "conv2"
  top: "pool2"
  pooling_param {
    pool: MAX
    kernel_size: 3
    stride: 2
  }
}
layer {
  name: "norm2"
  type: "LRN"
  bottom: "pool2"
  top: "norm2"
  lrn_param {
    local_size: 5
    alpha: 0.0001
    beta: 0.75
  }
}
layer {
  name: "conv3"
  type: "Convolution"
  bottom: "norm2"
  top: "conv3"
  param {
    lr_mult: 1
    decay_mult: 1
  }
  param {
    lr_mult: 2
    decay_mult: 0
  }
  convolution_param {
    num_output: 384
    pad: 1
    kernel_size: 3
    weight_filler {
      type: "gaussian"
      std: 0.01
    }
    bias_filler {
      type: "constant"
      value: 0
    }
  }
}
layer {
  name: "relu3"
  type: "ReLU"
  bottom: "conv3"
  top: "conv3"
}
layer {
  name: "conv4"
  type: "Convolution"
  bottom: "conv3"
  top: "conv4"
  param {
    lr_mult: 1
    decay_mult: 1
  }
  param {
    lr_mult: 2
    decay_mult: 0
  }
  convolution_param {
    num_output: 384
    pad: 1
    kernel_size: 3
    group: 2
    weight_filler {
      type: "gaussian"
      std: 0.01
    }
    bias_filler {
      type: "constant"
      value: 1
    }
  }
}
layer {
  name: "relu4"
  type: "ReLU"
  bottom: "conv4"
  top: "conv4"
}
layer {
  name: "conv5"
  type: "Convolution"
  bottom: "conv4"
  top: "conv5"
  param {
    lr_mult: 1
    decay_mult: 1
  }
  param {
    lr_mult: 2
    decay_mult: 0
  }
  convolution_param {
    num_output: 256
    pad: 1
    kernel_size: 3
    group: 2
    weight_filler {
      type: "gaussian"
      std: 0.01
    }
    bias_filler {
      type: "constant"
      value: 1
    }
  }
}
layer {
  name: "relu5"
  type: "ReLU"
  bottom: "conv5"
  top: "conv5"
}
layer {
  name: "pool5"
  type: "Pooling"
  bottom: "conv5"
  top: "pool5"
  pooling_param {
    pool: MAX
    kernel_size: 3
    stride: 2
  }
}
layer {
  name: "fc6"
  type: "InnerProduct"
  bottom: "pool5"
  top: "fc6"
  param {
    lr_mult: 1
    decay_mult: 1
  }
  param {
    lr_mult: 2
    decay_mult: 0
  }
  inner_product_param {
    num_output: 4096
    weight_filler {
      type: "gaussian"
      std: 0.005
    }
    bias_filler {
      type: "constant"
      value: 1
    }
  }
}
layer {
  name: "relu6"
  type: "ReLU"
  bottom: "fc6"
  top: "fc6"
}
layer {
  name: "drop6"
  type: "Dropout"
  bottom: "fc6"
  top: "fc6"
  dropout_param {
    dropout_ratio: 0.5
  }
}
layer {
  name: "fc7"
  type: "InnerProduct"
  bottom: "fc6"
  top: "fc7"
  param {
    lr_mult: 1
    decay_mult: 1
  }
  param {
    lr_mult: 2
    decay_mult: 0
  }
  inner_product_param {
    num_output: 4096
    weight_filler {
      type: "gaussian"
      std: 0.005
    }
    bias_filler {
      type: "constant"
      value: 1
    }
  }
}
layer {
  name: "relu7"
  type: "ReLU"
  bottom: "fc7"
  top: "fc7"
}
layer {
  name: "drop7"
  type: "Dropout"
  bottom: "fc7"
  top: "fc7"
  dropout_param {
    dropout_ratio: 0.5
  }
}
layer {
  name: "fc8_2"
  type: "InnerProduct"
  bottom: "fc7"
  top: "fc8_2"
  param {
    lr_mult: 7
    decay_mult: 1
  }
  param {
    lr_mult: 20
    decay_mult: 0
  }
  inner_product_param {
    num_output: 2
    weight_filler {
      type: "gaussian"
      std: 0.01
    }
    bias_filler {
      type: "constant"
      value: 0
    }
  }
}
layer {
  name: "loss"
  type: "SoftmaxWithLoss"
  bottom: "fc8_2"
  bottom: "label"
  top: "loss"
}
I1130 16:45:19.465894 28372 layer_factory.hpp:77] Creating layer data
I1130 16:45:19.466073 28372 net.cpp:100] Creating Layer data
I1130 16:45:19.466085 28372 net.cpp:408] data -> data
I1130 16:45:19.466119 28372 net.cpp:408] data -> label
I1130 16:45:19.466140 28372 data_transformer.cpp:25] Loading mean file from: /home/tbochens/Nets/FineTuning/imagenet_mean.binaryproto
I1130 16:45:19.467864 28380 db_lmdb.cpp:35] Opened lmdb /home/tbochens/Nets/FineTuning/Facebook/thumb_2/train_thumb_2_lmdb
I1130 16:45:19.487668 28372 data_layer.cpp:41] output data size: 64,3,227,227
I1130 16:45:19.585844 28372 net.cpp:150] Setting up data
I1130 16:45:19.585889 28372 net.cpp:157] Top shape: 64 3 227 227 (9893568)
I1130 16:45:19.585894 28372 net.cpp:157] Top shape: 64 (64)
I1130 16:45:19.585897 28372 net.cpp:165] Memory required for data: 39574528
I1130 16:45:19.585914 28372 layer_factory.hpp:77] Creating layer conv1
I1130 16:45:19.585949 28372 net.cpp:100] Creating Layer conv1
I1130 16:45:19.585955 28372 net.cpp:434] conv1 <- data
I1130 16:45:19.585975 28372 net.cpp:408] conv1 -> conv1
I1130 16:45:19.821226 28372 net.cpp:150] Setting up conv1
I1130 16:45:19.821271 28372 net.cpp:157] Top shape: 64 96 55 55 (18585600)
I1130 16:45:19.821275 28372 net.cpp:165] Memory required for data: 113916928
I1130 16:45:19.821312 28372 layer_factory.hpp:77] Creating layer relu1
I1130 16:45:19.821329 28372 net.cpp:100] Creating Layer relu1
I1130 16:45:19.821333 28372 net.cpp:434] relu1 <- conv1
I1130 16:45:19.821341 28372 net.cpp:395] relu1 -> conv1 (in-place)
I1130 16:45:19.821688 28372 net.cpp:150] Setting up relu1
I1130 16:45:19.821704 28372 net.cpp:157] Top shape: 64 96 55 55 (18585600)
I1130 16:45:19.821707 28372 net.cpp:165] Memory required for data: 188259328
I1130 16:45:19.821712 28372 layer_factory.hpp:77] Creating layer pool1
I1130 16:45:19.821720 28372 net.cpp:100] Creating Layer pool1
I1130 16:45:19.821723 28372 net.cpp:434] pool1 <- conv1
I1130 16:45:19.821729 28372 net.cpp:408] pool1 -> pool1
I1130 16:45:19.821792 28372 net.cpp:150] Setting up pool1
I1130 16:45:19.821799 28372 net.cpp:157] Top shape: 64 96 27 27 (4478976)
I1130 16:45:19.821801 28372 net.cpp:165] Memory required for data: 206175232
I1130 16:45:19.821828 28372 layer_factory.hpp:77] Creating layer norm1
I1130 16:45:19.821842 28372 net.cpp:100] Creating Layer norm1
I1130 16:45:19.821846 28372 net.cpp:434] norm1 <- pool1
I1130 16:45:19.821851 28372 net.cpp:408] norm1 -> norm1
I1130 16:45:19.822060 28372 net.cpp:150] Setting up norm1
I1130 16:45:19.822074 28372 net.cpp:157] Top shape: 64 96 27 27 (4478976)
I1130 16:45:19.822077 28372 net.cpp:165] Memory required for data: 224091136
I1130 16:45:19.822079 28372 layer_factory.hpp:77] Creating layer conv2
I1130 16:45:19.822094 28372 net.cpp:100] Creating Layer conv2
I1130 16:45:19.822098 28372 net.cpp:434] conv2 <- norm1
I1130 16:45:19.822103 28372 net.cpp:408] conv2 -> conv2
I1130 16:45:19.828588 28372 net.cpp:150] Setting up conv2
I1130 16:45:19.828605 28372 net.cpp:157] Top shape: 64 256 27 27 (11943936)
I1130 16:45:19.828608 28372 net.cpp:165] Memory required for data: 271866880
I1130 16:45:19.828618 28372 layer_factory.hpp:77] Creating layer relu2
I1130 16:45:19.828624 28372 net.cpp:100] Creating Layer relu2
I1130 16:45:19.828627 28372 net.cpp:434] relu2 <- conv2
I1130 16:45:19.828634 28372 net.cpp:395] relu2 -> conv2 (in-place)
I1130 16:45:19.828817 28372 net.cpp:150] Setting up relu2
I1130 16:45:19.828830 28372 net.cpp:157] Top shape: 64 256 27 27 (11943936)
I1130 16:45:19.828832 28372 net.cpp:165] Memory required for data: 319642624
I1130 16:45:19.828835 28372 layer_factory.hpp:77] Creating layer pool2
I1130 16:45:19.828842 28372 net.cpp:100] Creating Layer pool2
I1130 16:45:19.828845 28372 net.cpp:434] pool2 <- conv2
I1130 16:45:19.828850 28372 net.cpp:408] pool2 -> pool2
I1130 16:45:19.828893 28372 net.cpp:150] Setting up pool2
I1130 16:45:19.828899 28372 net.cpp:157] Top shape: 64 256 13 13 (2768896)
I1130 16:45:19.828902 28372 net.cpp:165] Memory required for data: 330718208
I1130 16:45:19.828904 28372 layer_factory.hpp:77] Creating layer norm2
I1130 16:45:19.828912 28372 net.cpp:100] Creating Layer norm2
I1130 16:45:19.828913 28372 net.cpp:434] norm2 <- pool2
I1130 16:45:19.828917 28372 net.cpp:408] norm2 -> norm2
I1130 16:45:19.829272 28372 net.cpp:150] Setting up norm2
I1130 16:45:19.829287 28372 net.cpp:157] Top shape: 64 256 13 13 (2768896)
I1130 16:45:19.829289 28372 net.cpp:165] Memory required for data: 341793792
I1130 16:45:19.829293 28372 layer_factory.hpp:77] Creating layer conv3
I1130 16:45:19.829303 28372 net.cpp:100] Creating Layer conv3
I1130 16:45:19.829305 28372 net.cpp:434] conv3 <- norm2
I1130 16:45:19.829311 28372 net.cpp:408] conv3 -> conv3
I1130 16:45:19.841900 28372 net.cpp:150] Setting up conv3
I1130 16:45:19.841918 28372 net.cpp:157] Top shape: 64 384 13 13 (4153344)
I1130 16:45:19.841922 28372 net.cpp:165] Memory required for data: 358407168
I1130 16:45:19.841933 28372 layer_factory.hpp:77] Creating layer relu3
I1130 16:45:19.841940 28372 net.cpp:100] Creating Layer relu3
I1130 16:45:19.841943 28372 net.cpp:434] relu3 <- conv3
I1130 16:45:19.841950 28372 net.cpp:395] relu3 -> conv3 (in-place)
I1130 16:45:19.842154 28372 net.cpp:150] Setting up relu3
I1130 16:45:19.842166 28372 net.cpp:157] Top shape: 64 384 13 13 (4153344)
I1130 16:45:19.842169 28372 net.cpp:165] Memory required for data: 375020544
I1130 16:45:19.842172 28372 layer_factory.hpp:77] Creating layer conv4
I1130 16:45:19.842183 28372 net.cpp:100] Creating Layer conv4
I1130 16:45:19.842186 28372 net.cpp:434] conv4 <- conv3
I1130 16:45:19.842193 28372 net.cpp:408] conv4 -> conv4
I1130 16:45:19.852893 28372 net.cpp:150] Setting up conv4
I1130 16:45:19.852913 28372 net.cpp:157] Top shape: 64 384 13 13 (4153344)
I1130 16:45:19.852917 28372 net.cpp:165] Memory required for data: 391633920
I1130 16:45:19.852924 28372 layer_factory.hpp:77] Creating layer relu4
I1130 16:45:19.852931 28372 net.cpp:100] Creating Layer relu4
I1130 16:45:19.852933 28372 net.cpp:434] relu4 <- conv4
I1130 16:45:19.852942 28372 net.cpp:395] relu4 -> conv4 (in-place)
I1130 16:45:19.853174 28372 net.cpp:150] Setting up relu4
I1130 16:45:19.853188 28372 net.cpp:157] Top shape: 64 384 13 13 (4153344)
I1130 16:45:19.853205 28372 net.cpp:165] Memory required for data: 408247296
I1130 16:45:19.853209 28372 layer_factory.hpp:77] Creating layer conv5
I1130 16:45:19.853221 28372 net.cpp:100] Creating Layer conv5
I1130 16:45:19.853236 28372 net.cpp:434] conv5 <- conv4
I1130 16:45:19.853247 28372 net.cpp:408] conv5 -> conv5
I1130 16:45:19.861368 28372 net.cpp:150] Setting up conv5
I1130 16:45:19.861385 28372 net.cpp:157] Top shape: 64 256 13 13 (2768896)
I1130 16:45:19.861388 28372 net.cpp:165] Memory required for data: 419322880
I1130 16:45:19.861400 28372 layer_factory.hpp:77] Creating layer relu5
I1130 16:45:19.861407 28372 net.cpp:100] Creating Layer relu5
I1130 16:45:19.861412 28372 net.cpp:434] relu5 <- conv5
I1130 16:45:19.861418 28372 net.cpp:395] relu5 -> conv5 (in-place)
I1130 16:45:19.861776 28372 net.cpp:150] Setting up relu5
I1130 16:45:19.861791 28372 net.cpp:157] Top shape: 64 256 13 13 (2768896)
I1130 16:45:19.861794 28372 net.cpp:165] Memory required for data: 430398464
I1130 16:45:19.861798 28372 layer_factory.hpp:77] Creating layer pool5
I1130 16:45:19.861804 28372 net.cpp:100] Creating Layer pool5
I1130 16:45:19.861807 28372 net.cpp:434] pool5 <- conv5
I1130 16:45:19.861814 28372 net.cpp:408] pool5 -> pool5
I1130 16:45:19.861866 28372 net.cpp:150] Setting up pool5
I1130 16:45:19.861872 28372 net.cpp:157] Top shape: 64 256 6 6 (589824)
I1130 16:45:19.861874 28372 net.cpp:165] Memory required for data: 432757760
I1130 16:45:19.861877 28372 layer_factory.hpp:77] Creating layer fc6
I1130 16:45:19.861891 28372 net.cpp:100] Creating Layer fc6
I1130 16:45:19.861894 28372 net.cpp:434] fc6 <- pool5
I1130 16:45:19.861898 28372 net.cpp:408] fc6 -> fc6
I1130 16:45:20.370738 28372 net.cpp:150] Setting up fc6
I1130 16:45:20.370792 28372 net.cpp:157] Top shape: 64 4096 (262144)
I1130 16:45:20.370797 28372 net.cpp:165] Memory required for data: 433806336
I1130 16:45:20.370827 28372 layer_factory.hpp:77] Creating layer relu6
I1130 16:45:20.370883 28372 net.cpp:100] Creating Layer relu6
I1130 16:45:20.370908 28372 net.cpp:434] relu6 <- fc6
I1130 16:45:20.370919 28372 net.cpp:395] relu6 -> fc6 (in-place)
I1130 16:45:20.371361 28372 net.cpp:150] Setting up relu6
I1130 16:45:20.371374 28372 net.cpp:157] Top shape: 64 4096 (262144)
I1130 16:45:20.371377 28372 net.cpp:165] Memory required for data: 434854912
I1130 16:45:20.371381 28372 layer_factory.hpp:77] Creating layer drop6
I1130 16:45:20.371409 28372 net.cpp:100] Creating Layer drop6
I1130 16:45:20.371413 28372 net.cpp:434] drop6 <- fc6
I1130 16:45:20.371420 28372 net.cpp:395] drop6 -> fc6 (in-place)
I1130 16:45:20.371461 28372 net.cpp:150] Setting up drop6
I1130 16:45:20.371466 28372 net.cpp:157] Top shape: 64 4096 (262144)
I1130 16:45:20.371469 28372 net.cpp:165] Memory required for data: 435903488
I1130 16:45:20.371471 28372 layer_factory.hpp:77] Creating layer fc7
I1130 16:45:20.371484 28372 net.cpp:100] Creating Layer fc7
I1130 16:45:20.371487 28372 net.cpp:434] fc7 <- fc6
I1130 16:45:20.371495 28372 net.cpp:408] fc7 -> fc7
I1130 16:45:20.554496 28372 net.cpp:150] Setting up fc7
I1130 16:45:20.554538 28372 net.cpp:157] Top shape: 64 4096 (262144)
I1130 16:45:20.554540 28372 net.cpp:165] Memory required for data: 436952064
I1130 16:45:20.554564 28372 layer_factory.hpp:77] Creating layer relu7
I1130 16:45:20.554594 28372 net.cpp:100] Creating Layer relu7
I1130 16:45:20.554599 28372 net.cpp:434] relu7 <- fc7
I1130 16:45:20.554607 28372 net.cpp:395] relu7 -> fc7 (in-place)
I1130 16:45:20.555234 28372 net.cpp:150] Setting up relu7
I1130 16:45:20.555248 28372 net.cpp:157] Top shape: 64 4096 (262144)
I1130 16:45:20.555249 28372 net.cpp:165] Memory required for data: 438000640
I1130 16:45:20.555251 28372 layer_factory.hpp:77] Creating layer drop7
I1130 16:45:20.555258 28372 net.cpp:100] Creating Layer drop7
I1130 16:45:20.555272 28372 net.cpp:434] drop7 <- fc7
I1130 16:45:20.555280 28372 net.cpp:395] drop7 -> fc7 (in-place)
I1130 16:45:20.555308 28372 net.cpp:150] Setting up drop7
I1130 16:45:20.555318 28372 net.cpp:157] Top shape: 64 4096 (262144)
I1130 16:45:20.555352 28372 net.cpp:165] Memory required for data: 439049216
I1130 16:45:20.555356 28372 layer_factory.hpp:77] Creating layer fc8_2
I1130 16:45:20.555377 28372 net.cpp:100] Creating Layer fc8_2
I1130 16:45:20.555378 28372 net.cpp:434] fc8_2 <- fc7
I1130 16:45:20.555384 28372 net.cpp:408] fc8_2 -> fc8_2
I1130 16:45:20.556155 28372 net.cpp:150] Setting up fc8_2
I1130 16:45:20.556167 28372 net.cpp:157] Top shape: 64 2 (128)
I1130 16:45:20.556169 28372 net.cpp:165] Memory required for data: 439049728
I1130 16:45:20.556175 28372 layer_factory.hpp:77] Creating layer loss
I1130 16:45:20.556195 28372 net.cpp:100] Creating Layer loss
I1130 16:45:20.556197 28372 net.cpp:434] loss <- fc8_2
I1130 16:45:20.556200 28372 net.cpp:434] loss <- label
I1130 16:45:20.556226 28372 net.cpp:408] loss -> loss
I1130 16:45:20.556252 28372 layer_factory.hpp:77] Creating layer loss
…
I1130 16:45:20.557231 28372 net.cpp:322] The NetState phase (1) differed from the phase (0) specified by a rule in layer data
I1130 16:45:20.557387 28372 net.cpp:58] Initializing net from parameters: 
name: "VideoPopularityCaffeNet"
state {
  phase: TEST
}
layer {
  name: "data"
  type: "Data"
  top: "data"
  top: "label"
  include {
    phase: TEST
  }
  transform_param {
    mirror: false
    crop_size: 227
    mean_file: "/home/tbochens/Nets/FineTuning/imagenet_mean.binaryproto"
  }
  data_param {
    source: "/home/tbochens/Nets/FineTuning/Facebook/thumb_2/val_thumb_2_lmdb"
    batch_size: 64
    backend: LMDB
  }
}
layer {
  name: "conv1"
  type: "Convolution"
  bottom: "data"
  top: "conv1"
  param {
    lr_mult: 1
    decay_mult: 1
  }
  param {
    lr_mult: 2
    decay_mult: 0
  }
  convolution_param {
    num_output: 96
    kernel_size: 11
    stride: 4
    weight_filler {
      type: "gaussian"
      std: 0.01
    }
    bias_filler {
      type: "constant"
      value: 0
    }
  }
}
layer {
  name: "relu1"
  type: "ReLU"
  bottom: "conv1"
  top: "conv1"
}
layer {
  name: "pool1"
  type: "Pooling"
  bottom: "conv1"
  top: "pool1"
  pooling_param {
    pool: MAX
    kernel_size: 3
    stride: 2
  }
}
layer {
  name: "norm1"
  type: "LRN"
  bottom: "pool1"
  top: "norm1"
  lrn_param {
    local_size: 5
    alpha: 0.0001
    beta: 0.75
  }
}
layer {
  name: "conv2"
  type: "Convolution"
  bottom: "norm1"
  top: "conv2"
  param {
    lr_mult: 1
    decay_mult: 1
  }
  param {
    lr_mult: 2
    decay_mult: 0
  }
  convolution_param {
    num_output: 256
    pad: 2
    kernel_size: 5
    group: 2
    weight_filler {
      type: "gaussian"
      std: 0.01
    }
    bias_filler {
      type: "constant"
      value: 1
    }
  }
}
layer {
  name: "relu2"
  type: "ReLU"
  bottom: "conv2"
  top: "conv2"
}
layer {
  name: "pool2"
  type: "Pooling"
  bottom: "conv2"
  top: "pool2"
  pooling_param {
    pool: MAX
    kernel_size: 3
    stride: 2
  }
}
layer {
  name: "norm2"
  type: "LRN"
  bottom: "pool2"
  top: "norm2"
  lrn_param {
    local_size: 5
    alpha: 0.0001
    beta: 0.75
  }
}
layer {
  name: "conv3"
  type: "Convolution"
  bottom: "norm2"
  top: "conv3"
  param {
    lr_mult: 1
    decay_mult: 1
  }
  param {
    lr_mult: 2
    decay_mult: 0
  }
  convolution_param {
    num_output: 384
    pad: 1
    kernel_size: 3
    weight_filler {
      type: "gaussian"
      std: 0.01
    }
    bias_filler {
      type: "constant"
      value: 0
    }
  }
}
layer {
  name: "relu3"
  type: "ReLU"
  bottom: "conv3"
  top: "conv3"
}
layer {
  name: "conv4"
  type: "Convolution"
  bottom: "conv3"
  top: "conv4"
  param {
    lr_mult: 1
    decay_mult: 1
  }
  param {
    lr_mult: 2
    decay_mult: 0
  }
  convolution_param {
    num_output: 384
    pad: 1
    kernel_size: 3
    group: 2
    weight_filler {
      type: "gaussian"
      std: 0.01
    }
    bias_filler {
      type: "constant"
      value: 1
    }
  }
}
layer {
  name: "relu4"
  type: "ReLU"
  bottom: "conv4"
  top: "conv4"
}
layer {
  name: "conv5"
  type: "Convolution"
  bottom: "conv4"
  top: "conv5"
  param {
    lr_mult: 1
    decay_mult: 1
  }
  param {
    lr_mult: 2
    decay_mult: 0
  }
  convolution_param {
    num_output: 256
    pad: 1
    kernel_size: 3
    group: 2
    weight_filler {
      type: "gaussian"
      std: 0.01
    }
    bias_filler {
      type: "constant"
      value: 1
    }
  }
}
layer {
  name: "relu5"
  type: "ReLU"
  bottom: "conv5"
  top: "conv5"
}
layer {
  name: "pool5"
  type: "Pooling"
  bottom: "conv5"
  top: "pool5"
  pooling_param {
    pool: MAX
    kernel_size: 3
    stride: 2
  }
}
layer {
  name: "fc6"
  type: "InnerProduct"
  bottom: "pool5"
  top: "fc6"
  param {
    lr_mult: 1
    decay_mult: 1
  }
  param {
    lr_mult: 2
    decay_mult: 0
  }
  inner_product_param {
    num_output: 4096
    weight_filler {
      type: "gaussian"
      std: 0.005
    }
    bias_filler {
      type: "constant"
      value: 1
    }
  }
}
layer {
  name: "relu6"
  type: "ReLU"
  bottom: "fc6"
  top: "fc6"
}
layer {
  name: "drop6"
  type: "Dropout"
  bottom: "fc6"
  top: "fc6"
  dropout_param {
    dropout_ratio: 0.5
  }
}
layer {
  name: "fc7"
  type: "InnerProduct"
  bottom: "fc6"
  top: "fc7"
  param {
    lr_mult: 1
    decay_mult: 1
  }
  param {
    lr_mult: 2
    decay_mult: 0
  }
  inner_product_param {
    num_output: 4096
    weight_filler {
      type: "gaussian"
      std: 0.005
    }
    bias_filler {
      type: "constant"
      value: 1
    }
  }
}
layer {
  name: "relu7"
  type: "ReLU"
  bottom: "fc7"
  top: "fc7"
}
layer {
  name: "drop7"
  type: "Dropout"
  bottom: "fc7"
  top: "fc7"
  dropout_param {
    dropout_ratio: 0.5
  }
}
layer {
  name: "fc8_2"
  type: "InnerProduct"
  bottom: "fc7"
  top: "fc8_2"
  param {
    lr_mult: 7
    decay_mult: 1
  }
  param {
    lr_mult: 20
    decay_mult: 0
  }
  inner_product_param {
    num_output: 2
    weight_filler {
      type: "gaussian"
      std: 0.01
    }
    bias_filler {
      type: "constant"
      value: 0
    }
  }
}
layer {
  name: "accuracy"
  type: "Accuracy"
  bottom: "fc8_2"
  bottom: "label"
  top: "accuracy"
  include {
    phase: TEST
  }
}
layer {
  name: "loss"
  type: "SoftmaxWithLoss"
  bottom: "fc8_2"
  bottom: "label"
  top: "loss"
}
I1130 16:45:20.557500 28372 layer_factory.hpp:77] Creating layer data
I1130 16:45:20.557621 28372 net.cpp:100] Creating Layer data
I1130 16:45:20.557637 28372 net.cpp:408] data -> data
I1130 16:45:20.557646 28372 net.cpp:408] data -> label
I1130 16:45:20.557653 28372 data_transformer.cpp:25] Loading mean file from: /home/tbochens/Nets/FineTuning/imagenet_mean.binaryproto
I1130 16:45:20.559299 28467 db_lmdb.cpp:35] Opened lmdb /home/tbochens/Nets/FineTuning/Facebook/thumb_2/val_thumb_2_lmdb
I1130 16:45:20.560281 28372 data_layer.cpp:41] output data size: 64,3,227,227
I1130 16:45:20.644964 28372 net.cpp:150] Setting up data
I1130 16:45:20.645009 28372 net.cpp:157] Top shape: 64 3 227 227 (9893568)
I1130 16:45:20.645014 28372 net.cpp:157] Top shape: 64 (64)
I1130 16:45:20.645015 28372 net.cpp:165] Memory required for data: 39574528
I1130 16:45:20.645022 28372 layer_factory.hpp:77] Creating layer label_data_1_split
I1130 16:45:20.645037 28372 net.cpp:100] Creating Layer label_data_1_split
I1130 16:45:20.645040 28372 net.cpp:434] label_data_1_split <- label
I1130 16:45:20.645048 28372 net.cpp:408] label_data_1_split -> label_data_1_split_0
I1130 16:45:20.645068 28372 net.cpp:408] label_data_1_split -> label_data_1_split_1
I1130 16:45:20.645187 28372 net.cpp:150] Setting up label_data_1_split
I1130 16:45:20.645196 28372 net.cpp:157] Top shape: 64 (64)
I1130 16:45:20.645198 28372 net.cpp:157] Top shape: 64 (64)
I1130 16:45:20.645200 28372 net.cpp:165] Memory required for data: 39575040
I1130 16:45:20.645203 28372 layer_factory.hpp:77] Creating layer conv1
I1130 16:45:20.645217 28372 net.cpp:100] Creating Layer conv1
I1130 16:45:20.645220 28372 net.cpp:434] conv1 <- data
I1130 16:45:20.645226 28372 net.cpp:408] conv1 -> conv1
I1130 16:45:20.646855 28372 net.cpp:150] Setting up conv1
I1130 16:45:20.646868 28372 net.cpp:157] Top shape: 64 96 55 55 (18585600)
I1130 16:45:20.646883 28372 net.cpp:165] Memory required for data: 113917440
I1130 16:45:20.646893 28372 layer_factory.hpp:77] Creating layer relu1
I1130 16:45:20.646899 28372 net.cpp:100] Creating Layer relu1
I1130 16:45:20.646903 28372 net.cpp:434] relu1 <- conv1
I1130 16:45:20.646908 28372 net.cpp:395] relu1 -> conv1 (in-place)
I1130 16:45:20.653334 28372 net.cpp:150] Setting up relu1
I1130 16:45:20.653360 28372 net.cpp:157] Top shape: 64 96 55 55 (18585600)
I1130 16:45:20.653362 28372 net.cpp:165] Memory required for data: 188259840
I1130 16:45:20.653365 28372 layer_factory.hpp:77] Creating layer pool1
I1130 16:45:20.653374 28372 net.cpp:100] Creating Layer pool1
I1130 16:45:20.653378 28372 net.cpp:434] pool1 <- conv1
I1130 16:45:20.653383 28372 net.cpp:408] pool1 -> pool1
I1130 16:45:20.653444 28372 net.cpp:150] Setting up pool1
I1130 16:45:20.653447 28372 net.cpp:157] Top shape: 64 96 27 27 (4478976)
I1130 16:45:20.653450 28372 net.cpp:165] Memory required for data: 206175744
I1130 16:45:20.653451 28372 layer_factory.hpp:77] Creating layer norm1
I1130 16:45:20.653458 28372 net.cpp:100] Creating Layer norm1
I1130 16:45:20.653460 28372 net.cpp:434] norm1 <- pool1
I1130 16:45:20.653465 28372 net.cpp:408] norm1 -> norm1
I1130 16:45:20.653645 28372 net.cpp:150] Setting up norm1
I1130 16:45:20.653656 28372 net.cpp:157] Top shape: 64 96 27 27 (4478976)
I1130 16:45:20.653658 28372 net.cpp:165] Memory required for data: 224091648
I1130 16:45:20.653661 28372 layer_factory.hpp:77] Creating layer conv2
I1130 16:45:20.653669 28372 net.cpp:100] Creating Layer conv2
I1130 16:45:20.653671 28372 net.cpp:434] conv2 <- norm1
I1130 16:45:20.653677 28372 net.cpp:408] conv2 -> conv2
I1130 16:45:20.658617 28372 net.cpp:150] Setting up conv2
I1130 16:45:20.658632 28372 net.cpp:157] Top shape: 64 256 27 27 (11943936)
I1130 16:45:20.658645 28372 net.cpp:165] Memory required for data: 271867392
I1130 16:45:20.658675 28372 layer_factory.hpp:77] Creating layer relu2
I1130 16:45:20.658682 28372 net.cpp:100] Creating Layer relu2
I1130 16:45:20.658685 28372 net.cpp:434] relu2 <- conv2
I1130 16:45:20.658701 28372 net.cpp:395] relu2 -> conv2 (in-place)
I1130 16:45:20.658895 28372 net.cpp:150] Setting up relu2
I1130 16:45:20.658905 28372 net.cpp:157] Top shape: 64 256 27 27 (11943936)
I1130 16:45:20.658907 28372 net.cpp:165] Memory required for data: 319643136
I1130 16:45:20.658910 28372 layer_factory.hpp:77] Creating layer pool2
I1130 16:45:20.658917 28372 net.cpp:100] Creating Layer pool2
I1130 16:45:20.658920 28372 net.cpp:434] pool2 <- conv2
I1130 16:45:20.658926 28372 net.cpp:408] pool2 -> pool2
I1130 16:45:20.658969 28372 net.cpp:150] Setting up pool2
I1130 16:45:20.658974 28372 net.cpp:157] Top shape: 64 256 13 13 (2768896)
I1130 16:45:20.658977 28372 net.cpp:165] Memory required for data: 330718720
I1130 16:45:20.658978 28372 layer_factory.hpp:77] Creating layer norm2
I1130 16:45:20.658983 28372 net.cpp:100] Creating Layer norm2
I1130 16:45:20.658987 28372 net.cpp:434] norm2 <- pool2
I1130 16:45:20.658990 28372 net.cpp:408] norm2 -> norm2
I1130 16:45:20.659312 28372 net.cpp:150] Setting up norm2
I1130 16:45:20.659345 28372 net.cpp:157] Top shape: 64 256 13 13 (2768896)
I1130 16:45:20.659348 28372 net.cpp:165] Memory required for data: 341794304
I1130 16:45:20.659350 28372 layer_factory.hpp:77] Creating layer conv3
I1130 16:45:20.659370 28372 net.cpp:100] Creating Layer conv3
I1130 16:45:20.659373 28372 net.cpp:434] conv3 <- norm2
I1130 16:45:20.659384 28372 net.cpp:408] conv3 -> conv3
I1130 16:45:20.669736 28372 net.cpp:150] Setting up conv3
I1130 16:45:20.669751 28372 net.cpp:157] Top shape: 64 384 13 13 (4153344)
I1130 16:45:20.669765 28372 net.cpp:165] Memory required for data: 358407680
I1130 16:45:20.669773 28372 layer_factory.hpp:77] Creating layer relu3
I1130 16:45:20.669780 28372 net.cpp:100] Creating Layer relu3
I1130 16:45:20.669782 28372 net.cpp:434] relu3 <- conv3
I1130 16:45:20.669786 28372 net.cpp:395] relu3 -> conv3 (in-place)
I1130 16:45:20.669957 28372 net.cpp:150] Setting up relu3
I1130 16:45:20.669967 28372 net.cpp:157] Top shape: 64 384 13 13 (4153344)
I1130 16:45:20.669970 28372 net.cpp:165] Memory required for data: 375021056
I1130 16:45:20.669972 28372 layer_factory.hpp:77] Creating layer conv4
I1130 16:45:20.669981 28372 net.cpp:100] Creating Layer conv4
I1130 16:45:20.669983 28372 net.cpp:434] conv4 <- conv3
I1130 16:45:20.669989 28372 net.cpp:408] conv4 -> conv4
I1130 16:45:20.678776 28372 net.cpp:150] Setting up conv4
I1130 16:45:20.678803 28372 net.cpp:157] Top shape: 64 384 13 13 (4153344)
I1130 16:45:20.678805 28372 net.cpp:165] Memory required for data: 391634432
I1130 16:45:20.678812 28372 layer_factory.hpp:77] Creating layer relu4
I1130 16:45:20.678817 28372 net.cpp:100] Creating Layer relu4
I1130 16:45:20.678819 28372 net.cpp:434] relu4 <- conv4
I1130 16:45:20.678824 28372 net.cpp:395] relu4 -> conv4 (in-place)
I1130 16:45:20.679018 28372 net.cpp:150] Setting up relu4
I1130 16:45:20.679028 28372 net.cpp:157] Top shape: 64 384 13 13 (4153344)
I1130 16:45:20.679031 28372 net.cpp:165] Memory required for data: 408247808
I1130 16:45:20.679033 28372 layer_factory.hpp:77] Creating layer conv5
I1130 16:45:20.679041 28372 net.cpp:100] Creating Layer conv5
I1130 16:45:20.679044 28372 net.cpp:434] conv5 <- conv4
I1130 16:45:20.679050 28372 net.cpp:408] conv5 -> conv5
I1130 16:45:20.685420 28372 net.cpp:150] Setting up conv5
I1130 16:45:20.685433 28372 net.cpp:157] Top shape: 64 256 13 13 (2768896)
I1130 16:45:20.685447 28372 net.cpp:165] Memory required for data: 419323392
I1130 16:45:20.685456 28372 layer_factory.hpp:77] Creating layer relu5
I1130 16:45:20.685461 28372 net.cpp:100] Creating Layer relu5
I1130 16:45:20.685464 28372 net.cpp:434] relu5 <- conv5
I1130 16:45:20.685469 28372 net.cpp:395] relu5 -> conv5 (in-place)
I1130 16:45:20.685649 28372 net.cpp:150] Setting up relu5
I1130 16:45:20.685659 28372 net.cpp:157] Top shape: 64 256 13 13 (2768896)
I1130 16:45:20.685689 28372 net.cpp:165] Memory required for data: 430398976
I1130 16:45:20.685693 28372 layer_factory.hpp:77] Creating layer pool5
I1130 16:45:20.685701 28372 net.cpp:100] Creating Layer pool5
I1130 16:45:20.685704 28372 net.cpp:434] pool5 <- conv5
I1130 16:45:20.685708 28372 net.cpp:408] pool5 -> pool5
I1130 16:45:20.685757 28372 net.cpp:150] Setting up pool5
I1130 16:45:20.685763 28372 net.cpp:157] Top shape: 64 256 6 6 (589824)
I1130 16:45:20.685765 28372 net.cpp:165] Memory required for data: 432758272
I1130 16:45:20.685767 28372 layer_factory.hpp:77] Creating layer fc6
I1130 16:45:20.685775 28372 net.cpp:100] Creating Layer fc6
I1130 16:45:20.685777 28372 net.cpp:434] fc6 <- pool5
I1130 16:45:20.685782 28372 net.cpp:408] fc6 -> fc6
I1130 16:45:21.084792 28372 net.cpp:150] Setting up fc6
I1130 16:45:21.084837 28372 net.cpp:157] Top shape: 64 4096 (262144)
I1130 16:45:21.084841 28372 net.cpp:165] Memory required for data: 433806848
I1130 16:45:21.084852 28372 layer_factory.hpp:77] Creating layer relu6
I1130 16:45:21.084866 28372 net.cpp:100] Creating Layer relu6
I1130 16:45:21.084868 28372 net.cpp:434] relu6 <- fc6
I1130 16:45:21.084877 28372 net.cpp:395] relu6 -> fc6 (in-place)
I1130 16:45:21.085420 28372 net.cpp:150] Setting up relu6
I1130 16:45:21.085443 28372 net.cpp:157] Top shape: 64 4096 (262144)
I1130 16:45:21.085445 28372 net.cpp:165] Memory required for data: 434855424
I1130 16:45:21.085448 28372 layer_factory.hpp:77] Creating layer drop6
I1130 16:45:21.085466 28372 net.cpp:100] Creating Layer drop6
I1130 16:45:21.085469 28372 net.cpp:434] drop6 <- fc6
I1130 16:45:21.085474 28372 net.cpp:395] drop6 -> fc6 (in-place)
I1130 16:45:21.085515 28372 net.cpp:150] Setting up drop6
I1130 16:45:21.085520 28372 net.cpp:157] Top shape: 64 4096 (262144)
I1130 16:45:21.085522 28372 net.cpp:165] Memory required for data: 435904000
I1130 16:45:21.085523 28372 layer_factory.hpp:77] Creating layer fc7
I1130 16:45:21.085531 28372 net.cpp:100] Creating Layer fc7
I1130 16:45:21.085533 28372 net.cpp:434] fc7 <- fc6
I1130 16:45:21.085538 28372 net.cpp:408] fc7 -> fc7
I1130 16:45:21.257485 28372 net.cpp:150] Setting up fc7
I1130 16:45:21.257527 28372 net.cpp:157] Top shape: 64 4096 (262144)
I1130 16:45:21.257530 28372 net.cpp:165] Memory required for data: 436952576
I1130 16:45:21.257544 28372 layer_factory.hpp:77] Creating layer relu7
I1130 16:45:21.257555 28372 net.cpp:100] Creating Layer relu7
I1130 16:45:21.257560 28372 net.cpp:434] relu7 <- fc7
I1130 16:45:21.257566 28372 net.cpp:395] relu7 -> fc7 (in-place)
I1130 16:45:21.257824 28372 net.cpp:150] Setting up relu7
I1130 16:45:21.257835 28372 net.cpp:157] Top shape: 64 4096 (262144)
I1130 16:45:21.257838 28372 net.cpp:165] Memory required for data: 438001152
I1130 16:45:21.257840 28372 layer_factory.hpp:77] Creating layer drop7
I1130 16:45:21.257848 28372 net.cpp:100] Creating Layer drop7
I1130 16:45:21.257849 28372 net.cpp:434] drop7 <- fc7
I1130 16:45:21.257854 28372 net.cpp:395] drop7 -> fc7 (in-place)
I1130 16:45:21.257884 28372 net.cpp:150] Setting up drop7
I1130 16:45:21.257889 28372 net.cpp:157] Top shape: 64 4096 (262144)
I1130 16:45:21.257890 28372 net.cpp:165] Memory required for data: 439049728
I1130 16:45:21.257892 28372 layer_factory.hpp:77] Creating layer fc8_2
I1130 16:45:21.257901 28372 net.cpp:100] Creating Layer fc8_2
I1130 16:45:21.257903 28372 net.cpp:434] fc8_2 <- fc7
I1130 16:45:21.257908 28372 net.cpp:408] fc8_2 -> fc8_2
I1130 16:45:21.258093 28372 net.cpp:150] Setting up fc8_2
I1130 16:45:21.258102 28372 net.cpp:157] Top shape: 64 2 (128)
I1130 16:45:21.258105 28372 net.cpp:165] Memory required for data: 439050240
I1130 16:45:21.258110 28372 layer_factory.hpp:77] Creating layer fc8_2_fc8_2_0_split
I1130 16:45:21.258116 28372 net.cpp:100] Creating Layer fc8_2_fc8_2_0_split
I1130 16:45:21.258117 28372 net.cpp:434] fc8_2_fc8_2_0_split <- fc8_2
I1130 16:45:21.258122 28372 net.cpp:408] fc8_2_fc8_2_0_split -> fc8_2_fc8_2_0_split_0
I1130 16:45:21.258128 28372 net.cpp:408] fc8_2_fc8_2_0_split -> fc8_2_fc8_2_0_split_1
I1130 16:45:21.258163 28372 net.cpp:150] Setting up fc8_2_fc8_2_0_split
I1130 16:45:21.258186 28372 net.cpp:157] Top shape: 64 2 (128)
I1130 16:45:21.258189 28372 net.cpp:157] Top shape: 64 2 (128)
I1130 16:45:21.258191 28372 net.cpp:165] Memory required for data: 439051264
I1130 16:45:21.258193 28372 layer_factory.hpp:77] Creating layer accuracy
I1130 16:45:21.258214 28372 net.cpp:100] Creating Layer accuracy
I1130 16:45:21.258219 28372 net.cpp:434] accuracy <- fc8_2_fc8_2_0_split_0
I1130 16:45:21.258222 28372 net.cpp:434] accuracy <- label_data_1_split_0
I1130 16:45:21.258247 28372 net.cpp:408] accuracy -> accuracy
…
