…
I1129 14:25:33.157222 30036 net.cpp:322] The NetState phase (0) differed from the phase (1) specified by a rule in layer accuracy
I1129 14:25:33.157402 30036 net.cpp:58] Initializing net from parameters: 
name: "VideoPopularityCaffeNet"
state {
  phase: TRAIN
  level: 0
  stage: ""
}
layer {
  name: "data"
  type: "Data"
  top: "data"
  top: "label"
  include {
    phase: TRAIN
  }
  transform_param {
    mirror: true
    crop_size: 227
    mean_file: "/home/tbochens/Nets/FineTuning/imagenet_mean.binaryproto"
  }
  data_param {
    source: "/home/tbochens/Nets/FineTuning/Facebook/thumb_2/train_thumb_2_lmdb"
    batch_size: 50
    backend: LMDB
  }
}
layer {
  name: "conv1"
  type: "Convolution"
  bottom: "data"
  top: "conv1"
  param {
    lr_mult: 1
    decay_mult: 1
  }
  param {
    lr_mult: 2
    decay_mult: 0
  }
  convolution_param {
    num_output: 96
    kernel_size: 11
    stride: 4
    weight_filler {
      type: "gaussian"
      std: 0.01
    }
    bias_filler {
      type: "constant"
      value: 0
    }
  }
}
layer {
  name: "relu1"
  type: "ReLU"
  bottom: "conv1"
  top: "conv1"
}
layer {
  name: "pool1"
  type: "Pooling"
  bottom: "conv1"
  top: "pool1"
  pooling_param {
    pool: MAX
    kernel_size: 3
    stride: 2
  }
}
layer {
  name: "norm1"
  type: "LRN"
  bottom: "pool1"
  top: "norm1"
  lrn_param {
    local_size: 5
    alpha: 0.0001
    beta: 0.75
  }
}
layer {
  name: "conv2"
  type: "Convolution"
  bottom: "norm1"
  top: "conv2"
  param {
    lr_mult: 1
    decay_mult: 1
  }
  param {
    lr_mult: 2
    decay_mult: 0
  }
  convolution_param {
    num_output: 256
    pad: 2
    kernel_size: 5
    group: 2
    weight_filler {
      type: "gaussian"
      std: 0.01
    }
    bias_filler {
      type: "constant"
      value: 1
    }
  }
}
layer {
  name: "relu2"
  type: "ReLU"
  bottom: "conv2"
  top: "conv2"
}
layer {
  name: "pool2"
  type: "Pooling"
  bottom: "conv2"
  top: "pool2"
  pooling_param {
    pool: MAX
    kernel_size: 3
    stride: 2
  }
}
layer {
  name: "norm2"
  type: "LRN"
  bottom: "pool2"
  top: "norm2"
  lrn_param {
    local_size: 5
    alpha: 0.0001
    beta: 0.75
  }
}
layer {
  name: "conv3"
  type: "Convolution"
  bottom: "norm2"
  top: "conv3"
  param {
    lr_mult: 1
    decay_mult: 1
  }
  param {
    lr_mult: 2
    decay_mult: 0
  }
  convolution_param {
    num_output: 384
    pad: 1
    kernel_size: 3
    weight_filler {
      type: "gaussian"
      std: 0.01
    }
    bias_filler {
      type: "constant"
      value: 0
    }
  }
}
layer {
  name: "relu3"
  type: "ReLU"
  bottom: "conv3"
  top: "conv3"
}
layer {
  name: "conv4"
  type: "Convolution"
  bottom: "conv3"
  top: "conv4"
  param {
    lr_mult: 1
    decay_mult: 1
  }
  param {
    lr_mult: 2
    decay_mult: 0
  }
  convolution_param {
    num_output: 384
    pad: 1
    kernel_size: 3
    group: 2
    weight_filler {
      type: "gaussian"
      std: 0.01
    }
    bias_filler {
      type: "constant"
      value: 1
    }
  }
}
layer {
  name: "relu4"
  type: "ReLU"
  bottom: "conv4"
  top: "conv4"
}
layer {
  name: "conv5"
  type: "Convolution"
  bottom: "conv4"
  top: "conv5"
  param {
    lr_mult: 1
    decay_mult: 1
  }
  param {
    lr_mult: 2
    decay_mult: 0
  }
  convolution_param {
    num_output: 256
    pad: 1
    kernel_size: 3
    group: 2
    weight_filler {
      type: "gaussian"
      std: 0.01
    }
    bias_filler {
      type: "constant"
      value: 1
    }
  }
}
layer {
  name: "relu5"
  type: "ReLU"
  bottom: "conv5"
  top: "conv5"
}
layer {
  name: "pool5"
  type: "Pooling"
  bottom: "conv5"
  top: "pool5"
  pooling_param {
    pool: MAX
    kernel_size: 3
    stride: 2
  }
}
layer {
  name: "fc6"
  type: "InnerProduct"
  bottom: "pool5"
  top: "fc6"
  param {
    lr_mult: 1
    decay_mult: 1
  }
  param {
    lr_mult: 2
    decay_mult: 0
  }
  inner_product_param {
    num_output: 4096
    weight_filler {
      type: "gaussian"
      std: 0.005
    }
    bias_filler {
      type: "constant"
      value: 1
    }
  }
}
layer {
  name: "relu6"
  type: "ReLU"
  bottom: "fc6"
  top: "fc6"
}
layer {
  name: "drop6"
  type: "Dropout"
  bottom: "fc6"
  top: "fc6"
  dropout_param {
    dropout_ratio: 0.5
  }
}
layer {
  name: "fc7"
  type: "InnerProduct"
  bottom: "fc6"
  top: "fc7"
  param {
    lr_mult: 1
    decay_mult: 1
  }
  param {
    lr_mult: 2
    decay_mult: 0
  }
  inner_product_param {
    num_output: 4096
    weight_filler {
      type: "gaussian"
      std: 0.005
    }
    bias_filler {
      type: "constant"
      value: 1
    }
  }
}
layer {
  name: "relu7"
  type: "ReLU"
  bottom: "fc7"
  top: "fc7"
}
layer {
  name: "drop7"
  type: "Dropout"
  bottom: "fc7"
  top: "fc7"
  dropout_param {
    dropout_ratio: 0.5
  }
}
layer {
  name: "fc8_2"
  type: "InnerProduct"
  bottom: "fc7"
  top: "fc8_2"
  param {
    lr_mult: 10
    decay_mult: 1
  }
  param {
    lr_mult: 20
    decay_mult: 0
  }
  inner_product_param {
    num_output: 2
    weight_filler {
      type: "gaussian"
      std: 0.01
    }
    bias_filler {
      type: "constant"
      value: 0
    }
  }
}
layer {
  name: "loss"
  type: "SoftmaxWithLoss"
  bottom: "fc8_2"
  bottom: "label"
  top: "loss"
}
I1129 14:25:33.157508 30036 layer_factory.hpp:77] Creating layer data
I1129 14:25:33.167018 30036 net.cpp:100] Creating Layer data
I1129 14:25:33.167037 30036 net.cpp:408] data -> data
I1129 14:25:33.167065 30036 net.cpp:408] data -> label
I1129 14:25:33.167085 30036 data_transformer.cpp:25] Loading mean file from: /home/tbochens/Nets/FineTuning/imagenet_mean.binaryproto
I1129 14:25:33.167891 30042 db_lmdb.cpp:35] Opened lmdb /home/tbochens/Nets/FineTuning/Facebook/thumb_2/train_thumb_2_lmdb
I1129 14:25:33.344064 30036 data_layer.cpp:41] output data size: 50,3,227,227
I1129 14:25:33.411026 30036 net.cpp:150] Setting up data
I1129 14:25:33.411056 30036 net.cpp:157] Top shape: 50 3 227 227 (7729350)
I1129 14:25:33.411061 30036 net.cpp:157] Top shape: 50 (50)
I1129 14:25:33.411063 30036 net.cpp:165] Memory required for data: 30917600
I1129 14:25:33.411074 30036 layer_factory.hpp:77] Creating layer conv1
I1129 14:25:33.411100 30036 net.cpp:100] Creating Layer conv1
I1129 14:25:33.411106 30036 net.cpp:434] conv1 <- data
I1129 14:25:33.411121 30036 net.cpp:408] conv1 -> conv1
I1129 14:25:34.177352 30036 net.cpp:150] Setting up conv1
I1129 14:25:34.177395 30036 net.cpp:157] Top shape: 50 96 55 55 (14520000)
I1129 14:25:34.177399 30036 net.cpp:165] Memory required for data: 88997600
I1129 14:25:34.177428 30036 layer_factory.hpp:77] Creating layer relu1
I1129 14:25:34.177445 30036 net.cpp:100] Creating Layer relu1
I1129 14:25:34.177449 30036 net.cpp:434] relu1 <- conv1
I1129 14:25:34.177464 30036 net.cpp:395] relu1 -> conv1 (in-place)
I1129 14:25:34.177788 30036 net.cpp:150] Setting up relu1
I1129 14:25:34.177801 30036 net.cpp:157] Top shape: 50 96 55 55 (14520000)
I1129 14:25:34.177804 30036 net.cpp:165] Memory required for data: 147077600
I1129 14:25:34.177808 30036 layer_factory.hpp:77] Creating layer pool1
I1129 14:25:34.177816 30036 net.cpp:100] Creating Layer pool1
I1129 14:25:34.177819 30036 net.cpp:434] pool1 <- conv1
I1129 14:25:34.177824 30036 net.cpp:408] pool1 -> pool1
I1129 14:25:34.177883 30036 net.cpp:150] Setting up pool1
I1129 14:25:34.177899 30036 net.cpp:157] Top shape: 50 96 27 27 (3499200)
I1129 14:25:34.177901 30036 net.cpp:165] Memory required for data: 161074400
I1129 14:25:34.177923 30036 layer_factory.hpp:77] Creating layer norm1
I1129 14:25:34.177935 30036 net.cpp:100] Creating Layer norm1
I1129 14:25:34.177939 30036 net.cpp:434] norm1 <- pool1
I1129 14:25:34.177944 30036 net.cpp:408] norm1 -> norm1
I1129 14:25:34.178148 30036 net.cpp:150] Setting up norm1
I1129 14:25:34.178160 30036 net.cpp:157] Top shape: 50 96 27 27 (3499200)
I1129 14:25:34.178163 30036 net.cpp:165] Memory required for data: 175071200
I1129 14:25:34.178167 30036 layer_factory.hpp:77] Creating layer conv2
I1129 14:25:34.178180 30036 net.cpp:100] Creating Layer conv2
I1129 14:25:34.178184 30036 net.cpp:434] conv2 <- norm1
I1129 14:25:34.178189 30036 net.cpp:408] conv2 -> conv2
I1129 14:25:34.184702 30036 net.cpp:150] Setting up conv2
I1129 14:25:34.184717 30036 net.cpp:157] Top shape: 50 256 27 27 (9331200)
I1129 14:25:34.184720 30036 net.cpp:165] Memory required for data: 212396000
I1129 14:25:34.184732 30036 layer_factory.hpp:77] Creating layer relu2
I1129 14:25:34.184738 30036 net.cpp:100] Creating Layer relu2
I1129 14:25:34.184741 30036 net.cpp:434] relu2 <- conv2
I1129 14:25:34.184748 30036 net.cpp:395] relu2 -> conv2 (in-place)
I1129 14:25:34.184944 30036 net.cpp:150] Setting up relu2
I1129 14:25:34.184955 30036 net.cpp:157] Top shape: 50 256 27 27 (9331200)
I1129 14:25:34.184957 30036 net.cpp:165] Memory required for data: 249720800
I1129 14:25:34.184960 30036 layer_factory.hpp:77] Creating layer pool2
I1129 14:25:34.184968 30036 net.cpp:100] Creating Layer pool2
I1129 14:25:34.184970 30036 net.cpp:434] pool2 <- conv2
I1129 14:25:34.184975 30036 net.cpp:408] pool2 -> pool2
I1129 14:25:34.185020 30036 net.cpp:150] Setting up pool2
I1129 14:25:34.185026 30036 net.cpp:157] Top shape: 50 256 13 13 (2163200)
I1129 14:25:34.185029 30036 net.cpp:165] Memory required for data: 258373600
I1129 14:25:34.185031 30036 layer_factory.hpp:77] Creating layer norm2
I1129 14:25:34.185040 30036 net.cpp:100] Creating Layer norm2
I1129 14:25:34.185044 30036 net.cpp:434] norm2 <- pool2
I1129 14:25:34.185047 30036 net.cpp:408] norm2 -> norm2
I1129 14:25:34.185407 30036 net.cpp:150] Setting up norm2
I1129 14:25:34.185422 30036 net.cpp:157] Top shape: 50 256 13 13 (2163200)
I1129 14:25:34.185425 30036 net.cpp:165] Memory required for data: 267026400
I1129 14:25:34.185432 30036 layer_factory.hpp:77] Creating layer conv3
I1129 14:25:34.185442 30036 net.cpp:100] Creating Layer conv3
I1129 14:25:34.185446 30036 net.cpp:434] conv3 <- norm2
I1129 14:25:34.185451 30036 net.cpp:408] conv3 -> conv3
I1129 14:25:34.197954 30036 net.cpp:150] Setting up conv3
I1129 14:25:34.197970 30036 net.cpp:157] Top shape: 50 384 13 13 (3244800)
I1129 14:25:34.197973 30036 net.cpp:165] Memory required for data: 280005600
I1129 14:25:34.197984 30036 layer_factory.hpp:77] Creating layer relu3
I1129 14:25:34.197990 30036 net.cpp:100] Creating Layer relu3
I1129 14:25:34.197994 30036 net.cpp:434] relu3 <- conv3
I1129 14:25:34.197999 30036 net.cpp:395] relu3 -> conv3 (in-place)
I1129 14:25:34.198196 30036 net.cpp:150] Setting up relu3
I1129 14:25:34.198206 30036 net.cpp:157] Top shape: 50 384 13 13 (3244800)
I1129 14:25:34.198210 30036 net.cpp:165] Memory required for data: 292984800
I1129 14:25:34.198211 30036 layer_factory.hpp:77] Creating layer conv4
I1129 14:25:34.198221 30036 net.cpp:100] Creating Layer conv4
I1129 14:25:34.198231 30036 net.cpp:434] conv4 <- conv3
I1129 14:25:34.198246 30036 net.cpp:408] conv4 -> conv4
I1129 14:25:34.208621 30036 net.cpp:150] Setting up conv4
I1129 14:25:34.208636 30036 net.cpp:157] Top shape: 50 384 13 13 (3244800)
I1129 14:25:34.208640 30036 net.cpp:165] Memory required for data: 305964000
I1129 14:25:34.208650 30036 layer_factory.hpp:77] Creating layer relu4
I1129 14:25:34.208657 30036 net.cpp:100] Creating Layer relu4
I1129 14:25:34.208660 30036 net.cpp:434] relu4 <- conv4
I1129 14:25:34.208665 30036 net.cpp:395] relu4 -> conv4 (in-place)
I1129 14:25:34.208856 30036 net.cpp:150] Setting up relu4
I1129 14:25:34.208866 30036 net.cpp:157] Top shape: 50 384 13 13 (3244800)
I1129 14:25:34.208889 30036 net.cpp:165] Memory required for data: 318943200
I1129 14:25:34.208892 30036 layer_factory.hpp:77] Creating layer conv5
I1129 14:25:34.208904 30036 net.cpp:100] Creating Layer conv5
I1129 14:25:34.208906 30036 net.cpp:434] conv5 <- conv4
I1129 14:25:34.208914 30036 net.cpp:408] conv5 -> conv5
I1129 14:25:34.216698 30036 net.cpp:150] Setting up conv5
I1129 14:25:34.216712 30036 net.cpp:157] Top shape: 50 256 13 13 (2163200)
I1129 14:25:34.216716 30036 net.cpp:165] Memory required for data: 327596000
I1129 14:25:34.216729 30036 layer_factory.hpp:77] Creating layer relu5
I1129 14:25:34.216735 30036 net.cpp:100] Creating Layer relu5
I1129 14:25:34.216738 30036 net.cpp:434] relu5 <- conv5
I1129 14:25:34.216743 30036 net.cpp:395] relu5 -> conv5 (in-place)
I1129 14:25:34.217084 30036 net.cpp:150] Setting up relu5
I1129 14:25:34.217105 30036 net.cpp:157] Top shape: 50 256 13 13 (2163200)
I1129 14:25:34.217108 30036 net.cpp:165] Memory required for data: 336248800
I1129 14:25:34.217111 30036 layer_factory.hpp:77] Creating layer pool5
I1129 14:25:34.217123 30036 net.cpp:100] Creating Layer pool5
I1129 14:25:34.217126 30036 net.cpp:434] pool5 <- conv5
I1129 14:25:34.217133 30036 net.cpp:408] pool5 -> pool5
I1129 14:25:34.217185 30036 net.cpp:150] Setting up pool5
I1129 14:25:34.217190 30036 net.cpp:157] Top shape: 50 256 6 6 (460800)
I1129 14:25:34.217192 30036 net.cpp:165] Memory required for data: 338092000
I1129 14:25:34.217196 30036 layer_factory.hpp:77] Creating layer fc6
I1129 14:25:34.217209 30036 net.cpp:100] Creating Layer fc6
I1129 14:25:34.217211 30036 net.cpp:434] fc6 <- pool5
I1129 14:25:34.217216 30036 net.cpp:408] fc6 -> fc6
I1129 14:25:34.692644 30036 net.cpp:150] Setting up fc6
I1129 14:25:34.692682 30036 net.cpp:157] Top shape: 50 4096 (204800)
I1129 14:25:34.692684 30036 net.cpp:165] Memory required for data: 338911200
I1129 14:25:34.692694 30036 layer_factory.hpp:77] Creating layer relu6
I1129 14:25:34.692703 30036 net.cpp:100] Creating Layer relu6
I1129 14:25:34.692708 30036 net.cpp:434] relu6 <- fc6
I1129 14:25:34.692713 30036 net.cpp:395] relu6 -> fc6 (in-place)
I1129 14:25:34.692958 30036 net.cpp:150] Setting up relu6
I1129 14:25:34.692967 30036 net.cpp:157] Top shape: 50 4096 (204800)
I1129 14:25:34.692970 30036 net.cpp:165] Memory required for data: 339730400
I1129 14:25:34.692972 30036 layer_factory.hpp:77] Creating layer drop6
I1129 14:25:34.692978 30036 net.cpp:100] Creating Layer drop6
I1129 14:25:34.692981 30036 net.cpp:434] drop6 <- fc6
I1129 14:25:34.692986 30036 net.cpp:395] drop6 -> fc6 (in-place)
I1129 14:25:34.693017 30036 net.cpp:150] Setting up drop6
I1129 14:25:34.693022 30036 net.cpp:157] Top shape: 50 4096 (204800)
I1129 14:25:34.693024 30036 net.cpp:165] Memory required for data: 340549600
I1129 14:25:34.693027 30036 layer_factory.hpp:77] Creating layer fc7
I1129 14:25:34.693033 30036 net.cpp:100] Creating Layer fc7
I1129 14:25:34.693035 30036 net.cpp:434] fc7 <- fc6
I1129 14:25:34.693042 30036 net.cpp:408] fc7 -> fc7
I1129 14:25:34.870122 30036 net.cpp:150] Setting up fc7
I1129 14:25:34.870160 30036 net.cpp:157] Top shape: 50 4096 (204800)
I1129 14:25:34.870162 30036 net.cpp:165] Memory required for data: 341368800
I1129 14:25:34.870173 30036 layer_factory.hpp:77] Creating layer relu7
I1129 14:25:34.870184 30036 net.cpp:100] Creating Layer relu7
I1129 14:25:34.870187 30036 net.cpp:434] relu7 <- fc7
I1129 14:25:34.870193 30036 net.cpp:395] relu7 -> fc7 (in-place)
I1129 14:25:34.870683 30036 net.cpp:150] Setting up relu7
I1129 14:25:34.870694 30036 net.cpp:157] Top shape: 50 4096 (204800)
I1129 14:25:34.870708 30036 net.cpp:165] Memory required for data: 342188000
I1129 14:25:34.870710 30036 layer_factory.hpp:77] Creating layer drop7
I1129 14:25:34.870718 30036 net.cpp:100] Creating Layer drop7
I1129 14:25:34.870719 30036 net.cpp:434] drop7 <- fc7
I1129 14:25:34.870723 30036 net.cpp:395] drop7 -> fc7 (in-place)
I1129 14:25:34.870756 30036 net.cpp:150] Setting up drop7
I1129 14:25:34.870760 30036 net.cpp:157] Top shape: 50 4096 (204800)
I1129 14:25:34.870777 30036 net.cpp:165] Memory required for data: 343007200
I1129 14:25:34.870779 30036 layer_factory.hpp:77] Creating layer fc8_2
I1129 14:25:34.870789 30036 net.cpp:100] Creating Layer fc8_2
I1129 14:25:34.870790 30036 net.cpp:434] fc8_2 <- fc7
I1129 14:25:34.870795 30036 net.cpp:408] fc8_2 -> fc8_2
I1129 14:25:34.871587 30036 net.cpp:150] Setting up fc8_2
I1129 14:25:34.871598 30036 net.cpp:157] Top shape: 50 2 (100)
I1129 14:25:34.871599 30036 net.cpp:165] Memory required for data: 343007600
I1129 14:25:34.871616 30036 layer_factory.hpp:77] Creating layer loss
I1129 14:25:34.871621 30036 net.cpp:100] Creating Layer loss
I1129 14:25:34.871623 30036 net.cpp:434] loss <- fc8_2
I1129 14:25:34.871626 30036 net.cpp:434] loss <- label
I1129 14:25:34.871634 30036 net.cpp:408] loss -> loss
I1129 14:25:34.871646 30036 layer_factory.hpp:77] Creating layer loss
…
I1129 14:25:34.872387 30036 net.cpp:322] The NetState phase (1) differed from the phase (0) specified by a rule in layer data
I1129 14:25:34.872576 30036 net.cpp:58] Initializing net from parameters: 
name: "VideoPopularityCaffeNet"
state {
  phase: TEST
}
layer {
  name: "data"
  type: "Data"
  top: "data"
  top: "label"
  include {
    phase: TEST
  }
  transform_param {
    mirror: false
    crop_size: 227
    mean_file: "/home/tbochens/Nets/FineTuning/imagenet_mean.binaryproto"
  }
  data_param {
    source: "/home/tbochens/Nets/FineTuning/Facebook/thumb_2/val_thumb_2_lmdb"
    batch_size: 50
    backend: LMDB
  }
}
layer {
  name: "conv1"
  type: "Convolution"
  bottom: "data"
  top: "conv1"
  param {
    lr_mult: 1
    decay_mult: 1
  }
  param {
    lr_mult: 2
    decay_mult: 0
  }
  convolution_param {
    num_output: 96
    kernel_size: 11
    stride: 4
    weight_filler {
      type: "gaussian"
      std: 0.01
    }
    bias_filler {
      type: "constant"
      value: 0
    }
  }
}
layer {
  name: "relu1"
  type: "ReLU"
  bottom: "conv1"
  top: "conv1"
}
layer {
  name: "pool1"
  type: "Pooling"
  bottom: "conv1"
  top: "pool1"
  pooling_param {
    pool: MAX
    kernel_size: 3
    stride: 2
  }
}
layer {
  name: "norm1"
  type: "LRN"
  bottom: "pool1"
  top: "norm1"
  lrn_param {
    local_size: 5
    alpha: 0.0001
    beta: 0.75
  }
}
layer {
  name: "conv2"
  type: "Convolution"
  bottom: "norm1"
  top: "conv2"
  param {
    lr_mult: 1
    decay_mult: 1
  }
  param {
    lr_mult: 2
    decay_mult: 0
  }
  convolution_param {
    num_output: 256
    pad: 2
    kernel_size: 5
    group: 2
    weight_filler {
      type: "gaussian"
      std: 0.01
    }
    bias_filler {
      type: "constant"
      value: 1
    }
  }
}
layer {
  name: "relu2"
  type: "ReLU"
  bottom: "conv2"
  top: "conv2"
}
layer {
  name: "pool2"
  type: "Pooling"
  bottom: "conv2"
  top: "pool2"
  pooling_param {
    pool: MAX
    kernel_size: 3
    stride: 2
  }
}
layer {
  name: "norm2"
  type: "LRN"
  bottom: "pool2"
  top: "norm2"
  lrn_param {
    local_size: 5
    alpha: 0.0001
    beta: 0.75
  }
}
layer {
  name: "conv3"
  type: "Convolution"
  bottom: "norm2"
  top: "conv3"
  param {
    lr_mult: 1
    decay_mult: 1
  }
  param {
    lr_mult: 2
    decay_mult: 0
  }
  convolution_param {
    num_output: 384
    pad: 1
    kernel_size: 3
    weight_filler {
      type: "gaussian"
      std: 0.01
    }
    bias_filler {
      type: "constant"
      value: 0
    }
  }
}
layer {
  name: "relu3"
  type: "ReLU"
  bottom: "conv3"
  top: "conv3"
}
layer {
  name: "conv4"
  type: "Convolution"
  bottom: "conv3"
  top: "conv4"
  param {
    lr_mult: 1
    decay_mult: 1
  }
  param {
    lr_mult: 2
    decay_mult: 0
  }
  convolution_param {
    num_output: 384
    pad: 1
    kernel_size: 3
    group: 2
    weight_filler {
      type: "gaussian"
      std: 0.01
    }
    bias_filler {
      type: "constant"
      value: 1
    }
  }
}
layer {
  name: "relu4"
  type: "ReLU"
  bottom: "conv4"
  top: "conv4"
}
layer {
  name: "conv5"
  type: "Convolution"
  bottom: "conv4"
  top: "conv5"
  param {
    lr_mult: 1
    decay_mult: 1
  }
  param {
    lr_mult: 2
    decay_mult: 0
  }
  convolution_param {
    num_output: 256
    pad: 1
    kernel_size: 3
    group: 2
    weight_filler {
      type: "gaussian"
      std: 0.01
    }
    bias_filler {
      type: "constant"
      value: 1
    }
  }
}
layer {
  name: "relu5"
  type: "ReLU"
  bottom: "conv5"
  top: "conv5"
}
layer {
  name: "pool5"
  type: "Pooling"
  bottom: "conv5"
  top: "pool5"
  pooling_param {
    pool: MAX
    kernel_size: 3
    stride: 2
  }
}
layer {
  name: "fc6"
  type: "InnerProduct"
  bottom: "pool5"
  top: "fc6"
  param {
    lr_mult: 1
    decay_mult: 1
  }
  param {
    lr_mult: 2
    decay_mult: 0
  }
  inner_product_param {
    num_output: 4096
    weight_filler {
      type: "gaussian"
      std: 0.005
    }
    bias_filler {
      type: "constant"
      value: 1
    }
  }
}
layer {
  name: "relu6"
  type: "ReLU"
  bottom: "fc6"
  top: "fc6"
}
layer {
  name: "drop6"
  type: "Dropout"
  bottom: "fc6"
  top: "fc6"
  dropout_param {
    dropout_ratio: 0.5
  }
}
layer {
  name: "fc7"
  type: "InnerProduct"
  bottom: "fc6"
  top: "fc7"
  param {
    lr_mult: 1
    decay_mult: 1
  }
  param {
    lr_mult: 2
    decay_mult: 0
  }
  inner_product_param {
    num_output: 4096
    weight_filler {
      type: "gaussian"
      std: 0.005
    }
    bias_filler {
      type: "constant"
      value: 1
    }
  }
}
layer {
  name: "relu7"
  type: "ReLU"
  bottom: "fc7"
  top: "fc7"
}
layer {
  name: "drop7"
  type: "Dropout"
  bottom: "fc7"
  top: "fc7"
  dropout_param {
    dropout_ratio: 0.5
  }
}
layer {
  name: "fc8_2"
  type: "InnerProduct"
  bottom: "fc7"
  top: "fc8_2"
  param {
    lr_mult: 10
    decay_mult: 1
  }
  param {
    lr_mult: 20
    decay_mult: 0
  }
  inner_product_param {
    num_output: 2
    weight_filler {
      type: "gaussian"
      std: 0.01
    }
    bias_filler {
      type: "constant"
      value: 0
    }
  }
}
layer {
  name: "accuracy"
  type: "Accuracy"
  bottom: "fc8_2"
  bottom: "label"
  top: "accuracy"
  include {
    phase: TEST
  }
}
layer {
  name: "loss"
  type: "SoftmaxWithLoss"
  bottom: "fc8_2"
  bottom: "label"
  top: "loss"
}
I1129 14:25:34.872691 30036 layer_factory.hpp:77] Creating layer data
I1129 14:25:34.872815 30036 net.cpp:100] Creating Layer data
I1129 14:25:34.872822 30036 net.cpp:408] data -> data
I1129 14:25:34.872838 30036 net.cpp:408] data -> label
I1129 14:25:34.872844 30036 data_transformer.cpp:25] Loading mean file from: /home/tbochens/Nets/FineTuning/imagenet_mean.binaryproto
I1129 14:25:34.895627 30044 db_lmdb.cpp:35] Opened lmdb /home/tbochens/Nets/FineTuning/Facebook/thumb_2/val_thumb_2_lmdb
I1129 14:25:34.896124 30036 data_layer.cpp:41] output data size: 50,3,227,227
I1129 14:25:34.980317 30036 net.cpp:150] Setting up data
I1129 14:25:34.980347 30036 net.cpp:157] Top shape: 50 3 227 227 (7729350)
I1129 14:25:34.980355 30036 net.cpp:157] Top shape: 50 (50)
I1129 14:25:34.980357 30036 net.cpp:165] Memory required for data: 30917600
I1129 14:25:34.980365 30036 layer_factory.hpp:77] Creating layer label_data_1_split
I1129 14:25:34.980381 30036 net.cpp:100] Creating Layer label_data_1_split
I1129 14:25:34.980392 30036 net.cpp:434] label_data_1_split <- label
I1129 14:25:34.980402 30036 net.cpp:408] label_data_1_split -> label_data_1_split_0
I1129 14:25:34.980415 30036 net.cpp:408] label_data_1_split -> label_data_1_split_1
I1129 14:25:34.980603 30036 net.cpp:150] Setting up label_data_1_split
I1129 14:25:34.980614 30036 net.cpp:157] Top shape: 50 (50)
I1129 14:25:34.980618 30036 net.cpp:157] Top shape: 50 (50)
I1129 14:25:34.980621 30036 net.cpp:165] Memory required for data: 30918000
I1129 14:25:34.980625 30036 layer_factory.hpp:77] Creating layer conv1
I1129 14:25:34.980643 30036 net.cpp:100] Creating Layer conv1
I1129 14:25:34.980646 30036 net.cpp:434] conv1 <- data
I1129 14:25:34.980654 30036 net.cpp:408] conv1 -> conv1
I1129 14:25:34.987877 30036 net.cpp:150] Setting up conv1
I1129 14:25:34.987897 30036 net.cpp:157] Top shape: 50 96 55 55 (14520000)
I1129 14:25:34.987902 30036 net.cpp:165] Memory required for data: 88998000
I1129 14:25:34.987916 30036 layer_factory.hpp:77] Creating layer relu1
I1129 14:25:34.987926 30036 net.cpp:100] Creating Layer relu1
I1129 14:25:34.987936 30036 net.cpp:434] relu1 <- conv1
I1129 14:25:34.987941 30036 net.cpp:395] relu1 -> conv1 (in-place)
I1129 14:25:34.988346 30036 net.cpp:150] Setting up relu1
I1129 14:25:34.988363 30036 net.cpp:157] Top shape: 50 96 55 55 (14520000)
I1129 14:25:34.988366 30036 net.cpp:165] Memory required for data: 147078000
I1129 14:25:34.988370 30036 layer_factory.hpp:77] Creating layer pool1
I1129 14:25:34.988381 30036 net.cpp:100] Creating Layer pool1
I1129 14:25:34.988384 30036 net.cpp:434] pool1 <- conv1
I1129 14:25:34.988391 30036 net.cpp:408] pool1 -> pool1
I1129 14:25:34.988457 30036 net.cpp:150] Setting up pool1
I1129 14:25:34.988463 30036 net.cpp:157] Top shape: 50 96 27 27 (3499200)
I1129 14:25:34.988466 30036 net.cpp:165] Memory required for data: 161074800
I1129 14:25:34.988469 30036 layer_factory.hpp:77] Creating layer norm1
I1129 14:25:34.988479 30036 net.cpp:100] Creating Layer norm1
I1129 14:25:34.988482 30036 net.cpp:434] norm1 <- pool1
I1129 14:25:34.988488 30036 net.cpp:408] norm1 -> norm1
I1129 14:25:34.988772 30036 net.cpp:150] Setting up norm1
I1129 14:25:34.988785 30036 net.cpp:157] Top shape: 50 96 27 27 (3499200)
I1129 14:25:34.988788 30036 net.cpp:165] Memory required for data: 175071600
I1129 14:25:34.988792 30036 layer_factory.hpp:77] Creating layer conv2
I1129 14:25:34.988804 30036 net.cpp:100] Creating Layer conv2
I1129 14:25:34.988809 30036 net.cpp:434] conv2 <- norm1
I1129 14:25:34.988818 30036 net.cpp:408] conv2 -> conv2
I1129 14:25:34.996116 30036 net.cpp:150] Setting up conv2
I1129 14:25:34.996142 30036 net.cpp:157] Top shape: 50 256 27 27 (9331200)
I1129 14:25:34.996146 30036 net.cpp:165] Memory required for data: 212396400
I1129 14:25:34.996189 30036 layer_factory.hpp:77] Creating layer relu2
I1129 14:25:34.996198 30036 net.cpp:100] Creating Layer relu2
I1129 14:25:34.996212 30036 net.cpp:434] relu2 <- conv2
I1129 14:25:34.996219 30036 net.cpp:395] relu2 -> conv2 (in-place)
I1129 14:25:34.996454 30036 net.cpp:150] Setting up relu2
I1129 14:25:34.996465 30036 net.cpp:157] Top shape: 50 256 27 27 (9331200)
I1129 14:25:34.996469 30036 net.cpp:165] Memory required for data: 249721200
I1129 14:25:34.996472 30036 layer_factory.hpp:77] Creating layer pool2
I1129 14:25:34.996482 30036 net.cpp:100] Creating Layer pool2
I1129 14:25:34.996486 30036 net.cpp:434] pool2 <- conv2
I1129 14:25:34.996492 30036 net.cpp:408] pool2 -> pool2
I1129 14:25:34.996561 30036 net.cpp:150] Setting up pool2
I1129 14:25:34.996569 30036 net.cpp:157] Top shape: 50 256 13 13 (2163200)
I1129 14:25:34.996572 30036 net.cpp:165] Memory required for data: 258374000
I1129 14:25:34.996575 30036 layer_factory.hpp:77] Creating layer norm2
I1129 14:25:34.996583 30036 net.cpp:100] Creating Layer norm2
I1129 14:25:34.996589 30036 net.cpp:434] norm2 <- pool2
I1129 14:25:34.996595 30036 net.cpp:408] norm2 -> norm2
I1129 14:25:34.997040 30036 net.cpp:150] Setting up norm2
I1129 14:25:34.997053 30036 net.cpp:157] Top shape: 50 256 13 13 (2163200)
I1129 14:25:34.997064 30036 net.cpp:165] Memory required for data: 267026800
I1129 14:25:34.997067 30036 layer_factory.hpp:77] Creating layer conv3
I1129 14:25:34.997079 30036 net.cpp:100] Creating Layer conv3
I1129 14:25:34.997083 30036 net.cpp:434] conv3 <- norm2
I1129 14:25:34.997098 30036 net.cpp:408] conv3 -> conv3
I1129 14:25:35.011898 30036 net.cpp:150] Setting up conv3
I1129 14:25:35.011924 30036 net.cpp:157] Top shape: 50 384 13 13 (3244800)
I1129 14:25:35.011929 30036 net.cpp:165] Memory required for data: 280006000
I1129 14:25:35.011943 30036 layer_factory.hpp:77] Creating layer relu3
I1129 14:25:35.011955 30036 net.cpp:100] Creating Layer relu3
I1129 14:25:35.011960 30036 net.cpp:434] relu3 <- conv3
I1129 14:25:35.011967 30036 net.cpp:395] relu3 -> conv3 (in-place)
I1129 14:25:35.012187 30036 net.cpp:150] Setting up relu3
I1129 14:25:35.012197 30036 net.cpp:157] Top shape: 50 384 13 13 (3244800)
I1129 14:25:35.012199 30036 net.cpp:165] Memory required for data: 292985200
I1129 14:25:35.012202 30036 layer_factory.hpp:77] Creating layer conv4
I1129 14:25:35.012215 30036 net.cpp:100] Creating Layer conv4
I1129 14:25:35.012218 30036 net.cpp:434] conv4 <- conv3
I1129 14:25:35.012225 30036 net.cpp:408] conv4 -> conv4
I1129 14:25:35.031450 30036 net.cpp:150] Setting up conv4
I1129 14:25:35.031474 30036 net.cpp:157] Top shape: 50 384 13 13 (3244800)
I1129 14:25:35.031478 30036 net.cpp:165] Memory required for data: 305964400
I1129 14:25:35.031487 30036 layer_factory.hpp:77] Creating layer relu4
I1129 14:25:35.031497 30036 net.cpp:100] Creating Layer relu4
I1129 14:25:35.031502 30036 net.cpp:434] relu4 <- conv4
I1129 14:25:35.031509 30036 net.cpp:395] relu4 -> conv4 (in-place)
I1129 14:25:35.031734 30036 net.cpp:150] Setting up relu4
I1129 14:25:35.031744 30036 net.cpp:157] Top shape: 50 384 13 13 (3244800)
I1129 14:25:35.031749 30036 net.cpp:165] Memory required for data: 318943600
I1129 14:25:35.031751 30036 layer_factory.hpp:77] Creating layer conv5
I1129 14:25:35.031764 30036 net.cpp:100] Creating Layer conv5
I1129 14:25:35.031766 30036 net.cpp:434] conv5 <- conv4
I1129 14:25:35.031774 30036 net.cpp:408] conv5 -> conv5
I1129 14:25:35.034346 30045 blocking_queue.cpp:50] Waiting for data
I1129 14:25:35.039757 30036 net.cpp:150] Setting up conv5
I1129 14:25:35.039773 30036 net.cpp:157] Top shape: 50 256 13 13 (2163200)
I1129 14:25:35.039777 30036 net.cpp:165] Memory required for data: 327596400
I1129 14:25:35.039794 30036 layer_factory.hpp:77] Creating layer relu5
I1129 14:25:35.039803 30036 net.cpp:100] Creating Layer relu5
I1129 14:25:35.039805 30036 net.cpp:434] relu5 <- conv5
I1129 14:25:35.039811 30036 net.cpp:395] relu5 -> conv5 (in-place)
I1129 14:25:35.040009 30036 net.cpp:150] Setting up relu5
I1129 14:25:35.040045 30036 net.cpp:157] Top shape: 50 256 13 13 (2163200)
I1129 14:25:35.040048 30036 net.cpp:165] Memory required for data: 336249200
I1129 14:25:35.040051 30036 layer_factory.hpp:77] Creating layer pool5
I1129 14:25:35.040062 30036 net.cpp:100] Creating Layer pool5
I1129 14:25:35.040066 30036 net.cpp:434] pool5 <- conv5
I1129 14:25:35.040071 30036 net.cpp:408] pool5 -> pool5
I1129 14:25:35.040129 30036 net.cpp:150] Setting up pool5
I1129 14:25:35.040138 30036 net.cpp:157] Top shape: 50 256 6 6 (460800)
I1129 14:25:35.040140 30036 net.cpp:165] Memory required for data: 338092400
I1129 14:25:35.040143 30036 layer_factory.hpp:77] Creating layer fc6
I1129 14:25:35.040153 30036 net.cpp:100] Creating Layer fc6
I1129 14:25:35.040155 30036 net.cpp:434] fc6 <- pool5
I1129 14:25:35.040161 30036 net.cpp:408] fc6 -> fc6
I1129 14:25:35.540652 30036 net.cpp:150] Setting up fc6
I1129 14:25:35.540689 30036 net.cpp:157] Top shape: 50 4096 (204800)
I1129 14:25:35.540693 30036 net.cpp:165] Memory required for data: 338911600
I1129 14:25:35.540705 30036 layer_factory.hpp:77] Creating layer relu6
I1129 14:25:35.540717 30036 net.cpp:100] Creating Layer relu6
I1129 14:25:35.540721 30036 net.cpp:434] relu6 <- fc6
I1129 14:25:35.540730 30036 net.cpp:395] relu6 -> fc6 (in-place)
I1129 14:25:35.541259 30036 net.cpp:150] Setting up relu6
I1129 14:25:35.541271 30036 net.cpp:157] Top shape: 50 4096 (204800)
I1129 14:25:35.541275 30036 net.cpp:165] Memory required for data: 339730800
I1129 14:25:35.541283 30036 layer_factory.hpp:77] Creating layer drop6
I1129 14:25:35.541291 30036 net.cpp:100] Creating Layer drop6
I1129 14:25:35.541295 30036 net.cpp:434] drop6 <- fc6
I1129 14:25:35.541301 30036 net.cpp:395] drop6 -> fc6 (in-place)
I1129 14:25:35.541353 30036 net.cpp:150] Setting up drop6
I1129 14:25:35.541358 30036 net.cpp:157] Top shape: 50 4096 (204800)
I1129 14:25:35.541362 30036 net.cpp:165] Memory required for data: 340550000
I1129 14:25:35.541363 30036 layer_factory.hpp:77] Creating layer fc7
I1129 14:25:35.541373 30036 net.cpp:100] Creating Layer fc7
I1129 14:25:35.541375 30036 net.cpp:434] fc7 <- fc6
I1129 14:25:35.541381 30036 net.cpp:408] fc7 -> fc7
I1129 14:25:35.749158 30036 net.cpp:150] Setting up fc7
I1129 14:25:35.749197 30036 net.cpp:157] Top shape: 50 4096 (204800)
I1129 14:25:35.749200 30036 net.cpp:165] Memory required for data: 341369200
I1129 14:25:35.749209 30036 layer_factory.hpp:77] Creating layer relu7
I1129 14:25:35.749222 30036 net.cpp:100] Creating Layer relu7
I1129 14:25:35.749225 30036 net.cpp:434] relu7 <- fc7
I1129 14:25:35.749233 30036 net.cpp:395] relu7 -> fc7 (in-place)
I1129 14:25:35.749502 30036 net.cpp:150] Setting up relu7
I1129 14:25:35.749511 30036 net.cpp:157] Top shape: 50 4096 (204800)
I1129 14:25:35.749513 30036 net.cpp:165] Memory required for data: 342188400
I1129 14:25:35.749516 30036 layer_factory.hpp:77] Creating layer drop7
I1129 14:25:35.749523 30036 net.cpp:100] Creating Layer drop7
I1129 14:25:35.749526 30036 net.cpp:434] drop7 <- fc7
I1129 14:25:35.749531 30036 net.cpp:395] drop7 -> fc7 (in-place)
I1129 14:25:35.749563 30036 net.cpp:150] Setting up drop7
I1129 14:25:35.749570 30036 net.cpp:157] Top shape: 50 4096 (204800)
I1129 14:25:35.749572 30036 net.cpp:165] Memory required for data: 343007600
I1129 14:25:35.749574 30036 layer_factory.hpp:77] Creating layer fc8_2
I1129 14:25:35.749583 30036 net.cpp:100] Creating Layer fc8_2
I1129 14:25:35.749585 30036 net.cpp:434] fc8_2 <- fc7
I1129 14:25:35.749590 30036 net.cpp:408] fc8_2 -> fc8_2
I1129 14:25:35.749780 30036 net.cpp:150] Setting up fc8_2
I1129 14:25:35.749788 30036 net.cpp:157] Top shape: 50 2 (100)
I1129 14:25:35.749791 30036 net.cpp:165] Memory required for data: 343008000
I1129 14:25:35.749795 30036 layer_factory.hpp:77] Creating layer fc8_2_fc8_2_0_split
I1129 14:25:35.749801 30036 net.cpp:100] Creating Layer fc8_2_fc8_2_0_split
I1129 14:25:35.749804 30036 net.cpp:434] fc8_2_fc8_2_0_split <- fc8_2
I1129 14:25:35.749810 30036 net.cpp:408] fc8_2_fc8_2_0_split -> fc8_2_fc8_2_0_split_0
I1129 14:25:35.749815 30036 net.cpp:408] fc8_2_fc8_2_0_split -> fc8_2_fc8_2_0_split_1
I1129 14:25:35.749872 30036 net.cpp:150] Setting up fc8_2_fc8_2_0_split
I1129 14:25:35.749877 30036 net.cpp:157] Top shape: 50 2 (100)
I1129 14:25:35.749879 30036 net.cpp:157] Top shape: 50 2 (100)
I1129 14:25:35.749881 30036 net.cpp:165] Memory required for data: 343008800
I1129 14:25:35.749883 30036 layer_factory.hpp:77] Creating layer accuracy
I1129 14:25:35.749896 30036 net.cpp:100] Creating Layer accuracy
I1129 14:25:35.749898 30036 net.cpp:434] accuracy <- fc8_2_fc8_2_0_split_0
I1129 14:25:35.749902 30036 net.cpp:434] accuracy <- label_data_1_split_0
I1129 14:25:35.749908 30036 net.cpp:408] accuracy -> accuracy
…
