…
I1203 09:07:37.612361 44826 net.cpp:322] The NetState phase (0) differed from the phase (1) specified by a rule in layer accuracy
I1203 09:07:37.612543 44826 net.cpp:58] Initializing net from parameters: 
name: "VideoPopularityCaffeNet"
state {
  phase: TRAIN
  level: 0
  stage: ""
}
layer {
  name: "data"
  type: "Data"
  top: "data"
  top: "label"
  include {
    phase: TRAIN
  }
  transform_param {
    mirror: true
    crop_size: 227
    mean_file: "/home/tbochens/Nets/FineTuning/imagenet_mean.binaryproto"
  }
  data_param {
    source: "train_thumb_2_lmdb.1"
    batch_size: 64
    backend: LMDB
  }
}
layer {
  name: "conv1"
  type: "Convolution"
  bottom: "data"
  top: "conv1"
  param {
    lr_mult: 1
    decay_mult: 1
  }
  param {
    lr_mult: 2
    decay_mult: 0
  }
  convolution_param {
    num_output: 96
    kernel_size: 11
    stride: 4
    weight_filler {
      type: "gaussian"
      std: 0.01
    }
    bias_filler {
      type: "constant"
      value: 0
    }
  }
}
layer {
  name: "relu1"
  type: "ReLU"
  bottom: "conv1"
  top: "conv1"
}
layer {
  name: "pool1"
  type: "Pooling"
  bottom: "conv1"
  top: "pool1"
  pooling_param {
    pool: MAX
    kernel_size: 3
    stride: 2
  }
}
layer {
  name: "norm1"
  type: "LRN"
  bottom: "pool1"
  top: "norm1"
  lrn_param {
    local_size: 5
    alpha: 0.0001
    beta: 0.75
  }
}
layer {
  name: "conv2"
  type: "Convolution"
  bottom: "norm1"
  top: "conv2"
  param {
    lr_mult: 1
    decay_mult: 1
  }
  param {
    lr_mult: 2
    decay_mult: 0
  }
  convolution_param {
    num_output: 256
    pad: 2
    kernel_size: 5
    group: 2
    weight_filler {
      type: "gaussian"
      std: 0.01
    }
    bias_filler {
      type: "constant"
      value: 1
    }
  }
}
layer {
  name: "relu2"
  type: "ReLU"
  bottom: "conv2"
  top: "conv2"
}
layer {
  name: "pool2"
  type: "Pooling"
  bottom: "conv2"
  top: "pool2"
  pooling_param {
    pool: MAX
    kernel_size: 3
    stride: 2
  }
}
layer {
  name: "norm2"
  type: "LRN"
  bottom: "pool2"
  top: "norm2"
  lrn_param {
    local_size: 5
    alpha: 0.0001
    beta: 0.75
  }
}
layer {
  name: "conv3"
  type: "Convolution"
  bottom: "norm2"
  top: "conv3"
  param {
    lr_mult: 1
    decay_mult: 1
  }
  param {
    lr_mult: 2
    decay_mult: 0
  }
  convolution_param {
    num_output: 384
    pad: 1
    kernel_size: 3
    weight_filler {
      type: "gaussian"
      std: 0.01
    }
    bias_filler {
      type: "constant"
      value: 0
    }
  }
}
layer {
  name: "relu3"
  type: "ReLU"
  bottom: "conv3"
  top: "conv3"
}
layer {
  name: "conv4"
  type: "Convolution"
  bottom: "conv3"
  top: "conv4"
  param {
    lr_mult: 1
    decay_mult: 1
  }
  param {
    lr_mult: 2
    decay_mult: 0
  }
  convolution_param {
    num_output: 384
    pad: 1
    kernel_size: 3
    group: 2
    weight_filler {
      type: "gaussian"
      std: 0.01
    }
    bias_filler {
      type: "constant"
      value: 1
    }
  }
}
layer {
  name: "relu4"
  type: "ReLU"
  bottom: "conv4"
  top: "conv4"
}
layer {
  name: "conv5"
  type: "Convolution"
  bottom: "conv4"
  top: "conv5"
  param {
    lr_mult: 1
    decay_mult: 1
  }
  param {
    lr_mult: 2
    decay_mult: 0
  }
  convolution_param {
    num_output: 256
    pad: 1
    kernel_size: 3
    group: 2
    weight_filler {
      type: "gaussian"
      std: 0.01
    }
    bias_filler {
      type: "constant"
      value: 1
    }
  }
}
layer {
  name: "relu5"
  type: "ReLU"
  bottom: "conv5"
  top: "conv5"
}
layer {
  name: "pool5"
  type: "Pooling"
  bottom: "conv5"
  top: "pool5"
  pooling_param {
    pool: MAX
    kernel_size: 3
    stride: 2
  }
}
layer {
  name: "fc6"
  type: "InnerProduct"
  bottom: "pool5"
  top: "fc6"
  param {
    lr_mult: 1
    decay_mult: 1
  }
  param {
    lr_mult: 2
    decay_mult: 0
  }
  inner_product_param {
    num_output: 4096
    weight_filler {
      type: "gaussian"
      std: 0.005
    }
    bias_filler {
      type: "constant"
      value: 1
    }
  }
}
layer {
  name: "relu6"
  type: "ReLU"
  bottom: "fc6"
  top: "fc6"
}
layer {
  name: "drop6"
  type: "Dropout"
  bottom: "fc6"
  top: "fc6"
  dropout_param {
    dropout_ratio: 0.5
  }
}
layer {
  name: "fc7"
  type: "InnerProduct"
  bottom: "fc6"
  top: "fc7"
  param {
    lr_mult: 1
    decay_mult: 1
  }
  param {
    lr_mult: 2
    decay_mult: 0
  }
  inner_product_param {
    num_output: 4096
    weight_filler {
      type: "gaussian"
      std: 0.005
    }
    bias_filler {
      type: "constant"
      value: 1
    }
  }
}
layer {
  name: "relu7"
  type: "ReLU"
  bottom: "fc7"
  top: "fc7"
}
layer {
  name: "drop7"
  type: "Dropout"
  bottom: "fc7"
  top: "fc7"
  dropout_param {
    dropout_ratio: 0.5
  }
}
layer {
  name: "fc8_2"
  type: "InnerProduct"
  bottom: "fc7"
  top: "fc8_2"
  param {
    lr_mult: 5
    decay_mult: 1
  }
  param {
    lr_mult: 10
    decay_mult: 0
  }
  inner_product_param {
    num_output: 2
    weight_filler {
      type: "gaussian"
      std: 0.01
    }
    bias_filler {
      type: "constant"
      value: 0
    }
  }
}
layer {
  name: "loss"
  type: "SoftmaxWithLoss"
  bottom: "fc8_2"
  bottom: "label"
  top: "loss"
}
I1203 09:07:37.612679 44826 layer_factory.hpp:77] Creating layer data
I1203 09:07:37.612876 44826 net.cpp:100] Creating Layer data
I1203 09:07:37.612890 44826 net.cpp:408] data -> data
I1203 09:07:37.612921 44826 net.cpp:408] data -> label
I1203 09:07:37.612942 44826 data_transformer.cpp:25] Loading mean file from: /home/tbochens/Nets/FineTuning/imagenet_mean.binaryproto
I1203 09:07:37.625655 44835 db_lmdb.cpp:35] Opened lmdb train_thumb_2_lmdb.1
I1203 09:07:37.632949 44826 data_layer.cpp:41] output data size: 64,3,227,227
I1203 09:07:37.726302 44826 net.cpp:150] Setting up data
I1203 09:07:37.726346 44826 net.cpp:157] Top shape: 64 3 227 227 (9893568)
I1203 09:07:37.726352 44826 net.cpp:157] Top shape: 64 (64)
I1203 09:07:37.726356 44826 net.cpp:165] Memory required for data: 39574528
I1203 09:07:37.726369 44826 layer_factory.hpp:77] Creating layer conv1
I1203 09:07:37.726402 44826 net.cpp:100] Creating Layer conv1
I1203 09:07:37.726409 44826 net.cpp:434] conv1 <- data
I1203 09:07:37.726428 44826 net.cpp:408] conv1 -> conv1
I1203 09:07:38.079903 44826 net.cpp:150] Setting up conv1
I1203 09:07:38.079943 44826 net.cpp:157] Top shape: 64 96 55 55 (18585600)
I1203 09:07:38.079947 44826 net.cpp:165] Memory required for data: 113916928
I1203 09:07:38.079980 44826 layer_factory.hpp:77] Creating layer relu1
I1203 09:07:38.079998 44826 net.cpp:100] Creating Layer relu1
I1203 09:07:38.080001 44826 net.cpp:434] relu1 <- conv1
I1203 09:07:38.080008 44826 net.cpp:395] relu1 -> conv1 (in-place)
I1203 09:07:38.080363 44826 net.cpp:150] Setting up relu1
I1203 09:07:38.080377 44826 net.cpp:157] Top shape: 64 96 55 55 (18585600)
I1203 09:07:38.080380 44826 net.cpp:165] Memory required for data: 188259328
I1203 09:07:38.080384 44826 layer_factory.hpp:77] Creating layer pool1
I1203 09:07:38.080392 44826 net.cpp:100] Creating Layer pool1
I1203 09:07:38.080395 44826 net.cpp:434] pool1 <- conv1
I1203 09:07:38.080401 44826 net.cpp:408] pool1 -> pool1
I1203 09:07:38.080462 44826 net.cpp:150] Setting up pool1
I1203 09:07:38.080469 44826 net.cpp:157] Top shape: 64 96 27 27 (4478976)
I1203 09:07:38.080471 44826 net.cpp:165] Memory required for data: 206175232
I1203 09:07:38.080476 44826 layer_factory.hpp:77] Creating layer norm1
I1203 09:07:38.080487 44826 net.cpp:100] Creating Layer norm1
I1203 09:07:38.080490 44826 net.cpp:434] norm1 <- pool1
I1203 09:07:38.080518 44826 net.cpp:408] norm1 -> norm1
I1203 09:07:38.080752 44826 net.cpp:150] Setting up norm1
I1203 09:07:38.080766 44826 net.cpp:157] Top shape: 64 96 27 27 (4478976)
I1203 09:07:38.080770 44826 net.cpp:165] Memory required for data: 224091136
I1203 09:07:38.080772 44826 layer_factory.hpp:77] Creating layer conv2
I1203 09:07:38.080787 44826 net.cpp:100] Creating Layer conv2
I1203 09:07:38.080791 44826 net.cpp:434] conv2 <- norm1
I1203 09:07:38.080796 44826 net.cpp:408] conv2 -> conv2
I1203 09:07:38.086962 44826 net.cpp:150] Setting up conv2
I1203 09:07:38.086980 44826 net.cpp:157] Top shape: 64 256 27 27 (11943936)
I1203 09:07:38.086983 44826 net.cpp:165] Memory required for data: 271866880
I1203 09:07:38.086993 44826 layer_factory.hpp:77] Creating layer relu2
I1203 09:07:38.087000 44826 net.cpp:100] Creating Layer relu2
I1203 09:07:38.087003 44826 net.cpp:434] relu2 <- conv2
I1203 09:07:38.087009 44826 net.cpp:395] relu2 -> conv2 (in-place)
I1203 09:07:38.087200 44826 net.cpp:150] Setting up relu2
I1203 09:07:38.087213 44826 net.cpp:157] Top shape: 64 256 27 27 (11943936)
I1203 09:07:38.087215 44826 net.cpp:165] Memory required for data: 319642624
I1203 09:07:38.087218 44826 layer_factory.hpp:77] Creating layer pool2
I1203 09:07:38.087224 44826 net.cpp:100] Creating Layer pool2
I1203 09:07:38.087227 44826 net.cpp:434] pool2 <- conv2
I1203 09:07:38.087231 44826 net.cpp:408] pool2 -> pool2
I1203 09:07:38.087275 44826 net.cpp:150] Setting up pool2
I1203 09:07:38.087291 44826 net.cpp:157] Top shape: 64 256 13 13 (2768896)
I1203 09:07:38.087293 44826 net.cpp:165] Memory required for data: 330718208
I1203 09:07:38.087296 44826 layer_factory.hpp:77] Creating layer norm2
I1203 09:07:38.087302 44826 net.cpp:100] Creating Layer norm2
I1203 09:07:38.087306 44826 net.cpp:434] norm2 <- pool2
I1203 09:07:38.087309 44826 net.cpp:408] norm2 -> norm2
I1203 09:07:38.087656 44826 net.cpp:150] Setting up norm2
I1203 09:07:38.087671 44826 net.cpp:157] Top shape: 64 256 13 13 (2768896)
I1203 09:07:38.087674 44826 net.cpp:165] Memory required for data: 341793792
I1203 09:07:38.087677 44826 layer_factory.hpp:77] Creating layer conv3
I1203 09:07:38.087687 44826 net.cpp:100] Creating Layer conv3
I1203 09:07:38.087689 44826 net.cpp:434] conv3 <- norm2
I1203 09:07:38.087695 44826 net.cpp:408] conv3 -> conv3
I1203 09:07:38.100152 44826 net.cpp:150] Setting up conv3
I1203 09:07:38.100170 44826 net.cpp:157] Top shape: 64 384 13 13 (4153344)
I1203 09:07:38.100173 44826 net.cpp:165] Memory required for data: 358407168
I1203 09:07:38.100183 44826 layer_factory.hpp:77] Creating layer relu3
I1203 09:07:38.100189 44826 net.cpp:100] Creating Layer relu3
I1203 09:07:38.100193 44826 net.cpp:434] relu3 <- conv3
I1203 09:07:38.100198 44826 net.cpp:395] relu3 -> conv3 (in-place)
I1203 09:07:38.100379 44826 net.cpp:150] Setting up relu3
I1203 09:07:38.100391 44826 net.cpp:157] Top shape: 64 384 13 13 (4153344)
I1203 09:07:38.100394 44826 net.cpp:165] Memory required for data: 375020544
I1203 09:07:38.100396 44826 layer_factory.hpp:77] Creating layer conv4
I1203 09:07:38.100405 44826 net.cpp:100] Creating Layer conv4
I1203 09:07:38.100409 44826 net.cpp:434] conv4 <- conv3
I1203 09:07:38.100414 44826 net.cpp:408] conv4 -> conv4
I1203 09:07:38.110755 44826 net.cpp:150] Setting up conv4
I1203 09:07:38.110774 44826 net.cpp:157] Top shape: 64 384 13 13 (4153344)
I1203 09:07:38.110776 44826 net.cpp:165] Memory required for data: 391633920
I1203 09:07:38.110783 44826 layer_factory.hpp:77] Creating layer relu4
I1203 09:07:38.110790 44826 net.cpp:100] Creating Layer relu4
I1203 09:07:38.110792 44826 net.cpp:434] relu4 <- conv4
I1203 09:07:38.110797 44826 net.cpp:395] relu4 -> conv4 (in-place)
I1203 09:07:38.110996 44826 net.cpp:150] Setting up relu4
I1203 09:07:38.111007 44826 net.cpp:157] Top shape: 64 384 13 13 (4153344)
I1203 09:07:38.111011 44826 net.cpp:165] Memory required for data: 408247296
I1203 09:07:38.111013 44826 layer_factory.hpp:77] Creating layer conv5
I1203 09:07:38.111024 44826 net.cpp:100] Creating Layer conv5
I1203 09:07:38.111027 44826 net.cpp:434] conv5 <- conv4
I1203 09:07:38.111047 44826 net.cpp:408] conv5 -> conv5
I1203 09:07:38.118923 44826 net.cpp:150] Setting up conv5
I1203 09:07:38.118940 44826 net.cpp:157] Top shape: 64 256 13 13 (2768896)
I1203 09:07:38.118943 44826 net.cpp:165] Memory required for data: 419322880
I1203 09:07:38.118953 44826 layer_factory.hpp:77] Creating layer relu5
I1203 09:07:38.118962 44826 net.cpp:100] Creating Layer relu5
I1203 09:07:38.118965 44826 net.cpp:434] relu5 <- conv5
I1203 09:07:38.118971 44826 net.cpp:395] relu5 -> conv5 (in-place)
I1203 09:07:38.119325 44826 net.cpp:150] Setting up relu5
I1203 09:07:38.119341 44826 net.cpp:157] Top shape: 64 256 13 13 (2768896)
I1203 09:07:38.119344 44826 net.cpp:165] Memory required for data: 430398464
I1203 09:07:38.119348 44826 layer_factory.hpp:77] Creating layer pool5
I1203 09:07:38.119354 44826 net.cpp:100] Creating Layer pool5
I1203 09:07:38.119357 44826 net.cpp:434] pool5 <- conv5
I1203 09:07:38.119362 44826 net.cpp:408] pool5 -> pool5
I1203 09:07:38.119415 44826 net.cpp:150] Setting up pool5
I1203 09:07:38.119421 44826 net.cpp:157] Top shape: 64 256 6 6 (589824)
I1203 09:07:38.119423 44826 net.cpp:165] Memory required for data: 432757760
I1203 09:07:38.119426 44826 layer_factory.hpp:77] Creating layer fc6
I1203 09:07:38.119439 44826 net.cpp:100] Creating Layer fc6
I1203 09:07:38.119441 44826 net.cpp:434] fc6 <- pool5
I1203 09:07:38.119447 44826 net.cpp:408] fc6 -> fc6
I1203 09:07:38.596565 44826 net.cpp:150] Setting up fc6
I1203 09:07:38.596644 44826 net.cpp:157] Top shape: 64 4096 (262144)
I1203 09:07:38.596647 44826 net.cpp:165] Memory required for data: 433806336
I1203 09:07:38.596688 44826 layer_factory.hpp:77] Creating layer relu6
I1203 09:07:38.596742 44826 net.cpp:100] Creating Layer relu6
I1203 09:07:38.596767 44826 net.cpp:434] relu6 <- fc6
I1203 09:07:38.596776 44826 net.cpp:395] relu6 -> fc6 (in-place)
I1203 09:07:38.597257 44826 net.cpp:150] Setting up relu6
I1203 09:07:38.597267 44826 net.cpp:157] Top shape: 64 4096 (262144)
I1203 09:07:38.597270 44826 net.cpp:165] Memory required for data: 434854912
I1203 09:07:38.597272 44826 layer_factory.hpp:77] Creating layer drop6
I1203 09:07:38.597286 44826 net.cpp:100] Creating Layer drop6
I1203 09:07:38.597288 44826 net.cpp:434] drop6 <- fc6
I1203 09:07:38.597295 44826 net.cpp:395] drop6 -> fc6 (in-place)
I1203 09:07:38.597335 44826 net.cpp:150] Setting up drop6
I1203 09:07:38.597339 44826 net.cpp:157] Top shape: 64 4096 (262144)
I1203 09:07:38.597342 44826 net.cpp:165] Memory required for data: 435903488
I1203 09:07:38.597343 44826 layer_factory.hpp:77] Creating layer fc7
I1203 09:07:38.597353 44826 net.cpp:100] Creating Layer fc7
I1203 09:07:38.597355 44826 net.cpp:434] fc7 <- fc6
I1203 09:07:38.597362 44826 net.cpp:408] fc7 -> fc7
I1203 09:07:38.769574 44826 net.cpp:150] Setting up fc7
I1203 09:07:38.769610 44826 net.cpp:157] Top shape: 64 4096 (262144)
I1203 09:07:38.769613 44826 net.cpp:165] Memory required for data: 436952064
I1203 09:07:38.769625 44826 layer_factory.hpp:77] Creating layer relu7
I1203 09:07:38.769639 44826 net.cpp:100] Creating Layer relu7
I1203 09:07:38.769641 44826 net.cpp:434] relu7 <- fc7
I1203 09:07:38.769649 44826 net.cpp:395] relu7 -> fc7 (in-place)
I1203 09:07:38.770190 44826 net.cpp:150] Setting up relu7
I1203 09:07:38.770200 44826 net.cpp:157] Top shape: 64 4096 (262144)
I1203 09:07:38.770202 44826 net.cpp:165] Memory required for data: 438000640
I1203 09:07:38.770205 44826 layer_factory.hpp:77] Creating layer drop7
I1203 09:07:38.770215 44826 net.cpp:100] Creating Layer drop7
I1203 09:07:38.770217 44826 net.cpp:434] drop7 <- fc7
I1203 09:07:38.770222 44826 net.cpp:395] drop7 -> fc7 (in-place)
I1203 09:07:38.770267 44826 net.cpp:150] Setting up drop7
I1203 09:07:38.770272 44826 net.cpp:157] Top shape: 64 4096 (262144)
I1203 09:07:38.770284 44826 net.cpp:165] Memory required for data: 439049216
I1203 09:07:38.770287 44826 layer_factory.hpp:77] Creating layer fc8_2
I1203 09:07:38.770297 44826 net.cpp:100] Creating Layer fc8_2
I1203 09:07:38.770299 44826 net.cpp:434] fc8_2 <- fc7
I1203 09:07:38.770325 44826 net.cpp:408] fc8_2 -> fc8_2
I1203 09:07:38.771097 44826 net.cpp:150] Setting up fc8_2
I1203 09:07:38.771107 44826 net.cpp:157] Top shape: 64 2 (128)
I1203 09:07:38.771109 44826 net.cpp:165] Memory required for data: 439049728
I1203 09:07:38.771114 44826 layer_factory.hpp:77] Creating layer loss
I1203 09:07:38.771119 44826 net.cpp:100] Creating Layer loss
I1203 09:07:38.771121 44826 net.cpp:434] loss <- fc8_2
I1203 09:07:38.771124 44826 net.cpp:434] loss <- label
I1203 09:07:38.771131 44826 net.cpp:408] loss -> loss
I1203 09:07:38.771145 44826 layer_factory.hpp:77] Creating layer loss
…
I1203 09:07:38.772183 44826 net.cpp:322] The NetState phase (1) differed from the phase (0) specified by a rule in layer data
I1203 09:07:38.772333 44826 net.cpp:58] Initializing net from parameters: 
name: "VideoPopularityCaffeNet"
state {
  phase: TEST
}
layer {
  name: "data"
  type: "Data"
  top: "data"
  top: "label"
  include {
    phase: TEST
  }
  transform_param {
    mirror: false
    crop_size: 227
    mean_file: "/home/tbochens/Nets/FineTuning/imagenet_mean.binaryproto"
  }
  data_param {
    source: "val_thumb_2_lmdb.1"
    batch_size: 64
    backend: LMDB
  }
}
layer {
  name: "conv1"
  type: "Convolution"
  bottom: "data"
  top: "conv1"
  param {
    lr_mult: 1
    decay_mult: 1
  }
  param {
    lr_mult: 2
    decay_mult: 0
  }
  convolution_param {
    num_output: 96
    kernel_size: 11
    stride: 4
    weight_filler {
      type: "gaussian"
      std: 0.01
    }
    bias_filler {
      type: "constant"
      value: 0
    }
  }
}
layer {
  name: "relu1"
  type: "ReLU"
  bottom: "conv1"
  top: "conv1"
}
layer {
  name: "pool1"
  type: "Pooling"
  bottom: "conv1"
  top: "pool1"
  pooling_param {
    pool: MAX
    kernel_size: 3
    stride: 2
  }
}
layer {
  name: "norm1"
  type: "LRN"
  bottom: "pool1"
  top: "norm1"
  lrn_param {
    local_size: 5
    alpha: 0.0001
    beta: 0.75
  }
}
layer {
  name: "conv2"
  type: "Convolution"
  bottom: "norm1"
  top: "conv2"
  param {
    lr_mult: 1
    decay_mult: 1
  }
  param {
    lr_mult: 2
    decay_mult: 0
  }
  convolution_param {
    num_output: 256
    pad: 2
    kernel_size: 5
    group: 2
    weight_filler {
      type: "gaussian"
      std: 0.01
    }
    bias_filler {
      type: "constant"
      value: 1
    }
  }
}
layer {
  name: "relu2"
  type: "ReLU"
  bottom: "conv2"
  top: "conv2"
}
layer {
  name: "pool2"
  type: "Pooling"
  bottom: "conv2"
  top: "pool2"
  pooling_param {
    pool: MAX
    kernel_size: 3
    stride: 2
  }
}
layer {
  name: "norm2"
  type: "LRN"
  bottom: "pool2"
  top: "norm2"
  lrn_param {
    local_size: 5
    alpha: 0.0001
    beta: 0.75
  }
}
layer {
  name: "conv3"
  type: "Convolution"
  bottom: "norm2"
  top: "conv3"
  param {
    lr_mult: 1
    decay_mult: 1
  }
  param {
    lr_mult: 2
    decay_mult: 0
  }
  convolution_param {
    num_output: 384
    pad: 1
    kernel_size: 3
    weight_filler {
      type: "gaussian"
      std: 0.01
    }
    bias_filler {
      type: "constant"
      value: 0
    }
  }
}
layer {
  name: "relu3"
  type: "ReLU"
  bottom: "conv3"
  top: "conv3"
}
layer {
  name: "conv4"
  type: "Convolution"
  bottom: "conv3"
  top: "conv4"
  param {
    lr_mult: 1
    decay_mult: 1
  }
  param {
    lr_mult: 2
    decay_mult: 0
  }
  convolution_param {
    num_output: 384
    pad: 1
    kernel_size: 3
    group: 2
    weight_filler {
      type: "gaussian"
      std: 0.01
    }
    bias_filler {
      type: "constant"
      value: 1
    }
  }
}
layer {
  name: "relu4"
  type: "ReLU"
  bottom: "conv4"
  top: "conv4"
}
layer {
  name: "conv5"
  type: "Convolution"
  bottom: "conv4"
  top: "conv5"
  param {
    lr_mult: 1
    decay_mult: 1
  }
  param {
    lr_mult: 2
    decay_mult: 0
  }
  convolution_param {
    num_output: 256
    pad: 1
    kernel_size: 3
    group: 2
    weight_filler {
      type: "gaussian"
      std: 0.01
    }
    bias_filler {
      type: "constant"
      value: 1
    }
  }
}
layer {
  name: "relu5"
  type: "ReLU"
  bottom: "conv5"
  top: "conv5"
}
layer {
  name: "pool5"
  type: "Pooling"
  bottom: "conv5"
  top: "pool5"
  pooling_param {
    pool: MAX
    kernel_size: 3
    stride: 2
  }
}
layer {
  name: "fc6"
  type: "InnerProduct"
  bottom: "pool5"
  top: "fc6"
  param {
    lr_mult: 1
    decay_mult: 1
  }
  param {
    lr_mult: 2
    decay_mult: 0
  }
  inner_product_param {
    num_output: 4096
    weight_filler {
      type: "gaussian"
      std: 0.005
    }
    bias_filler {
      type: "constant"
      value: 1
    }
  }
}
layer {
  name: "relu6"
  type: "ReLU"
  bottom: "fc6"
  top: "fc6"
}
layer {
  name: "drop6"
  type: "Dropout"
  bottom: "fc6"
  top: "fc6"
  dropout_param {
    dropout_ratio: 0.5
  }
}
layer {
  name: "fc7"
  type: "InnerProduct"
  bottom: "fc6"
  top: "fc7"
  param {
    lr_mult: 1
    decay_mult: 1
  }
  param {
    lr_mult: 2
    decay_mult: 0
  }
  inner_product_param {
    num_output: 4096
    weight_filler {
      type: "gaussian"
      std: 0.005
    }
    bias_filler {
      type: "constant"
      value: 1
    }
  }
}
layer {
  name: "relu7"
  type: "ReLU"
  bottom: "fc7"
  top: "fc7"
}
layer {
  name: "drop7"
  type: "Dropout"
  bottom: "fc7"
  top: "fc7"
  dropout_param {
    dropout_ratio: 0.5
  }
}
layer {
  name: "fc8_2"
  type: "InnerProduct"
  bottom: "fc7"
  top: "fc8_2"
  param {
    lr_mult: 5
    decay_mult: 1
  }
  param {
    lr_mult: 10
    decay_mult: 0
  }
  inner_product_param {
    num_output: 2
    weight_filler {
      type: "gaussian"
      std: 0.01
    }
    bias_filler {
      type: "constant"
      value: 0
    }
  }
}
layer {
  name: "accuracy"
  type: "Accuracy"
  bottom: "fc8_2"
  bottom: "label"
  top: "accuracy"
  include {
    phase: TEST
  }
}
layer {
  name: "loss"
  type: "SoftmaxWithLoss"
  bottom: "fc8_2"
  bottom: "label"
  top: "loss"
}
I1203 09:07:38.772442 44826 layer_factory.hpp:77] Creating layer data
I1203 09:07:38.772545 44826 net.cpp:100] Creating Layer data
I1203 09:07:38.772552 44826 net.cpp:408] data -> data
I1203 09:07:38.772560 44826 net.cpp:408] data -> label
I1203 09:07:38.772568 44826 data_transformer.cpp:25] Loading mean file from: /home/tbochens/Nets/FineTuning/imagenet_mean.binaryproto
I1203 09:07:38.774854 44837 db_lmdb.cpp:35] Opened lmdb val_thumb_2_lmdb.1
I1203 09:07:38.775511 44826 data_layer.cpp:41] output data size: 64,3,227,227
I1203 09:07:38.869304 44826 net.cpp:150] Setting up data
I1203 09:07:38.869431 44826 net.cpp:157] Top shape: 64 3 227 227 (9893568)
I1203 09:07:38.869436 44826 net.cpp:157] Top shape: 64 (64)
I1203 09:07:38.869437 44826 net.cpp:165] Memory required for data: 39574528
I1203 09:07:38.869444 44826 layer_factory.hpp:77] Creating layer label_data_1_split
I1203 09:07:38.869477 44826 net.cpp:100] Creating Layer label_data_1_split
I1203 09:07:38.869482 44826 net.cpp:434] label_data_1_split <- label
I1203 09:07:38.869489 44826 net.cpp:408] label_data_1_split -> label_data_1_split_0
I1203 09:07:38.869498 44826 net.cpp:408] label_data_1_split -> label_data_1_split_1
I1203 09:07:38.869634 44826 net.cpp:150] Setting up label_data_1_split
I1203 09:07:38.869642 44826 net.cpp:157] Top shape: 64 (64)
I1203 09:07:38.869644 44826 net.cpp:157] Top shape: 64 (64)
I1203 09:07:38.869647 44826 net.cpp:165] Memory required for data: 39575040
I1203 09:07:38.869650 44826 layer_factory.hpp:77] Creating layer conv1
I1203 09:07:38.869664 44826 net.cpp:100] Creating Layer conv1
I1203 09:07:38.869666 44826 net.cpp:434] conv1 <- data
I1203 09:07:38.869673 44826 net.cpp:408] conv1 -> conv1
I1203 09:07:38.871423 44826 net.cpp:150] Setting up conv1
I1203 09:07:38.871438 44826 net.cpp:157] Top shape: 64 96 55 55 (18585600)
I1203 09:07:38.871450 44826 net.cpp:165] Memory required for data: 113917440
I1203 09:07:38.871461 44826 layer_factory.hpp:77] Creating layer relu1
I1203 09:07:38.871469 44826 net.cpp:100] Creating Layer relu1
I1203 09:07:38.871471 44826 net.cpp:434] relu1 <- conv1
I1203 09:07:38.871476 44826 net.cpp:395] relu1 -> conv1 (in-place)
I1203 09:07:38.877905 44826 net.cpp:150] Setting up relu1
I1203 09:07:38.877919 44826 net.cpp:157] Top shape: 64 96 55 55 (18585600)
I1203 09:07:38.877921 44826 net.cpp:165] Memory required for data: 188259840
I1203 09:07:38.877924 44826 layer_factory.hpp:77] Creating layer pool1
I1203 09:07:38.877934 44826 net.cpp:100] Creating Layer pool1
I1203 09:07:38.877936 44826 net.cpp:434] pool1 <- conv1
I1203 09:07:38.877952 44826 net.cpp:408] pool1 -> pool1
I1203 09:07:38.878000 44826 net.cpp:150] Setting up pool1
I1203 09:07:38.878005 44826 net.cpp:157] Top shape: 64 96 27 27 (4478976)
I1203 09:07:38.878007 44826 net.cpp:165] Memory required for data: 206175744
I1203 09:07:38.878010 44826 layer_factory.hpp:77] Creating layer norm1
I1203 09:07:38.878016 44826 net.cpp:100] Creating Layer norm1
I1203 09:07:38.878018 44826 net.cpp:434] norm1 <- pool1
I1203 09:07:38.878022 44826 net.cpp:408] norm1 -> norm1
I1203 09:07:38.878196 44826 net.cpp:150] Setting up norm1
I1203 09:07:38.878204 44826 net.cpp:157] Top shape: 64 96 27 27 (4478976)
I1203 09:07:38.878206 44826 net.cpp:165] Memory required for data: 224091648
I1203 09:07:38.878209 44826 layer_factory.hpp:77] Creating layer conv2
I1203 09:07:38.878218 44826 net.cpp:100] Creating Layer conv2
I1203 09:07:38.878221 44826 net.cpp:434] conv2 <- norm1
I1203 09:07:38.878245 44826 net.cpp:408] conv2 -> conv2
I1203 09:07:38.882920 44826 net.cpp:150] Setting up conv2
I1203 09:07:38.882933 44826 net.cpp:157] Top shape: 64 256 27 27 (11943936)
I1203 09:07:38.882936 44826 net.cpp:165] Memory required for data: 271867392
I1203 09:07:38.882942 44826 layer_factory.hpp:77] Creating layer relu2
I1203 09:07:38.882948 44826 net.cpp:100] Creating Layer relu2
I1203 09:07:38.882951 44826 net.cpp:434] relu2 <- conv2
I1203 09:07:38.882956 44826 net.cpp:395] relu2 -> conv2 (in-place)
I1203 09:07:38.883128 44826 net.cpp:150] Setting up relu2
I1203 09:07:38.883137 44826 net.cpp:157] Top shape: 64 256 27 27 (11943936)
I1203 09:07:38.883155 44826 net.cpp:165] Memory required for data: 319643136
I1203 09:07:38.883158 44826 layer_factory.hpp:77] Creating layer pool2
I1203 09:07:38.883165 44826 net.cpp:100] Creating Layer pool2
I1203 09:07:38.883167 44826 net.cpp:434] pool2 <- conv2
I1203 09:07:38.883172 44826 net.cpp:408] pool2 -> pool2
I1203 09:07:38.883216 44826 net.cpp:150] Setting up pool2
I1203 09:07:38.883221 44826 net.cpp:157] Top shape: 64 256 13 13 (2768896)
I1203 09:07:38.883224 44826 net.cpp:165] Memory required for data: 330718720
I1203 09:07:38.883225 44826 layer_factory.hpp:77] Creating layer norm2
I1203 09:07:38.883230 44826 net.cpp:100] Creating Layer norm2
I1203 09:07:38.883234 44826 net.cpp:434] norm2 <- pool2
I1203 09:07:38.883239 44826 net.cpp:408] norm2 -> norm2
I1203 09:07:38.883546 44826 net.cpp:150] Setting up norm2
I1203 09:07:38.883558 44826 net.cpp:157] Top shape: 64 256 13 13 (2768896)
I1203 09:07:38.883561 44826 net.cpp:165] Memory required for data: 341794304
I1203 09:07:38.883563 44826 layer_factory.hpp:77] Creating layer conv3
I1203 09:07:38.883571 44826 net.cpp:100] Creating Layer conv3
I1203 09:07:38.883585 44826 net.cpp:434] conv3 <- norm2
I1203 09:07:38.883591 44826 net.cpp:408] conv3 -> conv3
I1203 09:07:38.893147 44826 net.cpp:150] Setting up conv3
I1203 09:07:38.893172 44826 net.cpp:157] Top shape: 64 384 13 13 (4153344)
I1203 09:07:38.893175 44826 net.cpp:165] Memory required for data: 358407680
I1203 09:07:38.893183 44826 layer_factory.hpp:77] Creating layer relu3
I1203 09:07:38.893189 44826 net.cpp:100] Creating Layer relu3
I1203 09:07:38.893193 44826 net.cpp:434] relu3 <- conv3
I1203 09:07:38.893198 44826 net.cpp:395] relu3 -> conv3 (in-place)
I1203 09:07:38.893373 44826 net.cpp:150] Setting up relu3
I1203 09:07:38.893383 44826 net.cpp:157] Top shape: 64 384 13 13 (4153344)
I1203 09:07:38.893385 44826 net.cpp:165] Memory required for data: 375021056
I1203 09:07:38.893388 44826 layer_factory.hpp:77] Creating layer conv4
I1203 09:07:38.893398 44826 net.cpp:100] Creating Layer conv4
I1203 09:07:38.893400 44826 net.cpp:434] conv4 <- conv3
I1203 09:07:38.893405 44826 net.cpp:408] conv4 -> conv4
I1203 09:07:38.901571 44826 net.cpp:150] Setting up conv4
I1203 09:07:38.901584 44826 net.cpp:157] Top shape: 64 384 13 13 (4153344)
I1203 09:07:38.901587 44826 net.cpp:165] Memory required for data: 391634432
I1203 09:07:38.901592 44826 layer_factory.hpp:77] Creating layer relu4
I1203 09:07:38.901597 44826 net.cpp:100] Creating Layer relu4
I1203 09:07:38.901599 44826 net.cpp:434] relu4 <- conv4
I1203 09:07:38.901603 44826 net.cpp:395] relu4 -> conv4 (in-place)
I1203 09:07:38.901775 44826 net.cpp:150] Setting up relu4
I1203 09:07:38.901784 44826 net.cpp:157] Top shape: 64 384 13 13 (4153344)
I1203 09:07:38.901787 44826 net.cpp:165] Memory required for data: 408247808
I1203 09:07:38.901788 44826 layer_factory.hpp:77] Creating layer conv5
I1203 09:07:38.901796 44826 net.cpp:100] Creating Layer conv5
I1203 09:07:38.901799 44826 net.cpp:434] conv5 <- conv4
I1203 09:07:38.901804 44826 net.cpp:408] conv5 -> conv5
I1203 09:07:38.907784 44826 net.cpp:150] Setting up conv5
I1203 09:07:38.907798 44826 net.cpp:157] Top shape: 64 256 13 13 (2768896)
I1203 09:07:38.907800 44826 net.cpp:165] Memory required for data: 419323392
I1203 09:07:38.907809 44826 layer_factory.hpp:77] Creating layer relu5
I1203 09:07:38.907814 44826 net.cpp:100] Creating Layer relu5
I1203 09:07:38.907816 44826 net.cpp:434] relu5 <- conv5
I1203 09:07:38.907821 44826 net.cpp:395] relu5 -> conv5 (in-place)
I1203 09:07:38.907999 44826 net.cpp:150] Setting up relu5
I1203 09:07:38.908010 44826 net.cpp:157] Top shape: 64 256 13 13 (2768896)
I1203 09:07:38.908011 44826 net.cpp:165] Memory required for data: 430398976
I1203 09:07:38.908013 44826 layer_factory.hpp:77] Creating layer pool5
I1203 09:07:38.908022 44826 net.cpp:100] Creating Layer pool5
I1203 09:07:38.908025 44826 net.cpp:434] pool5 <- conv5
I1203 09:07:38.908028 44826 net.cpp:408] pool5 -> pool5
I1203 09:07:38.908071 44826 net.cpp:150] Setting up pool5
I1203 09:07:38.908098 44826 net.cpp:157] Top shape: 64 256 6 6 (589824)
I1203 09:07:38.908102 44826 net.cpp:165] Memory required for data: 432758272
I1203 09:07:38.908103 44826 layer_factory.hpp:77] Creating layer fc6
I1203 09:07:38.908110 44826 net.cpp:100] Creating Layer fc6
I1203 09:07:38.908113 44826 net.cpp:434] fc6 <- pool5
I1203 09:07:38.908118 44826 net.cpp:408] fc6 -> fc6
I1203 09:07:39.302387 44826 net.cpp:150] Setting up fc6
I1203 09:07:39.302433 44826 net.cpp:157] Top shape: 64 4096 (262144)
I1203 09:07:39.302435 44826 net.cpp:165] Memory required for data: 433806848
I1203 09:07:39.302448 44826 layer_factory.hpp:77] Creating layer relu6
I1203 09:07:39.302459 44826 net.cpp:100] Creating Layer relu6
I1203 09:07:39.302464 44826 net.cpp:434] relu6 <- fc6
I1203 09:07:39.302471 44826 net.cpp:395] relu6 -> fc6 (in-place)
I1203 09:07:39.303027 44826 net.cpp:150] Setting up relu6
I1203 09:07:39.303040 44826 net.cpp:157] Top shape: 64 4096 (262144)
I1203 09:07:39.303041 44826 net.cpp:165] Memory required for data: 434855424
I1203 09:07:39.303043 44826 layer_factory.hpp:77] Creating layer drop6
I1203 09:07:39.303051 44826 net.cpp:100] Creating Layer drop6
I1203 09:07:39.303055 44826 net.cpp:434] drop6 <- fc6
I1203 09:07:39.303059 44826 net.cpp:395] drop6 -> fc6 (in-place)
I1203 09:07:39.303088 44826 net.cpp:150] Setting up drop6
I1203 09:07:39.303104 44826 net.cpp:157] Top shape: 64 4096 (262144)
I1203 09:07:39.303105 44826 net.cpp:165] Memory required for data: 435904000
I1203 09:07:39.303108 44826 layer_factory.hpp:77] Creating layer fc7
I1203 09:07:39.303117 44826 net.cpp:100] Creating Layer fc7
I1203 09:07:39.303118 44826 net.cpp:434] fc7 <- fc6
I1203 09:07:39.303122 44826 net.cpp:408] fc7 -> fc7
I1203 09:07:39.480214 44826 net.cpp:150] Setting up fc7
I1203 09:07:39.480252 44826 net.cpp:157] Top shape: 64 4096 (262144)
I1203 09:07:39.480255 44826 net.cpp:165] Memory required for data: 436952576
I1203 09:07:39.480274 44826 layer_factory.hpp:77] Creating layer relu7
I1203 09:07:39.480290 44826 net.cpp:100] Creating Layer relu7
I1203 09:07:39.480299 44826 net.cpp:434] relu7 <- fc7
I1203 09:07:39.480310 44826 net.cpp:395] relu7 -> fc7 (in-place)
I1203 09:07:39.480729 44826 net.cpp:150] Setting up relu7
I1203 09:07:39.480738 44826 net.cpp:157] Top shape: 64 4096 (262144)
I1203 09:07:39.480741 44826 net.cpp:165] Memory required for data: 438001152
I1203 09:07:39.480743 44826 layer_factory.hpp:77] Creating layer drop7
I1203 09:07:39.480751 44826 net.cpp:100] Creating Layer drop7
I1203 09:07:39.480753 44826 net.cpp:434] drop7 <- fc7
I1203 09:07:39.480758 44826 net.cpp:395] drop7 -> fc7 (in-place)
I1203 09:07:39.480787 44826 net.cpp:150] Setting up drop7
I1203 09:07:39.480801 44826 net.cpp:157] Top shape: 64 4096 (262144)
I1203 09:07:39.480803 44826 net.cpp:165] Memory required for data: 439049728
I1203 09:07:39.480805 44826 layer_factory.hpp:77] Creating layer fc8_2
I1203 09:07:39.480813 44826 net.cpp:100] Creating Layer fc8_2
I1203 09:07:39.480815 44826 net.cpp:434] fc8_2 <- fc7
I1203 09:07:39.480821 44826 net.cpp:408] fc8_2 -> fc8_2
I1203 09:07:39.481024 44826 net.cpp:150] Setting up fc8_2
I1203 09:07:39.481034 44826 net.cpp:157] Top shape: 64 2 (128)
I1203 09:07:39.481035 44826 net.cpp:165] Memory required for data: 439050240
I1203 09:07:39.481040 44826 layer_factory.hpp:77] Creating layer fc8_2_fc8_2_0_split
I1203 09:07:39.481047 44826 net.cpp:100] Creating Layer fc8_2_fc8_2_0_split
I1203 09:07:39.481050 44826 net.cpp:434] fc8_2_fc8_2_0_split <- fc8_2
I1203 09:07:39.481056 44826 net.cpp:408] fc8_2_fc8_2_0_split -> fc8_2_fc8_2_0_split_0
I1203 09:07:39.481061 44826 net.cpp:408] fc8_2_fc8_2_0_split -> fc8_2_fc8_2_0_split_1
I1203 09:07:39.481099 44826 net.cpp:150] Setting up fc8_2_fc8_2_0_split
I1203 09:07:39.481109 44826 net.cpp:157] Top shape: 64 2 (128)
I1203 09:07:39.481112 44826 net.cpp:157] Top shape: 64 2 (128)
I1203 09:07:39.481114 44826 net.cpp:165] Memory required for data: 439051264
I1203 09:07:39.481117 44826 layer_factory.hpp:77] Creating layer accuracy
I1203 09:07:39.481138 44826 net.cpp:100] Creating Layer accuracy
I1203 09:07:39.481161 44826 net.cpp:434] accuracy <- fc8_2_fc8_2_0_split_0
I1203 09:07:39.481166 44826 net.cpp:434] accuracy <- label_data_1_split_0
I1203 09:07:39.481178 44826 net.cpp:408] accuracy -> accuracy
…
