…
I1203 10:18:28.041935  9023 net.cpp:322] The NetState phase (0) differed from the phase (1) specified by a rule in layer accuracy
I1203 10:18:28.042119  9023 net.cpp:58] Initializing net from parameters: 
name: "VideoPopularityCaffeNet"
state {
  phase: TRAIN
  level: 0
  stage: ""
}
layer {
  name: "data"
  type: "Data"
  top: "data"
  top: "label"
  include {
    phase: TRAIN
  }
  transform_param {
    mirror: true
    crop_size: 227
    mean_file: "/home/tbochens/Nets/FineTuning/imagenet_mean.binaryproto"
  }
  data_param {
    source: "train_thumb_2_lmdb.3"
    batch_size: 64
    backend: LMDB
  }
}
layer {
  name: "conv1"
  type: "Convolution"
  bottom: "data"
  top: "conv1"
  param {
    lr_mult: 1
    decay_mult: 1
  }
  param {
    lr_mult: 2
    decay_mult: 0
  }
  convolution_param {
    num_output: 96
    kernel_size: 11
    stride: 4
    weight_filler {
      type: "gaussian"
      std: 0.01
    }
    bias_filler {
      type: "constant"
      value: 0
    }
  }
}
layer {
  name: "relu1"
  type: "ReLU"
  bottom: "conv1"
  top: "conv1"
}
layer {
  name: "pool1"
  type: "Pooling"
  bottom: "conv1"
  top: "pool1"
  pooling_param {
    pool: MAX
    kernel_size: 3
    stride: 2
  }
}
layer {
  name: "norm1"
  type: "LRN"
  bottom: "pool1"
  top: "norm1"
  lrn_param {
    local_size: 5
    alpha: 0.0001
    beta: 0.75
  }
}
layer {
  name: "conv2"
  type: "Convolution"
  bottom: "norm1"
  top: "conv2"
  param {
    lr_mult: 1
    decay_mult: 1
  }
  param {
    lr_mult: 2
    decay_mult: 0
  }
  convolution_param {
    num_output: 256
    pad: 2
    kernel_size: 5
    group: 2
    weight_filler {
      type: "gaussian"
      std: 0.01
    }
    bias_filler {
      type: "constant"
      value: 1
    }
  }
}
layer {
  name: "relu2"
  type: "ReLU"
  bottom: "conv2"
  top: "conv2"
}
layer {
  name: "pool2"
  type: "Pooling"
  bottom: "conv2"
  top: "pool2"
  pooling_param {
    pool: MAX
    kernel_size: 3
    stride: 2
  }
}
layer {
  name: "norm2"
  type: "LRN"
  bottom: "pool2"
  top: "norm2"
  lrn_param {
    local_size: 5
    alpha: 0.0001
    beta: 0.75
  }
}
layer {
  name: "conv3"
  type: "Convolution"
  bottom: "norm2"
  top: "conv3"
  param {
    lr_mult: 1
    decay_mult: 1
  }
  param {
    lr_mult: 2
    decay_mult: 0
  }
  convolution_param {
    num_output: 384
    pad: 1
    kernel_size: 3
    weight_filler {
      type: "gaussian"
      std: 0.01
    }
    bias_filler {
      type: "constant"
      value: 0
    }
  }
}
layer {
  name: "relu3"
  type: "ReLU"
  bottom: "conv3"
  top: "conv3"
}
layer {
  name: "conv4"
  type: "Convolution"
  bottom: "conv3"
  top: "conv4"
  param {
    lr_mult: 1
    decay_mult: 1
  }
  param {
    lr_mult: 2
    decay_mult: 0
  }
  convolution_param {
    num_output: 384
    pad: 1
    kernel_size: 3
    group: 2
    weight_filler {
      type: "gaussian"
      std: 0.01
    }
    bias_filler {
      type: "constant"
      value: 1
    }
  }
}
layer {
  name: "relu4"
  type: "ReLU"
  bottom: "conv4"
  top: "conv4"
}
layer {
  name: "conv5"
  type: "Convolution"
  bottom: "conv4"
  top: "conv5"
  param {
    lr_mult: 1
    decay_mult: 1
  }
  param {
    lr_mult: 2
    decay_mult: 0
  }
  convolution_param {
    num_output: 256
    pad: 1
    kernel_size: 3
    group: 2
    weight_filler {
      type: "gaussian"
      std: 0.01
    }
    bias_filler {
      type: "constant"
      value: 1
    }
  }
}
layer {
  name: "relu5"
  type: "ReLU"
  bottom: "conv5"
  top: "conv5"
}
layer {
  name: "pool5"
  type: "Pooling"
  bottom: "conv5"
  top: "pool5"
  pooling_param {
    pool: MAX
    kernel_size: 3
    stride: 2
  }
}
layer {
  name: "fc6"
  type: "InnerProduct"
  bottom: "pool5"
  top: "fc6"
  param {
    lr_mult: 1
    decay_mult: 1
  }
  param {
    lr_mult: 2
    decay_mult: 0
  }
  inner_product_param {
    num_output: 4096
    weight_filler {
      type: "gaussian"
      std: 0.005
    }
    bias_filler {
      type: "constant"
      value: 1
    }
  }
}
layer {
  name: "relu6"
  type: "ReLU"
  bottom: "fc6"
  top: "fc6"
}
layer {
  name: "drop6"
  type: "Dropout"
  bottom: "fc6"
  top: "fc6"
  dropout_param {
    dropout_ratio: 0.5
  }
}
layer {
  name: "fc7"
  type: "InnerProduct"
  bottom: "fc6"
  top: "fc7"
  param {
    lr_mult: 1
    decay_mult: 1
  }
  param {
    lr_mult: 2
    decay_mult: 0
  }
  inner_product_param {
    num_output: 4096
    weight_filler {
      type: "gaussian"
      std: 0.005
    }
    bias_filler {
      type: "constant"
      value: 1
    }
  }
}
layer {
  name: "relu7"
  type: "ReLU"
  bottom: "fc7"
  top: "fc7"
}
layer {
  name: "drop7"
  type: "Dropout"
  bottom: "fc7"
  top: "fc7"
  dropout_param {
    dropout_ratio: 0.5
  }
}
layer {
  name: "fc8_2"
  type: "InnerProduct"
  bottom: "fc7"
  top: "fc8_2"
  param {
    lr_mult: 5
    decay_mult: 1
  }
  param {
    lr_mult: 10
    decay_mult: 0
  }
  inner_product_param {
    num_output: 2
    weight_filler {
      type: "gaussian"
      std: 0.01
    }
    bias_filler {
      type: "constant"
      value: 0
    }
  }
}
layer {
  name: "loss"
  type: "SoftmaxWithLoss"
  bottom: "fc8_2"
  bottom: "label"
  top: "loss"
}
I1203 10:18:28.042287  9023 layer_factory.hpp:77] Creating layer data
I1203 10:18:28.042465  9023 net.cpp:100] Creating Layer data
I1203 10:18:28.042477  9023 net.cpp:408] data -> data
I1203 10:18:28.042515  9023 net.cpp:408] data -> label
I1203 10:18:28.042531  9023 data_transformer.cpp:25] Loading mean file from: /home/tbochens/Nets/FineTuning/imagenet_mean.binaryproto
I1203 10:18:28.054666  9028 db_lmdb.cpp:35] Opened lmdb train_thumb_2_lmdb.3
I1203 10:18:28.079007  9023 data_layer.cpp:41] output data size: 64,3,227,227
I1203 10:18:28.197751  9023 net.cpp:150] Setting up data
I1203 10:18:28.197796  9023 net.cpp:157] Top shape: 64 3 227 227 (9893568)
I1203 10:18:28.197803  9023 net.cpp:157] Top shape: 64 (64)
I1203 10:18:28.197805  9023 net.cpp:165] Memory required for data: 39574528
I1203 10:18:28.197823  9023 layer_factory.hpp:77] Creating layer conv1
I1203 10:18:28.197854  9023 net.cpp:100] Creating Layer conv1
I1203 10:18:28.197861  9023 net.cpp:434] conv1 <- data
I1203 10:18:28.197880  9023 net.cpp:408] conv1 -> conv1
I1203 10:18:28.448199  9023 net.cpp:150] Setting up conv1
I1203 10:18:28.448240  9023 net.cpp:157] Top shape: 64 96 55 55 (18585600)
I1203 10:18:28.448243  9023 net.cpp:165] Memory required for data: 113916928
I1203 10:18:28.448276  9023 layer_factory.hpp:77] Creating layer relu1
I1203 10:18:28.448290  9023 net.cpp:100] Creating Layer relu1
I1203 10:18:28.448295  9023 net.cpp:434] relu1 <- conv1
I1203 10:18:28.448303  9023 net.cpp:395] relu1 -> conv1 (in-place)
I1203 10:18:28.448676  9023 net.cpp:150] Setting up relu1
I1203 10:18:28.448693  9023 net.cpp:157] Top shape: 64 96 55 55 (18585600)
I1203 10:18:28.448695  9023 net.cpp:165] Memory required for data: 188259328
I1203 10:18:28.448698  9023 layer_factory.hpp:77] Creating layer pool1
I1203 10:18:28.448707  9023 net.cpp:100] Creating Layer pool1
I1203 10:18:28.448710  9023 net.cpp:434] pool1 <- conv1
I1203 10:18:28.448717  9023 net.cpp:408] pool1 -> pool1
I1203 10:18:28.448778  9023 net.cpp:150] Setting up pool1
I1203 10:18:28.448786  9023 net.cpp:157] Top shape: 64 96 27 27 (4478976)
I1203 10:18:28.448788  9023 net.cpp:165] Memory required for data: 206175232
I1203 10:18:28.448792  9023 layer_factory.hpp:77] Creating layer norm1
I1203 10:18:28.448803  9023 net.cpp:100] Creating Layer norm1
I1203 10:18:28.448807  9023 net.cpp:434] norm1 <- pool1
I1203 10:18:28.448840  9023 net.cpp:408] norm1 -> norm1
I1203 10:18:28.449062  9023 net.cpp:150] Setting up norm1
I1203 10:18:28.449075  9023 net.cpp:157] Top shape: 64 96 27 27 (4478976)
I1203 10:18:28.449079  9023 net.cpp:165] Memory required for data: 224091136
I1203 10:18:28.449081  9023 layer_factory.hpp:77] Creating layer conv2
I1203 10:18:28.449096  9023 net.cpp:100] Creating Layer conv2
I1203 10:18:28.449100  9023 net.cpp:434] conv2 <- norm1
I1203 10:18:28.449106  9023 net.cpp:408] conv2 -> conv2
I1203 10:18:28.455701  9023 net.cpp:150] Setting up conv2
I1203 10:18:28.455720  9023 net.cpp:157] Top shape: 64 256 27 27 (11943936)
I1203 10:18:28.455724  9023 net.cpp:165] Memory required for data: 271866880
I1203 10:18:28.455734  9023 layer_factory.hpp:77] Creating layer relu2
I1203 10:18:28.455740  9023 net.cpp:100] Creating Layer relu2
I1203 10:18:28.455744  9023 net.cpp:434] relu2 <- conv2
I1203 10:18:28.455749  9023 net.cpp:395] relu2 -> conv2 (in-place)
I1203 10:18:28.455935  9023 net.cpp:150] Setting up relu2
I1203 10:18:28.455946  9023 net.cpp:157] Top shape: 64 256 27 27 (11943936)
I1203 10:18:28.455950  9023 net.cpp:165] Memory required for data: 319642624
I1203 10:18:28.455952  9023 layer_factory.hpp:77] Creating layer pool2
I1203 10:18:28.455960  9023 net.cpp:100] Creating Layer pool2
I1203 10:18:28.455961  9023 net.cpp:434] pool2 <- conv2
I1203 10:18:28.455966  9023 net.cpp:408] pool2 -> pool2
I1203 10:18:28.456009  9023 net.cpp:150] Setting up pool2
I1203 10:18:28.456027  9023 net.cpp:157] Top shape: 64 256 13 13 (2768896)
I1203 10:18:28.456029  9023 net.cpp:165] Memory required for data: 330718208
I1203 10:18:28.456032  9023 layer_factory.hpp:77] Creating layer norm2
I1203 10:18:28.456039  9023 net.cpp:100] Creating Layer norm2
I1203 10:18:28.456043  9023 net.cpp:434] norm2 <- pool2
I1203 10:18:28.456046  9023 net.cpp:408] norm2 -> norm2
I1203 10:18:28.456406  9023 net.cpp:150] Setting up norm2
I1203 10:18:28.456421  9023 net.cpp:157] Top shape: 64 256 13 13 (2768896)
I1203 10:18:28.456423  9023 net.cpp:165] Memory required for data: 341793792
I1203 10:18:28.456428  9023 layer_factory.hpp:77] Creating layer conv3
I1203 10:18:28.456437  9023 net.cpp:100] Creating Layer conv3
I1203 10:18:28.456440  9023 net.cpp:434] conv3 <- norm2
I1203 10:18:28.456446  9023 net.cpp:408] conv3 -> conv3
I1203 10:18:28.469005  9023 net.cpp:150] Setting up conv3
I1203 10:18:28.469022  9023 net.cpp:157] Top shape: 64 384 13 13 (4153344)
I1203 10:18:28.469025  9023 net.cpp:165] Memory required for data: 358407168
I1203 10:18:28.469036  9023 layer_factory.hpp:77] Creating layer relu3
I1203 10:18:28.469043  9023 net.cpp:100] Creating Layer relu3
I1203 10:18:28.469045  9023 net.cpp:434] relu3 <- conv3
I1203 10:18:28.469051  9023 net.cpp:395] relu3 -> conv3 (in-place)
I1203 10:18:28.469235  9023 net.cpp:150] Setting up relu3
I1203 10:18:28.469249  9023 net.cpp:157] Top shape: 64 384 13 13 (4153344)
I1203 10:18:28.469251  9023 net.cpp:165] Memory required for data: 375020544
I1203 10:18:28.469254  9023 layer_factory.hpp:77] Creating layer conv4
I1203 10:18:28.469264  9023 net.cpp:100] Creating Layer conv4
I1203 10:18:28.469269  9023 net.cpp:434] conv4 <- conv3
I1203 10:18:28.469274  9023 net.cpp:408] conv4 -> conv4
I1203 10:18:28.479727  9023 net.cpp:150] Setting up conv4
I1203 10:18:28.479748  9023 net.cpp:157] Top shape: 64 384 13 13 (4153344)
I1203 10:18:28.479750  9023 net.cpp:165] Memory required for data: 391633920
I1203 10:18:28.479758  9023 layer_factory.hpp:77] Creating layer relu4
I1203 10:18:28.479763  9023 net.cpp:100] Creating Layer relu4
I1203 10:18:28.479766  9023 net.cpp:434] relu4 <- conv4
I1203 10:18:28.479771  9023 net.cpp:395] relu4 -> conv4 (in-place)
I1203 10:18:28.479974  9023 net.cpp:150] Setting up relu4
I1203 10:18:28.479987  9023 net.cpp:157] Top shape: 64 384 13 13 (4153344)
I1203 10:18:28.479990  9023 net.cpp:165] Memory required for data: 408247296
I1203 10:18:28.479993  9023 layer_factory.hpp:77] Creating layer conv5
I1203 10:18:28.480005  9023 net.cpp:100] Creating Layer conv5
I1203 10:18:28.480008  9023 net.cpp:434] conv5 <- conv4
I1203 10:18:28.480031  9023 net.cpp:408] conv5 -> conv5
I1203 10:18:28.488028  9023 net.cpp:150] Setting up conv5
I1203 10:18:28.488045  9023 net.cpp:157] Top shape: 64 256 13 13 (2768896)
I1203 10:18:28.488049  9023 net.cpp:165] Memory required for data: 419322880
I1203 10:18:28.488059  9023 layer_factory.hpp:77] Creating layer relu5
I1203 10:18:28.488067  9023 net.cpp:100] Creating Layer relu5
I1203 10:18:28.488071  9023 net.cpp:434] relu5 <- conv5
I1203 10:18:28.488076  9023 net.cpp:395] relu5 -> conv5 (in-place)
I1203 10:18:28.488440  9023 net.cpp:150] Setting up relu5
I1203 10:18:28.488453  9023 net.cpp:157] Top shape: 64 256 13 13 (2768896)
I1203 10:18:28.488456  9023 net.cpp:165] Memory required for data: 430398464
I1203 10:18:28.488461  9023 layer_factory.hpp:77] Creating layer pool5
I1203 10:18:28.488467  9023 net.cpp:100] Creating Layer pool5
I1203 10:18:28.488469  9023 net.cpp:434] pool5 <- conv5
I1203 10:18:28.488477  9023 net.cpp:408] pool5 -> pool5
I1203 10:18:28.488529  9023 net.cpp:150] Setting up pool5
I1203 10:18:28.488536  9023 net.cpp:157] Top shape: 64 256 6 6 (589824)
I1203 10:18:28.488538  9023 net.cpp:165] Memory required for data: 432757760
I1203 10:18:28.488541  9023 layer_factory.hpp:77] Creating layer fc6
I1203 10:18:28.488554  9023 net.cpp:100] Creating Layer fc6
I1203 10:18:28.488559  9023 net.cpp:434] fc6 <- pool5
I1203 10:18:28.488564  9023 net.cpp:408] fc6 -> fc6
I1203 10:18:28.998255  9023 net.cpp:150] Setting up fc6
I1203 10:18:28.998297  9023 net.cpp:157] Top shape: 64 4096 (262144)
I1203 10:18:28.998301  9023 net.cpp:165] Memory required for data: 433806336
I1203 10:18:28.998327  9023 layer_factory.hpp:77] Creating layer relu6
I1203 10:18:28.998345  9023 net.cpp:100] Creating Layer relu6
I1203 10:18:28.998350  9023 net.cpp:434] relu6 <- fc6
I1203 10:18:28.998364  9023 net.cpp:395] relu6 -> fc6 (in-place)
I1203 10:18:28.998944  9023 net.cpp:150] Setting up relu6
I1203 10:18:28.998956  9023 net.cpp:157] Top shape: 64 4096 (262144)
I1203 10:18:28.998960  9023 net.cpp:165] Memory required for data: 434854912
I1203 10:18:28.998968  9023 layer_factory.hpp:77] Creating layer drop6
I1203 10:18:28.998978  9023 net.cpp:100] Creating Layer drop6
I1203 10:18:28.998981  9023 net.cpp:434] drop6 <- fc6
I1203 10:18:28.998989  9023 net.cpp:395] drop6 -> fc6 (in-place)
I1203 10:18:28.999028  9023 net.cpp:150] Setting up drop6
I1203 10:18:28.999034  9023 net.cpp:157] Top shape: 64 4096 (262144)
I1203 10:18:28.999037  9023 net.cpp:165] Memory required for data: 435903488
I1203 10:18:28.999039  9023 layer_factory.hpp:77] Creating layer fc7
I1203 10:18:28.999053  9023 net.cpp:100] Creating Layer fc7
I1203 10:18:28.999055  9023 net.cpp:434] fc7 <- fc6
I1203 10:18:28.999063  9023 net.cpp:408] fc7 -> fc7
I1203 10:18:29.176134  9023 net.cpp:150] Setting up fc7
I1203 10:18:29.176172  9023 net.cpp:157] Top shape: 64 4096 (262144)
I1203 10:18:29.176174  9023 net.cpp:165] Memory required for data: 436952064
I1203 10:18:29.176185  9023 layer_factory.hpp:77] Creating layer relu7
I1203 10:18:29.176198  9023 net.cpp:100] Creating Layer relu7
I1203 10:18:29.176203  9023 net.cpp:434] relu7 <- fc7
I1203 10:18:29.176209  9023 net.cpp:395] relu7 -> fc7 (in-place)
I1203 10:18:29.176722  9023 net.cpp:150] Setting up relu7
I1203 10:18:29.176733  9023 net.cpp:157] Top shape: 64 4096 (262144)
I1203 10:18:29.176736  9023 net.cpp:165] Memory required for data: 438000640
I1203 10:18:29.176739  9023 layer_factory.hpp:77] Creating layer drop7
I1203 10:18:29.176749  9023 net.cpp:100] Creating Layer drop7
I1203 10:18:29.176753  9023 net.cpp:434] drop7 <- fc7
I1203 10:18:29.176759  9023 net.cpp:395] drop7 -> fc7 (in-place)
I1203 10:18:29.176786  9023 net.cpp:150] Setting up drop7
I1203 10:18:29.176791  9023 net.cpp:157] Top shape: 64 4096 (262144)
I1203 10:18:29.176794  9023 net.cpp:165] Memory required for data: 439049216
I1203 10:18:29.176808  9023 layer_factory.hpp:77] Creating layer fc8_2
I1203 10:18:29.176817  9023 net.cpp:100] Creating Layer fc8_2
I1203 10:18:29.176820  9023 net.cpp:434] fc8_2 <- fc7
I1203 10:18:29.176852  9023 net.cpp:408] fc8_2 -> fc8_2
I1203 10:18:29.177626  9023 net.cpp:150] Setting up fc8_2
I1203 10:18:29.177637  9023 net.cpp:157] Top shape: 64 2 (128)
I1203 10:18:29.177639  9023 net.cpp:165] Memory required for data: 439049728
I1203 10:18:29.177644  9023 layer_factory.hpp:77] Creating layer loss
I1203 10:18:29.177650  9023 net.cpp:100] Creating Layer loss
I1203 10:18:29.177654  9023 net.cpp:434] loss <- fc8_2
I1203 10:18:29.177656  9023 net.cpp:434] loss <- label
I1203 10:18:29.177669  9023 net.cpp:408] loss -> loss
I1203 10:18:29.177685  9023 layer_factory.hpp:77] Creating layer loss
…
I1203 10:18:29.178519  9023 net.cpp:322] The NetState phase (1) differed from the phase (0) specified by a rule in layer data
I1203 10:18:29.178676  9023 net.cpp:58] Initializing net from parameters: 
name: "VideoPopularityCaffeNet"
state {
  phase: TEST
}
layer {
  name: "data"
  type: "Data"
  top: "data"
  top: "label"
  include {
    phase: TEST
  }
  transform_param {
    mirror: false
    crop_size: 227
    mean_file: "/home/tbochens/Nets/FineTuning/imagenet_mean.binaryproto"
  }
  data_param {
    source: "val_thumb_2_lmdb.3"
    batch_size: 64
    backend: LMDB
  }
}
layer {
  name: "conv1"
  type: "Convolution"
  bottom: "data"
  top: "conv1"
  param {
    lr_mult: 1
    decay_mult: 1
  }
  param {
    lr_mult: 2
    decay_mult: 0
  }
  convolution_param {
    num_output: 96
    kernel_size: 11
    stride: 4
    weight_filler {
      type: "gaussian"
      std: 0.01
    }
    bias_filler {
      type: "constant"
      value: 0
    }
  }
}
layer {
  name: "relu1"
  type: "ReLU"
  bottom: "conv1"
  top: "conv1"
}
layer {
  name: "pool1"
  type: "Pooling"
  bottom: "conv1"
  top: "pool1"
  pooling_param {
    pool: MAX
    kernel_size: 3
    stride: 2
  }
}
layer {
  name: "norm1"
  type: "LRN"
  bottom: "pool1"
  top: "norm1"
  lrn_param {
    local_size: 5
    alpha: 0.0001
    beta: 0.75
  }
}
layer {
  name: "conv2"
  type: "Convolution"
  bottom: "norm1"
  top: "conv2"
  param {
    lr_mult: 1
    decay_mult: 1
  }
  param {
    lr_mult: 2
    decay_mult: 0
  }
  convolution_param {
    num_output: 256
    pad: 2
    kernel_size: 5
    group: 2
    weight_filler {
      type: "gaussian"
      std: 0.01
    }
    bias_filler {
      type: "constant"
      value: 1
    }
  }
}
layer {
  name: "relu2"
  type: "ReLU"
  bottom: "conv2"
  top: "conv2"
}
layer {
  name: "pool2"
  type: "Pooling"
  bottom: "conv2"
  top: "pool2"
  pooling_param {
    pool: MAX
    kernel_size: 3
    stride: 2
  }
}
layer {
  name: "norm2"
  type: "LRN"
  bottom: "pool2"
  top: "norm2"
  lrn_param {
    local_size: 5
    alpha: 0.0001
    beta: 0.75
  }
}
layer {
  name: "conv3"
  type: "Convolution"
  bottom: "norm2"
  top: "conv3"
  param {
    lr_mult: 1
    decay_mult: 1
  }
  param {
    lr_mult: 2
    decay_mult: 0
  }
  convolution_param {
    num_output: 384
    pad: 1
    kernel_size: 3
    weight_filler {
      type: "gaussian"
      std: 0.01
    }
    bias_filler {
      type: "constant"
      value: 0
    }
  }
}
layer {
  name: "relu3"
  type: "ReLU"
  bottom: "conv3"
  top: "conv3"
}
layer {
  name: "conv4"
  type: "Convolution"
  bottom: "conv3"
  top: "conv4"
  param {
    lr_mult: 1
    decay_mult: 1
  }
  param {
    lr_mult: 2
    decay_mult: 0
  }
  convolution_param {
    num_output: 384
    pad: 1
    kernel_size: 3
    group: 2
    weight_filler {
      type: "gaussian"
      std: 0.01
    }
    bias_filler {
      type: "constant"
      value: 1
    }
  }
}
layer {
  name: "relu4"
  type: "ReLU"
  bottom: "conv4"
  top: "conv4"
}
layer {
  name: "conv5"
  type: "Convolution"
  bottom: "conv4"
  top: "conv5"
  param {
    lr_mult: 1
    decay_mult: 1
  }
  param {
    lr_mult: 2
    decay_mult: 0
  }
  convolution_param {
    num_output: 256
    pad: 1
    kernel_size: 3
    group: 2
    weight_filler {
      type: "gaussian"
      std: 0.01
    }
    bias_filler {
      type: "constant"
      value: 1
    }
  }
}
layer {
  name: "relu5"
  type: "ReLU"
  bottom: "conv5"
  top: "conv5"
}
layer {
  name: "pool5"
  type: "Pooling"
  bottom: "conv5"
  top: "pool5"
  pooling_param {
    pool: MAX
    kernel_size: 3
    stride: 2
  }
}
layer {
  name: "fc6"
  type: "InnerProduct"
  bottom: "pool5"
  top: "fc6"
  param {
    lr_mult: 1
    decay_mult: 1
  }
  param {
    lr_mult: 2
    decay_mult: 0
  }
  inner_product_param {
    num_output: 4096
    weight_filler {
      type: "gaussian"
      std: 0.005
    }
    bias_filler {
      type: "constant"
      value: 1
    }
  }
}
layer {
  name: "relu6"
  type: "ReLU"
  bottom: "fc6"
  top: "fc6"
}
layer {
  name: "drop6"
  type: "Dropout"
  bottom: "fc6"
  top: "fc6"
  dropout_param {
    dropout_ratio: 0.5
  }
}
layer {
  name: "fc7"
  type: "InnerProduct"
  bottom: "fc6"
  top: "fc7"
  param {
    lr_mult: 1
    decay_mult: 1
  }
  param {
    lr_mult: 2
    decay_mult: 0
  }
  inner_product_param {
    num_output: 4096
    weight_filler {
      type: "gaussian"
      std: 0.005
    }
    bias_filler {
      type: "constant"
      value: 1
    }
  }
}
layer {
  name: "relu7"
  type: "ReLU"
  bottom: "fc7"
  top: "fc7"
}
layer {
  name: "drop7"
  type: "Dropout"
  bottom: "fc7"
  top: "fc7"
  dropout_param {
    dropout_ratio: 0.5
  }
}
layer {
  name: "fc8_2"
  type: "InnerProduct"
  bottom: "fc7"
  top: "fc8_2"
  param {
    lr_mult: 5
    decay_mult: 1
  }
  param {
    lr_mult: 10
    decay_mult: 0
  }
  inner_product_param {
    num_output: 2
    weight_filler {
      type: "gaussian"
      std: 0.01
    }
    bias_filler {
      type: "constant"
      value: 0
    }
  }
}
layer {
  name: "accuracy"
  type: "Accuracy"
  bottom: "fc8_2"
  bottom: "label"
  top: "accuracy"
  include {
    phase: TEST
  }
}
layer {
  name: "loss"
  type: "SoftmaxWithLoss"
  bottom: "fc8_2"
  bottom: "label"
  top: "loss"
}
I1203 10:18:29.178797  9023 layer_factory.hpp:77] Creating layer data
I1203 10:18:29.178912  9023 net.cpp:100] Creating Layer data
I1203 10:18:29.178920  9023 net.cpp:408] data -> data
I1203 10:18:29.178930  9023 net.cpp:408] data -> label
I1203 10:18:29.178937  9023 data_transformer.cpp:25] Loading mean file from: /home/tbochens/Nets/FineTuning/imagenet_mean.binaryproto
I1203 10:18:29.181244  9030 db_lmdb.cpp:35] Opened lmdb val_thumb_2_lmdb.3
I1203 10:18:29.181877  9023 data_layer.cpp:41] output data size: 64,3,227,227
I1203 10:18:29.265090  9023 net.cpp:150] Setting up data
I1203 10:18:29.265137  9023 net.cpp:157] Top shape: 64 3 227 227 (9893568)
I1203 10:18:29.265141  9023 net.cpp:157] Top shape: 64 (64)
I1203 10:18:29.265143  9023 net.cpp:165] Memory required for data: 39574528
I1203 10:18:29.265151  9023 layer_factory.hpp:77] Creating layer label_data_1_split
I1203 10:18:29.265166  9023 net.cpp:100] Creating Layer label_data_1_split
I1203 10:18:29.265168  9023 net.cpp:434] label_data_1_split <- label
I1203 10:18:29.265177  9023 net.cpp:408] label_data_1_split -> label_data_1_split_0
I1203 10:18:29.265187  9023 net.cpp:408] label_data_1_split -> label_data_1_split_1
I1203 10:18:29.265254  9023 net.cpp:150] Setting up label_data_1_split
I1203 10:18:29.265259  9023 net.cpp:157] Top shape: 64 (64)
I1203 10:18:29.265261  9023 net.cpp:157] Top shape: 64 (64)
I1203 10:18:29.265262  9023 net.cpp:165] Memory required for data: 39575040
I1203 10:18:29.265265  9023 layer_factory.hpp:77] Creating layer conv1
I1203 10:18:29.265278  9023 net.cpp:100] Creating Layer conv1
I1203 10:18:29.265281  9023 net.cpp:434] conv1 <- data
I1203 10:18:29.265287  9023 net.cpp:408] conv1 -> conv1
I1203 10:18:29.266804  9023 net.cpp:150] Setting up conv1
I1203 10:18:29.266820  9023 net.cpp:157] Top shape: 64 96 55 55 (18585600)
I1203 10:18:29.266834  9023 net.cpp:165] Memory required for data: 113917440
I1203 10:18:29.266845  9023 layer_factory.hpp:77] Creating layer relu1
I1203 10:18:29.266851  9023 net.cpp:100] Creating Layer relu1
I1203 10:18:29.266855  9023 net.cpp:434] relu1 <- conv1
I1203 10:18:29.266860  9023 net.cpp:395] relu1 -> conv1 (in-place)
I1203 10:18:29.267030  9023 net.cpp:150] Setting up relu1
I1203 10:18:29.267040  9023 net.cpp:157] Top shape: 64 96 55 55 (18585600)
I1203 10:18:29.267042  9023 net.cpp:165] Memory required for data: 188259840
I1203 10:18:29.267045  9023 layer_factory.hpp:77] Creating layer pool1
I1203 10:18:29.267052  9023 net.cpp:100] Creating Layer pool1
I1203 10:18:29.267055  9023 net.cpp:434] pool1 <- conv1
I1203 10:18:29.267060  9023 net.cpp:408] pool1 -> pool1
I1203 10:18:29.267115  9023 net.cpp:150] Setting up pool1
I1203 10:18:29.267120  9023 net.cpp:157] Top shape: 64 96 27 27 (4478976)
I1203 10:18:29.267122  9023 net.cpp:165] Memory required for data: 206175744
I1203 10:18:29.267124  9023 layer_factory.hpp:77] Creating layer norm1
I1203 10:18:29.267132  9023 net.cpp:100] Creating Layer norm1
I1203 10:18:29.267133  9023 net.cpp:434] norm1 <- pool1
I1203 10:18:29.267138  9023 net.cpp:408] norm1 -> norm1
I1203 10:18:29.267458  9023 net.cpp:150] Setting up norm1
I1203 10:18:29.267482  9023 net.cpp:157] Top shape: 64 96 27 27 (4478976)
I1203 10:18:29.267484  9023 net.cpp:165] Memory required for data: 224091648
I1203 10:18:29.267488  9023 layer_factory.hpp:77] Creating layer conv2
I1203 10:18:29.267508  9023 net.cpp:100] Creating Layer conv2
I1203 10:18:29.267510  9023 net.cpp:434] conv2 <- norm1
I1203 10:18:29.267516  9023 net.cpp:408] conv2 -> conv2
I1203 10:18:29.272402  9023 net.cpp:150] Setting up conv2
I1203 10:18:29.272416  9023 net.cpp:157] Top shape: 64 256 27 27 (11943936)
I1203 10:18:29.272430  9023 net.cpp:165] Memory required for data: 271867392
I1203 10:18:29.272439  9023 layer_factory.hpp:77] Creating layer relu2
I1203 10:18:29.272444  9023 net.cpp:100] Creating Layer relu2
I1203 10:18:29.272447  9023 net.cpp:434] relu2 <- conv2
I1203 10:18:29.272452  9023 net.cpp:395] relu2 -> conv2 (in-place)
I1203 10:18:29.272671  9023 net.cpp:150] Setting up relu2
I1203 10:18:29.272681  9023 net.cpp:157] Top shape: 64 256 27 27 (11943936)
I1203 10:18:29.272704  9023 net.cpp:165] Memory required for data: 319643136
I1203 10:18:29.272707  9023 layer_factory.hpp:77] Creating layer pool2
I1203 10:18:29.272716  9023 net.cpp:100] Creating Layer pool2
I1203 10:18:29.272717  9023 net.cpp:434] pool2 <- conv2
I1203 10:18:29.272722  9023 net.cpp:408] pool2 -> pool2
I1203 10:18:29.272768  9023 net.cpp:150] Setting up pool2
I1203 10:18:29.272774  9023 net.cpp:157] Top shape: 64 256 13 13 (2768896)
I1203 10:18:29.272776  9023 net.cpp:165] Memory required for data: 330718720
I1203 10:18:29.272778  9023 layer_factory.hpp:77] Creating layer norm2
I1203 10:18:29.272784  9023 net.cpp:100] Creating Layer norm2
I1203 10:18:29.272786  9023 net.cpp:434] norm2 <- pool2
I1203 10:18:29.272790  9023 net.cpp:408] norm2 -> norm2
I1203 10:18:29.273125  9023 net.cpp:150] Setting up norm2
I1203 10:18:29.273149  9023 net.cpp:157] Top shape: 64 256 13 13 (2768896)
I1203 10:18:29.273150  9023 net.cpp:165] Memory required for data: 341794304
I1203 10:18:29.273164  9023 layer_factory.hpp:77] Creating layer conv3
I1203 10:18:29.273174  9023 net.cpp:100] Creating Layer conv3
I1203 10:18:29.273176  9023 net.cpp:434] conv3 <- norm2
I1203 10:18:29.273182  9023 net.cpp:408] conv3 -> conv3
I1203 10:18:29.283068  9023 net.cpp:150] Setting up conv3
I1203 10:18:29.283082  9023 net.cpp:157] Top shape: 64 384 13 13 (4153344)
I1203 10:18:29.283085  9023 net.cpp:165] Memory required for data: 358407680
I1203 10:18:29.283093  9023 layer_factory.hpp:77] Creating layer relu3
I1203 10:18:29.283099  9023 net.cpp:100] Creating Layer relu3
I1203 10:18:29.283102  9023 net.cpp:434] relu3 <- conv3
I1203 10:18:29.283118  9023 net.cpp:395] relu3 -> conv3 (in-place)
I1203 10:18:29.283448  9023 net.cpp:150] Setting up relu3
I1203 10:18:29.283460  9023 net.cpp:157] Top shape: 64 384 13 13 (4153344)
I1203 10:18:29.283463  9023 net.cpp:165] Memory required for data: 375021056
I1203 10:18:29.283465  9023 layer_factory.hpp:77] Creating layer conv4
I1203 10:18:29.283475  9023 net.cpp:100] Creating Layer conv4
I1203 10:18:29.283478  9023 net.cpp:434] conv4 <- conv3
I1203 10:18:29.283483  9023 net.cpp:408] conv4 -> conv4
I1203 10:18:29.291725  9023 net.cpp:150] Setting up conv4
I1203 10:18:29.291738  9023 net.cpp:157] Top shape: 64 384 13 13 (4153344)
I1203 10:18:29.291752  9023 net.cpp:165] Memory required for data: 391634432
I1203 10:18:29.291757  9023 layer_factory.hpp:77] Creating layer relu4
I1203 10:18:29.291764  9023 net.cpp:100] Creating Layer relu4
I1203 10:18:29.291765  9023 net.cpp:434] relu4 <- conv4
I1203 10:18:29.291770  9023 net.cpp:395] relu4 -> conv4 (in-place)
I1203 10:18:29.291952  9023 net.cpp:150] Setting up relu4
I1203 10:18:29.291962  9023 net.cpp:157] Top shape: 64 384 13 13 (4153344)
I1203 10:18:29.291965  9023 net.cpp:165] Memory required for data: 408247808
I1203 10:18:29.291967  9023 layer_factory.hpp:77] Creating layer conv5
I1203 10:18:29.291975  9023 net.cpp:100] Creating Layer conv5
I1203 10:18:29.291976  9023 net.cpp:434] conv5 <- conv4
I1203 10:18:29.291981  9023 net.cpp:408] conv5 -> conv5
I1203 10:18:29.298162  9023 net.cpp:150] Setting up conv5
I1203 10:18:29.298188  9023 net.cpp:157] Top shape: 64 256 13 13 (2768896)
I1203 10:18:29.298190  9023 net.cpp:165] Memory required for data: 419323392
I1203 10:18:29.298199  9023 layer_factory.hpp:77] Creating layer relu5
I1203 10:18:29.298205  9023 net.cpp:100] Creating Layer relu5
I1203 10:18:29.298207  9023 net.cpp:434] relu5 <- conv5
I1203 10:18:29.298213  9023 net.cpp:395] relu5 -> conv5 (in-place)
I1203 10:18:29.298393  9023 net.cpp:150] Setting up relu5
I1203 10:18:29.298403  9023 net.cpp:157] Top shape: 64 256 13 13 (2768896)
I1203 10:18:29.298405  9023 net.cpp:165] Memory required for data: 430398976
I1203 10:18:29.298408  9023 layer_factory.hpp:77] Creating layer pool5
I1203 10:18:29.298415  9023 net.cpp:100] Creating Layer pool5
I1203 10:18:29.298418  9023 net.cpp:434] pool5 <- conv5
I1203 10:18:29.298421  9023 net.cpp:408] pool5 -> pool5
I1203 10:18:29.298466  9023 net.cpp:150] Setting up pool5
I1203 10:18:29.298496  9023 net.cpp:157] Top shape: 64 256 6 6 (589824)
I1203 10:18:29.298498  9023 net.cpp:165] Memory required for data: 432758272
I1203 10:18:29.298501  9023 layer_factory.hpp:77] Creating layer fc6
I1203 10:18:29.298507  9023 net.cpp:100] Creating Layer fc6
I1203 10:18:29.298509  9023 net.cpp:434] fc6 <- pool5
I1203 10:18:29.298514  9023 net.cpp:408] fc6 -> fc6
I1203 10:18:29.682879  9023 net.cpp:150] Setting up fc6
I1203 10:18:29.682934  9023 net.cpp:157] Top shape: 64 4096 (262144)
I1203 10:18:29.682937  9023 net.cpp:165] Memory required for data: 433806848
I1203 10:18:29.682952  9023 layer_factory.hpp:77] Creating layer relu6
I1203 10:18:29.682968  9023 net.cpp:100] Creating Layer relu6
I1203 10:18:29.682972  9023 net.cpp:434] relu6 <- fc6
I1203 10:18:29.682981  9023 net.cpp:395] relu6 -> fc6 (in-place)
I1203 10:18:29.683684  9023 net.cpp:150] Setting up relu6
I1203 10:18:29.683696  9023 net.cpp:157] Top shape: 64 4096 (262144)
I1203 10:18:29.683709  9023 net.cpp:165] Memory required for data: 434855424
I1203 10:18:29.683712  9023 layer_factory.hpp:77] Creating layer drop6
I1203 10:18:29.683722  9023 net.cpp:100] Creating Layer drop6
I1203 10:18:29.683725  9023 net.cpp:434] drop6 <- fc6
I1203 10:18:29.683732  9023 net.cpp:395] drop6 -> fc6 (in-place)
I1203 10:18:29.683776  9023 net.cpp:150] Setting up drop6
I1203 10:18:29.683781  9023 net.cpp:157] Top shape: 64 4096 (262144)
I1203 10:18:29.683784  9023 net.cpp:165] Memory required for data: 435904000
I1203 10:18:29.683786  9023 layer_factory.hpp:77] Creating layer fc7
I1203 10:18:29.683795  9023 net.cpp:100] Creating Layer fc7
I1203 10:18:29.683799  9023 net.cpp:434] fc7 <- fc6
I1203 10:18:29.683804  9023 net.cpp:408] fc7 -> fc7
I1203 10:18:29.866084  9023 net.cpp:150] Setting up fc7
I1203 10:18:29.866132  9023 net.cpp:157] Top shape: 64 4096 (262144)
I1203 10:18:29.866135  9023 net.cpp:165] Memory required for data: 436952576
I1203 10:18:29.866147  9023 layer_factory.hpp:77] Creating layer relu7
I1203 10:18:29.866156  9023 net.cpp:100] Creating Layer relu7
I1203 10:18:29.866161  9023 net.cpp:434] relu7 <- fc7
I1203 10:18:29.866170  9023 net.cpp:395] relu7 -> fc7 (in-place)
I1203 10:18:29.866448  9023 net.cpp:150] Setting up relu7
I1203 10:18:29.866461  9023 net.cpp:157] Top shape: 64 4096 (262144)
I1203 10:18:29.866463  9023 net.cpp:165] Memory required for data: 438001152
I1203 10:18:29.866466  9023 layer_factory.hpp:77] Creating layer drop7
I1203 10:18:29.866473  9023 net.cpp:100] Creating Layer drop7
I1203 10:18:29.866477  9023 net.cpp:434] drop7 <- fc7
I1203 10:18:29.866482  9023 net.cpp:395] drop7 -> fc7 (in-place)
I1203 10:18:29.866513  9023 net.cpp:150] Setting up drop7
I1203 10:18:29.866518  9023 net.cpp:157] Top shape: 64 4096 (262144)
I1203 10:18:29.866520  9023 net.cpp:165] Memory required for data: 439049728
I1203 10:18:29.866524  9023 layer_factory.hpp:77] Creating layer fc8_2
I1203 10:18:29.866533  9023 net.cpp:100] Creating Layer fc8_2
I1203 10:18:29.866535  9023 net.cpp:434] fc8_2 <- fc7
I1203 10:18:29.866541  9023 net.cpp:408] fc8_2 -> fc8_2
I1203 10:18:29.866747  9023 net.cpp:150] Setting up fc8_2
I1203 10:18:29.866756  9023 net.cpp:157] Top shape: 64 2 (128)
I1203 10:18:29.866760  9023 net.cpp:165] Memory required for data: 439050240
I1203 10:18:29.866763  9023 layer_factory.hpp:77] Creating layer fc8_2_fc8_2_0_split
I1203 10:18:29.866771  9023 net.cpp:100] Creating Layer fc8_2_fc8_2_0_split
I1203 10:18:29.866775  9023 net.cpp:434] fc8_2_fc8_2_0_split <- fc8_2
I1203 10:18:29.866780  9023 net.cpp:408] fc8_2_fc8_2_0_split -> fc8_2_fc8_2_0_split_0
I1203 10:18:29.866786  9023 net.cpp:408] fc8_2_fc8_2_0_split -> fc8_2_fc8_2_0_split_1
I1203 10:18:29.866822  9023 net.cpp:150] Setting up fc8_2_fc8_2_0_split
I1203 10:18:29.866837  9023 net.cpp:157] Top shape: 64 2 (128)
I1203 10:18:29.866839  9023 net.cpp:157] Top shape: 64 2 (128)
I1203 10:18:29.866842  9023 net.cpp:165] Memory required for data: 439051264
I1203 10:18:29.866843  9023 layer_factory.hpp:77] Creating layer accuracy
I1203 10:18:29.866852  9023 net.cpp:100] Creating Layer accuracy
I1203 10:18:29.866890  9023 net.cpp:434] accuracy <- fc8_2_fc8_2_0_split_0
I1203 10:18:29.866894  9023 net.cpp:434] accuracy <- label_data_1_split_0
I1203 10:18:29.866899  9023 net.cpp:408] accuracy -> accuracy
…
