…
I1203 09:44:18.425192 54779 net.cpp:322] The NetState phase (0) differed from the phase (1) specified by a rule in layer accuracy
I1203 09:44:18.425369 54779 net.cpp:58] Initializing net from parameters: 
name: "VideoPopularityCaffeNet"
state {
  phase: TRAIN
  level: 0
  stage: ""
}
layer {
  name: "data"
  type: "Data"
  top: "data"
  top: "label"
  include {
    phase: TRAIN
  }
  transform_param {
    mirror: true
    crop_size: 227
    mean_file: "/home/tbochens/Nets/FineTuning/imagenet_mean.binaryproto"
  }
  data_param {
    source: "train_thumb_2_lmdb.2"
    batch_size: 64
    backend: LMDB
  }
}
layer {
  name: "conv1"
  type: "Convolution"
  bottom: "data"
  top: "conv1"
  param {
    lr_mult: 1
    decay_mult: 1
  }
  param {
    lr_mult: 2
    decay_mult: 0
  }
  convolution_param {
    num_output: 96
    kernel_size: 11
    stride: 4
    weight_filler {
      type: "gaussian"
      std: 0.01
    }
    bias_filler {
      type: "constant"
      value: 0
    }
  }
}
layer {
  name: "relu1"
  type: "ReLU"
  bottom: "conv1"
  top: "conv1"
}
layer {
  name: "pool1"
  type: "Pooling"
  bottom: "conv1"
  top: "pool1"
  pooling_param {
    pool: MAX
    kernel_size: 3
    stride: 2
  }
}
layer {
  name: "norm1"
  type: "LRN"
  bottom: "pool1"
  top: "norm1"
  lrn_param {
    local_size: 5
    alpha: 0.0001
    beta: 0.75
  }
}
layer {
  name: "conv2"
  type: "Convolution"
  bottom: "norm1"
  top: "conv2"
  param {
    lr_mult: 1
    decay_mult: 1
  }
  param {
    lr_mult: 2
    decay_mult: 0
  }
  convolution_param {
    num_output: 256
    pad: 2
    kernel_size: 5
    group: 2
    weight_filler {
      type: "gaussian"
      std: 0.01
    }
    bias_filler {
      type: "constant"
      value: 1
    }
  }
}
layer {
  name: "relu2"
  type: "ReLU"
  bottom: "conv2"
  top: "conv2"
}
layer {
  name: "pool2"
  type: "Pooling"
  bottom: "conv2"
  top: "pool2"
  pooling_param {
    pool: MAX
    kernel_size: 3
    stride: 2
  }
}
layer {
  name: "norm2"
  type: "LRN"
  bottom: "pool2"
  top: "norm2"
  lrn_param {
    local_size: 5
    alpha: 0.0001
    beta: 0.75
  }
}
layer {
  name: "conv3"
  type: "Convolution"
  bottom: "norm2"
  top: "conv3"
  param {
    lr_mult: 1
    decay_mult: 1
  }
  param {
    lr_mult: 2
    decay_mult: 0
  }
  convolution_param {
    num_output: 384
    pad: 1
    kernel_size: 3
    weight_filler {
      type: "gaussian"
      std: 0.01
    }
    bias_filler {
      type: "constant"
      value: 0
    }
  }
}
layer {
  name: "relu3"
  type: "ReLU"
  bottom: "conv3"
  top: "conv3"
}
layer {
  name: "conv4"
  type: "Convolution"
  bottom: "conv3"
  top: "conv4"
  param {
    lr_mult: 1
    decay_mult: 1
  }
  param {
    lr_mult: 2
    decay_mult: 0
  }
  convolution_param {
    num_output: 384
    pad: 1
    kernel_size: 3
    group: 2
    weight_filler {
      type: "gaussian"
      std: 0.01
    }
    bias_filler {
      type: "constant"
      value: 1
    }
  }
}
layer {
  name: "relu4"
  type: "ReLU"
  bottom: "conv4"
  top: "conv4"
}
layer {
  name: "conv5"
  type: "Convolution"
  bottom: "conv4"
  top: "conv5"
  param {
    lr_mult: 1
    decay_mult: 1
  }
  param {
    lr_mult: 2
    decay_mult: 0
  }
  convolution_param {
    num_output: 256
    pad: 1
    kernel_size: 3
    group: 2
    weight_filler {
      type: "gaussian"
      std: 0.01
    }
    bias_filler {
      type: "constant"
      value: 1
    }
  }
}
layer {
  name: "relu5"
  type: "ReLU"
  bottom: "conv5"
  top: "conv5"
}
layer {
  name: "pool5"
  type: "Pooling"
  bottom: "conv5"
  top: "pool5"
  pooling_param {
    pool: MAX
    kernel_size: 3
    stride: 2
  }
}
layer {
  name: "fc6"
  type: "InnerProduct"
  bottom: "pool5"
  top: "fc6"
  param {
    lr_mult: 1
    decay_mult: 1
  }
  param {
    lr_mult: 2
    decay_mult: 0
  }
  inner_product_param {
    num_output: 4096
    weight_filler {
      type: "gaussian"
      std: 0.005
    }
    bias_filler {
      type: "constant"
      value: 1
    }
  }
}
layer {
  name: "relu6"
  type: "ReLU"
  bottom: "fc6"
  top: "fc6"
}
layer {
  name: "drop6"
  type: "Dropout"
  bottom: "fc6"
  top: "fc6"
  dropout_param {
    dropout_ratio: 0.5
  }
}
layer {
  name: "fc7"
  type: "InnerProduct"
  bottom: "fc6"
  top: "fc7"
  param {
    lr_mult: 1
    decay_mult: 1
  }
  param {
    lr_mult: 2
    decay_mult: 0
  }
  inner_product_param {
    num_output: 4096
    weight_filler {
      type: "gaussian"
      std: 0.005
    }
    bias_filler {
      type: "constant"
      value: 1
    }
  }
}
layer {
  name: "relu7"
  type: "ReLU"
  bottom: "fc7"
  top: "fc7"
}
layer {
  name: "drop7"
  type: "Dropout"
  bottom: "fc7"
  top: "fc7"
  dropout_param {
    dropout_ratio: 0.5
  }
}
layer {
  name: "fc8_2"
  type: "InnerProduct"
  bottom: "fc7"
  top: "fc8_2"
  param {
    lr_mult: 5
    decay_mult: 1
  }
  param {
    lr_mult: 10
    decay_mult: 0
  }
  inner_product_param {
    num_output: 2
    weight_filler {
      type: "gaussian"
      std: 0.01
    }
    bias_filler {
      type: "constant"
      value: 0
    }
  }
}
layer {
  name: "loss"
  type: "SoftmaxWithLoss"
  bottom: "fc8_2"
  bottom: "label"
  top: "loss"
}
I1203 09:44:18.425499 54779 layer_factory.hpp:77] Creating layer data
I1203 09:44:18.425669 54779 net.cpp:100] Creating Layer data
I1203 09:44:18.425681 54779 net.cpp:408] data -> data
I1203 09:44:18.425714 54779 net.cpp:408] data -> label
I1203 09:44:18.425735 54779 data_transformer.cpp:25] Loading mean file from: /home/tbochens/Nets/FineTuning/imagenet_mean.binaryproto
I1203 09:44:18.429457 54787 db_lmdb.cpp:35] Opened lmdb train_thumb_2_lmdb.2
I1203 09:44:18.445014 54779 data_layer.cpp:41] output data size: 64,3,227,227
I1203 09:44:18.537919 54779 net.cpp:150] Setting up data
I1203 09:44:18.537958 54779 net.cpp:157] Top shape: 64 3 227 227 (9893568)
I1203 09:44:18.537963 54779 net.cpp:157] Top shape: 64 (64)
I1203 09:44:18.537966 54779 net.cpp:165] Memory required for data: 39574528
I1203 09:44:18.537979 54779 layer_factory.hpp:77] Creating layer conv1
I1203 09:44:18.538012 54779 net.cpp:100] Creating Layer conv1
I1203 09:44:18.538018 54779 net.cpp:434] conv1 <- data
I1203 09:44:18.538035 54779 net.cpp:408] conv1 -> conv1
I1203 09:44:18.618347 54788 blocking_queue.cpp:50] Waiting for data
I1203 09:44:18.977418 54779 net.cpp:150] Setting up conv1
I1203 09:44:18.977455 54779 net.cpp:157] Top shape: 64 96 55 55 (18585600)
I1203 09:44:18.977459 54779 net.cpp:165] Memory required for data: 113916928
I1203 09:44:18.977490 54779 layer_factory.hpp:77] Creating layer relu1
I1203 09:44:18.977506 54779 net.cpp:100] Creating Layer relu1
I1203 09:44:18.977510 54779 net.cpp:434] relu1 <- conv1
I1203 09:44:18.977516 54779 net.cpp:395] relu1 -> conv1 (in-place)
I1203 09:44:18.977861 54779 net.cpp:150] Setting up relu1
I1203 09:44:18.977876 54779 net.cpp:157] Top shape: 64 96 55 55 (18585600)
I1203 09:44:18.977880 54779 net.cpp:165] Memory required for data: 188259328
I1203 09:44:18.977882 54779 layer_factory.hpp:77] Creating layer pool1
I1203 09:44:18.977891 54779 net.cpp:100] Creating Layer pool1
I1203 09:44:18.977893 54779 net.cpp:434] pool1 <- conv1
I1203 09:44:18.977900 54779 net.cpp:408] pool1 -> pool1
I1203 09:44:18.977957 54779 net.cpp:150] Setting up pool1
I1203 09:44:18.977963 54779 net.cpp:157] Top shape: 64 96 27 27 (4478976)
I1203 09:44:18.977967 54779 net.cpp:165] Memory required for data: 206175232
I1203 09:44:18.977969 54779 layer_factory.hpp:77] Creating layer norm1
I1203 09:44:18.977982 54779 net.cpp:100] Creating Layer norm1
I1203 09:44:18.978006 54779 net.cpp:434] norm1 <- pool1
I1203 09:44:18.978011 54779 net.cpp:408] norm1 -> norm1
I1203 09:44:18.978233 54779 net.cpp:150] Setting up norm1
I1203 09:44:18.978247 54779 net.cpp:157] Top shape: 64 96 27 27 (4478976)
I1203 09:44:18.978250 54779 net.cpp:165] Memory required for data: 224091136
I1203 09:44:18.978253 54779 layer_factory.hpp:77] Creating layer conv2
I1203 09:44:18.978267 54779 net.cpp:100] Creating Layer conv2
I1203 09:44:18.978269 54779 net.cpp:434] conv2 <- norm1
I1203 09:44:18.978274 54779 net.cpp:408] conv2 -> conv2
I1203 09:44:18.984709 54779 net.cpp:150] Setting up conv2
I1203 09:44:18.984729 54779 net.cpp:157] Top shape: 64 256 27 27 (11943936)
I1203 09:44:18.984732 54779 net.cpp:165] Memory required for data: 271866880
I1203 09:44:18.984741 54779 layer_factory.hpp:77] Creating layer relu2
I1203 09:44:18.984750 54779 net.cpp:100] Creating Layer relu2
I1203 09:44:18.984752 54779 net.cpp:434] relu2 <- conv2
I1203 09:44:18.984760 54779 net.cpp:395] relu2 -> conv2 (in-place)
I1203 09:44:18.984961 54779 net.cpp:150] Setting up relu2
I1203 09:44:18.984973 54779 net.cpp:157] Top shape: 64 256 27 27 (11943936)
I1203 09:44:18.984975 54779 net.cpp:165] Memory required for data: 319642624
I1203 09:44:18.984979 54779 layer_factory.hpp:77] Creating layer pool2
I1203 09:44:18.984987 54779 net.cpp:100] Creating Layer pool2
I1203 09:44:18.984990 54779 net.cpp:434] pool2 <- conv2
I1203 09:44:18.984994 54779 net.cpp:408] pool2 -> pool2
I1203 09:44:18.985041 54779 net.cpp:150] Setting up pool2
I1203 09:44:18.985046 54779 net.cpp:157] Top shape: 64 256 13 13 (2768896)
I1203 09:44:18.985049 54779 net.cpp:165] Memory required for data: 330718208
I1203 09:44:18.985051 54779 layer_factory.hpp:77] Creating layer norm2
I1203 09:44:18.985060 54779 net.cpp:100] Creating Layer norm2
I1203 09:44:18.985064 54779 net.cpp:434] norm2 <- pool2
I1203 09:44:18.985069 54779 net.cpp:408] norm2 -> norm2
I1203 09:44:18.985447 54779 net.cpp:150] Setting up norm2
I1203 09:44:18.985461 54779 net.cpp:157] Top shape: 64 256 13 13 (2768896)
I1203 09:44:18.985465 54779 net.cpp:165] Memory required for data: 341793792
I1203 09:44:18.985467 54779 layer_factory.hpp:77] Creating layer conv3
I1203 09:44:18.985479 54779 net.cpp:100] Creating Layer conv3
I1203 09:44:18.985482 54779 net.cpp:434] conv3 <- norm2
I1203 09:44:18.985491 54779 net.cpp:408] conv3 -> conv3
I1203 09:44:18.998106 54779 net.cpp:150] Setting up conv3
I1203 09:44:18.998123 54779 net.cpp:157] Top shape: 64 384 13 13 (4153344)
I1203 09:44:18.998126 54779 net.cpp:165] Memory required for data: 358407168
I1203 09:44:18.998137 54779 layer_factory.hpp:77] Creating layer relu3
I1203 09:44:18.998147 54779 net.cpp:100] Creating Layer relu3
I1203 09:44:18.998149 54779 net.cpp:434] relu3 <- conv3
I1203 09:44:18.998154 54779 net.cpp:395] relu3 -> conv3 (in-place)
I1203 09:44:18.998366 54779 net.cpp:150] Setting up relu3
I1203 09:44:18.998378 54779 net.cpp:157] Top shape: 64 384 13 13 (4153344)
I1203 09:44:18.998381 54779 net.cpp:165] Memory required for data: 375020544
I1203 09:44:18.998384 54779 layer_factory.hpp:77] Creating layer conv4
I1203 09:44:18.998399 54779 net.cpp:100] Creating Layer conv4
I1203 09:44:18.998401 54779 net.cpp:434] conv4 <- conv3
I1203 09:44:18.998406 54779 net.cpp:408] conv4 -> conv4
I1203 09:44:19.009030 54779 net.cpp:150] Setting up conv4
I1203 09:44:19.009047 54779 net.cpp:157] Top shape: 64 384 13 13 (4153344)
I1203 09:44:19.009050 54779 net.cpp:165] Memory required for data: 391633920
I1203 09:44:19.009057 54779 layer_factory.hpp:77] Creating layer relu4
I1203 09:44:19.009063 54779 net.cpp:100] Creating Layer relu4
I1203 09:44:19.009073 54779 net.cpp:434] relu4 <- conv4
I1203 09:44:19.009078 54779 net.cpp:395] relu4 -> conv4 (in-place)
I1203 09:44:19.009282 54779 net.cpp:150] Setting up relu4
I1203 09:44:19.009297 54779 net.cpp:157] Top shape: 64 384 13 13 (4153344)
I1203 09:44:19.009300 54779 net.cpp:165] Memory required for data: 408247296
I1203 09:44:19.009304 54779 layer_factory.hpp:77] Creating layer conv5
I1203 09:44:19.009333 54779 net.cpp:100] Creating Layer conv5
I1203 09:44:19.009337 54779 net.cpp:434] conv5 <- conv4
I1203 09:44:19.009342 54779 net.cpp:408] conv5 -> conv5
I1203 09:44:19.017518 54779 net.cpp:150] Setting up conv5
I1203 09:44:19.017534 54779 net.cpp:157] Top shape: 64 256 13 13 (2768896)
I1203 09:44:19.017537 54779 net.cpp:165] Memory required for data: 419322880
I1203 09:44:19.017549 54779 layer_factory.hpp:77] Creating layer relu5
I1203 09:44:19.017555 54779 net.cpp:100] Creating Layer relu5
I1203 09:44:19.017559 54779 net.cpp:434] relu5 <- conv5
I1203 09:44:19.017566 54779 net.cpp:395] relu5 -> conv5 (in-place)
I1203 09:44:19.017925 54779 net.cpp:150] Setting up relu5
I1203 09:44:19.017940 54779 net.cpp:157] Top shape: 64 256 13 13 (2768896)
I1203 09:44:19.017942 54779 net.cpp:165] Memory required for data: 430398464
I1203 09:44:19.017946 54779 layer_factory.hpp:77] Creating layer pool5
I1203 09:44:19.017954 54779 net.cpp:100] Creating Layer pool5
I1203 09:44:19.017957 54779 net.cpp:434] pool5 <- conv5
I1203 09:44:19.017963 54779 net.cpp:408] pool5 -> pool5
I1203 09:44:19.018015 54779 net.cpp:150] Setting up pool5
I1203 09:44:19.018021 54779 net.cpp:157] Top shape: 64 256 6 6 (589824)
I1203 09:44:19.018023 54779 net.cpp:165] Memory required for data: 432757760
I1203 09:44:19.018026 54779 layer_factory.hpp:77] Creating layer fc6
I1203 09:44:19.018038 54779 net.cpp:100] Creating Layer fc6
I1203 09:44:19.018040 54779 net.cpp:434] fc6 <- pool5
I1203 09:44:19.018048 54779 net.cpp:408] fc6 -> fc6
I1203 09:44:19.471331 54779 net.cpp:150] Setting up fc6
I1203 09:44:19.471367 54779 net.cpp:157] Top shape: 64 4096 (262144)
I1203 09:44:19.471370 54779 net.cpp:165] Memory required for data: 433806336
I1203 09:44:19.471386 54779 layer_factory.hpp:77] Creating layer relu6
I1203 09:44:19.471403 54779 net.cpp:100] Creating Layer relu6
I1203 09:44:19.471406 54779 net.cpp:434] relu6 <- fc6
I1203 09:44:19.471415 54779 net.cpp:395] relu6 -> fc6 (in-place)
I1203 09:44:19.471983 54779 net.cpp:150] Setting up relu6
I1203 09:44:19.471995 54779 net.cpp:157] Top shape: 64 4096 (262144)
I1203 09:44:19.471997 54779 net.cpp:165] Memory required for data: 434854912
I1203 09:44:19.472002 54779 layer_factory.hpp:77] Creating layer drop6
I1203 09:44:19.472012 54779 net.cpp:100] Creating Layer drop6
I1203 09:44:19.472014 54779 net.cpp:434] drop6 <- fc6
I1203 09:44:19.472018 54779 net.cpp:395] drop6 -> fc6 (in-place)
I1203 09:44:19.472050 54779 net.cpp:150] Setting up drop6
I1203 09:44:19.472054 54779 net.cpp:157] Top shape: 64 4096 (262144)
I1203 09:44:19.472056 54779 net.cpp:165] Memory required for data: 435903488
I1203 09:44:19.472059 54779 layer_factory.hpp:77] Creating layer fc7
I1203 09:44:19.472069 54779 net.cpp:100] Creating Layer fc7
I1203 09:44:19.472070 54779 net.cpp:434] fc7 <- fc6
I1203 09:44:19.472074 54779 net.cpp:408] fc7 -> fc7
I1203 09:44:19.652631 54779 net.cpp:150] Setting up fc7
I1203 09:44:19.652667 54779 net.cpp:157] Top shape: 64 4096 (262144)
I1203 09:44:19.652669 54779 net.cpp:165] Memory required for data: 436952064
I1203 09:44:19.652680 54779 layer_factory.hpp:77] Creating layer relu7
I1203 09:44:19.652691 54779 net.cpp:100] Creating Layer relu7
I1203 09:44:19.652694 54779 net.cpp:434] relu7 <- fc7
I1203 09:44:19.652700 54779 net.cpp:395] relu7 -> fc7 (in-place)
I1203 09:44:19.653208 54779 net.cpp:150] Setting up relu7
I1203 09:44:19.653220 54779 net.cpp:157] Top shape: 64 4096 (262144)
I1203 09:44:19.653223 54779 net.cpp:165] Memory required for data: 438000640
I1203 09:44:19.653225 54779 layer_factory.hpp:77] Creating layer drop7
I1203 09:44:19.653237 54779 net.cpp:100] Creating Layer drop7
I1203 09:44:19.653239 54779 net.cpp:434] drop7 <- fc7
I1203 09:44:19.653244 54779 net.cpp:395] drop7 -> fc7 (in-place)
I1203 09:44:19.653280 54779 net.cpp:150] Setting up drop7
I1203 09:44:19.653296 54779 net.cpp:157] Top shape: 64 4096 (262144)
I1203 09:44:19.653298 54779 net.cpp:165] Memory required for data: 439049216
I1203 09:44:19.653301 54779 layer_factory.hpp:77] Creating layer fc8_2
I1203 09:44:19.653308 54779 net.cpp:100] Creating Layer fc8_2
I1203 09:44:19.655172 54779 net.cpp:434] fc8_2 <- fc7
I1203 09:44:19.655225 54779 net.cpp:408] fc8_2 -> fc8_2
I1203 09:44:19.656875 54779 net.cpp:150] Setting up fc8_2
I1203 09:44:19.656908 54779 net.cpp:157] Top shape: 64 2 (128)
I1203 09:44:19.656913 54779 net.cpp:165] Memory required for data: 439049728
I1203 09:44:19.656929 54779 layer_factory.hpp:77] Creating layer loss
I1203 09:44:19.656944 54779 net.cpp:100] Creating Layer loss
I1203 09:44:19.656949 54779 net.cpp:434] loss <- fc8_2
I1203 09:44:19.656957 54779 net.cpp:434] loss <- label
I1203 09:44:19.656970 54779 net.cpp:408] loss -> loss
I1203 09:44:19.656997 54779 layer_factory.hpp:77] Creating layer loss
…
I1203 09:44:19.659229 54779 net.cpp:322] The NetState phase (1) differed from the phase (0) specified by a rule in layer data
I1203 09:44:19.659601 54779 net.cpp:58] Initializing net from parameters: 
name: "VideoPopularityCaffeNet"
state {
  phase: TEST
}
layer {
  name: "data"
  type: "Data"
  top: "data"
  top: "label"
  include {
    phase: TEST
  }
  transform_param {
    mirror: false
    crop_size: 227
    mean_file: "/home/tbochens/Nets/FineTuning/imagenet_mean.binaryproto"
  }
  data_param {
    source: "val_thumb_2_lmdb.2"
    batch_size: 64
    backend: LMDB
  }
}
layer {
  name: "conv1"
  type: "Convolution"
  bottom: "data"
  top: "conv1"
  param {
    lr_mult: 1
    decay_mult: 1
  }
  param {
    lr_mult: 2
    decay_mult: 0
  }
  convolution_param {
    num_output: 96
    kernel_size: 11
    stride: 4
    weight_filler {
      type: "gaussian"
      std: 0.01
    }
    bias_filler {
      type: "constant"
      value: 0
    }
  }
}
layer {
  name: "relu1"
  type: "ReLU"
  bottom: "conv1"
  top: "conv1"
}
layer {
  name: "pool1"
  type: "Pooling"
  bottom: "conv1"
  top: "pool1"
  pooling_param {
    pool: MAX
    kernel_size: 3
    stride: 2
  }
}
layer {
  name: "norm1"
  type: "LRN"
  bottom: "pool1"
  top: "norm1"
  lrn_param {
    local_size: 5
    alpha: 0.0001
    beta: 0.75
  }
}
layer {
  name: "conv2"
  type: "Convolution"
  bottom: "norm1"
  top: "conv2"
  param {
    lr_mult: 1
    decay_mult: 1
  }
  param {
    lr_mult: 2
    decay_mult: 0
  }
  convolution_param {
    num_output: 256
    pad: 2
    kernel_size: 5
    group: 2
    weight_filler {
      type: "gaussian"
      std: 0.01
    }
    bias_filler {
      type: "constant"
      value: 1
    }
  }
}
layer {
  name: "relu2"
  type: "ReLU"
  bottom: "conv2"
  top: "conv2"
}
layer {
  name: "pool2"
  type: "Pooling"
  bottom: "conv2"
  top: "pool2"
  pooling_param {
    pool: MAX
    kernel_size: 3
    stride: 2
  }
}
layer {
  name: "norm2"
  type: "LRN"
  bottom: "pool2"
  top: "norm2"
  lrn_param {
    local_size: 5
    alpha: 0.0001
    beta: 0.75
  }
}
layer {
  name: "conv3"
  type: "Convolution"
  bottom: "norm2"
  top: "conv3"
  param {
    lr_mult: 1
    decay_mult: 1
  }
  param {
    lr_mult: 2
    decay_mult: 0
  }
  convolution_param {
    num_output: 384
    pad: 1
    kernel_size: 3
    weight_filler {
      type: "gaussian"
      std: 0.01
    }
    bias_filler {
      type: "constant"
      value: 0
    }
  }
}
layer {
  name: "relu3"
  type: "ReLU"
  bottom: "conv3"
  top: "conv3"
}
layer {
  name: "conv4"
  type: "Convolution"
  bottom: "conv3"
  top: "conv4"
  param {
    lr_mult: 1
    decay_mult: 1
  }
  param {
    lr_mult: 2
    decay_mult: 0
  }
  convolution_param {
    num_output: 384
    pad: 1
    kernel_size: 3
    group: 2
    weight_filler {
      type: "gaussian"
      std: 0.01
    }
    bias_filler {
      type: "constant"
      value: 1
    }
  }
}
layer {
  name: "relu4"
  type: "ReLU"
  bottom: "conv4"
  top: "conv4"
}
layer {
  name: "conv5"
  type: "Convolution"
  bottom: "conv4"
  top: "conv5"
  param {
    lr_mult: 1
    decay_mult: 1
  }
  param {
    lr_mult: 2
    decay_mult: 0
  }
  convolution_param {
    num_output: 256
    pad: 1
    kernel_size: 3
    group: 2
    weight_filler {
      type: "gaussian"
      std: 0.01
    }
    bias_filler {
      type: "constant"
      value: 1
    }
  }
}
layer {
  name: "relu5"
  type: "ReLU"
  bottom: "conv5"
  top: "conv5"
}
layer {
  name: "pool5"
  type: "Pooling"
  bottom: "conv5"
  top: "pool5"
  pooling_param {
    pool: MAX
    kernel_size: 3
    stride: 2
  }
}
layer {
  name: "fc6"
  type: "InnerProduct"
  bottom: "pool5"
  top: "fc6"
  param {
    lr_mult: 1
    decay_mult: 1
  }
  param {
    lr_mult: 2
    decay_mult: 0
  }
  inner_product_param {
    num_output: 4096
    weight_filler {
      type: "gaussian"
      std: 0.005
    }
    bias_filler {
      type: "constant"
      value: 1
    }
  }
}
layer {
  name: "relu6"
  type: "ReLU"
  bottom: "fc6"
  top: "fc6"
}
layer {
  name: "drop6"
  type: "Dropout"
  bottom: "fc6"
  top: "fc6"
  dropout_param {
    dropout_ratio: 0.5
  }
}
layer {
  name: "fc7"
  type: "InnerProduct"
  bottom: "fc6"
  top: "fc7"
  param {
    lr_mult: 1
    decay_mult: 1
  }
  param {
    lr_mult: 2
    decay_mult: 0
  }
  inner_product_param {
    num_output: 4096
    weight_filler {
      type: "gaussian"
      std: 0.005
    }
    bias_filler {
      type: "constant"
      value: 1
    }
  }
}
layer {
  name: "relu7"
  type: "ReLU"
  bottom: "fc7"
  top: "fc7"
}
layer {
  name: "drop7"
  type: "Dropout"
  bottom: "fc7"
  top: "fc7"
  dropout_param {
    dropout_ratio: 0.5
  }
}
layer {
  name: "fc8_2"
  type: "InnerProduct"
  bottom: "fc7"
  top: "fc8_2"
  param {
    lr_mult: 5
    decay_mult: 1
  }
  param {
    lr_mult: 10
    decay_mult: 0
  }
  inner_product_param {
    num_output: 2
    weight_filler {
      type: "gaussian"
      std: 0.01
    }
    bias_filler {
      type: "constant"
      value: 0
    }
  }
}
layer {
  name: "accuracy"
  type: "Accuracy"
  bottom: "fc8_2"
  bottom: "label"
  top: "accuracy"
  include {
    phase: TEST
  }
}
layer {
  name: "loss"
  type: "SoftmaxWithLoss"
  bottom: "fc8_2"
  bottom: "label"
  top: "loss"
}
I1203 09:44:19.659870 54779 layer_factory.hpp:77] Creating layer data
I1203 09:44:19.660099 54779 net.cpp:100] Creating Layer data
I1203 09:44:19.660115 54779 net.cpp:408] data -> data
I1203 09:44:19.660133 54779 net.cpp:408] data -> label
I1203 09:44:19.660152 54779 data_transformer.cpp:25] Loading mean file from: /home/tbochens/Nets/FineTuning/imagenet_mean.binaryproto
I1203 09:44:19.661643 54789 db_lmdb.cpp:35] Opened lmdb val_thumb_2_lmdb.2
I1203 09:44:19.665501 54779 data_layer.cpp:41] output data size: 64,3,227,227
I1203 09:44:19.782946 54779 net.cpp:150] Setting up data
I1203 09:44:19.783074 54779 net.cpp:157] Top shape: 64 3 227 227 (9893568)
I1203 09:44:19.783082 54779 net.cpp:157] Top shape: 64 (64)
I1203 09:44:19.783083 54779 net.cpp:165] Memory required for data: 39574528
I1203 09:44:19.783092 54779 layer_factory.hpp:77] Creating layer label_data_1_split
I1203 09:44:19.783131 54779 net.cpp:100] Creating Layer label_data_1_split
I1203 09:44:19.783148 54779 net.cpp:434] label_data_1_split <- label
I1203 09:44:19.783159 54779 net.cpp:408] label_data_1_split -> label_data_1_split_0
I1203 09:44:19.783170 54779 net.cpp:408] label_data_1_split -> label_data_1_split_1
I1203 09:44:19.783359 54779 net.cpp:150] Setting up label_data_1_split
I1203 09:44:19.783370 54779 net.cpp:157] Top shape: 64 (64)
I1203 09:44:19.783373 54779 net.cpp:157] Top shape: 64 (64)
I1203 09:44:19.783376 54779 net.cpp:165] Memory required for data: 39575040
I1203 09:44:19.783380 54779 layer_factory.hpp:77] Creating layer conv1
I1203 09:44:19.783397 54779 net.cpp:100] Creating Layer conv1
I1203 09:44:19.783401 54779 net.cpp:434] conv1 <- data
I1203 09:44:19.783408 54779 net.cpp:408] conv1 -> conv1
I1203 09:44:19.793247 54779 net.cpp:150] Setting up conv1
I1203 09:44:19.793269 54779 net.cpp:157] Top shape: 64 96 55 55 (18585600)
I1203 09:44:19.793273 54779 net.cpp:165] Memory required for data: 113917440
I1203 09:44:19.793288 54779 layer_factory.hpp:77] Creating layer relu1
I1203 09:44:19.793298 54779 net.cpp:100] Creating Layer relu1
I1203 09:44:19.793303 54779 net.cpp:434] relu1 <- conv1
I1203 09:44:19.793308 54779 net.cpp:395] relu1 -> conv1 (in-place)
I1203 09:44:19.793735 54779 net.cpp:150] Setting up relu1
I1203 09:44:19.793753 54779 net.cpp:157] Top shape: 64 96 55 55 (18585600)
I1203 09:44:19.793756 54779 net.cpp:165] Memory required for data: 188259840
I1203 09:44:19.793761 54779 layer_factory.hpp:77] Creating layer pool1
I1203 09:44:19.793773 54779 net.cpp:100] Creating Layer pool1
I1203 09:44:19.793777 54779 net.cpp:434] pool1 <- conv1
I1203 09:44:19.793783 54779 net.cpp:408] pool1 -> pool1
I1203 09:44:19.793850 54779 net.cpp:150] Setting up pool1
I1203 09:44:19.793860 54779 net.cpp:157] Top shape: 64 96 27 27 (4478976)
I1203 09:44:19.793864 54779 net.cpp:165] Memory required for data: 206175744
I1203 09:44:19.793866 54779 layer_factory.hpp:77] Creating layer norm1
I1203 09:44:19.793875 54779 net.cpp:100] Creating Layer norm1
I1203 09:44:19.793879 54779 net.cpp:434] norm1 <- pool1
I1203 09:44:19.793885 54779 net.cpp:408] norm1 -> norm1
I1203 09:44:19.794152 54779 net.cpp:150] Setting up norm1
I1203 09:44:19.794165 54779 net.cpp:157] Top shape: 64 96 27 27 (4478976)
I1203 09:44:19.794169 54779 net.cpp:165] Memory required for data: 224091648
I1203 09:44:19.794173 54779 layer_factory.hpp:77] Creating layer conv2
I1203 09:44:19.794184 54779 net.cpp:100] Creating Layer conv2
I1203 09:44:19.794188 54779 net.cpp:434] conv2 <- norm1
I1203 09:44:19.794196 54779 net.cpp:408] conv2 -> conv2
I1203 09:44:19.801345 54779 net.cpp:150] Setting up conv2
I1203 09:44:19.801368 54779 net.cpp:157] Top shape: 64 256 27 27 (11943936)
I1203 09:44:19.801373 54779 net.cpp:165] Memory required for data: 271867392
I1203 09:44:19.801383 54779 layer_factory.hpp:77] Creating layer relu2
I1203 09:44:19.801393 54779 net.cpp:100] Creating Layer relu2
I1203 09:44:19.801395 54779 net.cpp:434] relu2 <- conv2
I1203 09:44:19.801403 54779 net.cpp:395] relu2 -> conv2 (in-place)
I1203 09:44:19.801723 54779 net.cpp:150] Setting up relu2
I1203 09:44:19.801764 54779 net.cpp:157] Top shape: 64 256 27 27 (11943936)
I1203 09:44:19.801767 54779 net.cpp:165] Memory required for data: 319643136
I1203 09:44:19.801770 54779 layer_factory.hpp:77] Creating layer pool2
I1203 09:44:19.801782 54779 net.cpp:100] Creating Layer pool2
I1203 09:44:19.801785 54779 net.cpp:434] pool2 <- conv2
I1203 09:44:19.801791 54779 net.cpp:408] pool2 -> pool2
I1203 09:44:19.801868 54779 net.cpp:150] Setting up pool2
I1203 09:44:19.801878 54779 net.cpp:157] Top shape: 64 256 13 13 (2768896)
I1203 09:44:19.801882 54779 net.cpp:165] Memory required for data: 330718720
I1203 09:44:19.801884 54779 layer_factory.hpp:77] Creating layer norm2
I1203 09:44:19.801892 54779 net.cpp:100] Creating Layer norm2
I1203 09:44:19.801894 54779 net.cpp:434] norm2 <- pool2
I1203 09:44:19.801900 54779 net.cpp:408] norm2 -> norm2
I1203 09:44:19.802383 54779 net.cpp:150] Setting up norm2
I1203 09:44:19.802403 54779 net.cpp:157] Top shape: 64 256 13 13 (2768896)
I1203 09:44:19.802407 54779 net.cpp:165] Memory required for data: 341794304
I1203 09:44:19.802410 54779 layer_factory.hpp:77] Creating layer conv3
I1203 09:44:19.802423 54779 net.cpp:100] Creating Layer conv3
I1203 09:44:19.802426 54779 net.cpp:434] conv3 <- norm2
I1203 09:44:19.802436 54779 net.cpp:408] conv3 -> conv3
I1203 09:44:19.816998 54779 net.cpp:150] Setting up conv3
I1203 09:44:19.817019 54779 net.cpp:157] Top shape: 64 384 13 13 (4153344)
I1203 09:44:19.817023 54779 net.cpp:165] Memory required for data: 358407680
I1203 09:44:19.817035 54779 layer_factory.hpp:77] Creating layer relu3
I1203 09:44:19.817044 54779 net.cpp:100] Creating Layer relu3
I1203 09:44:19.817049 54779 net.cpp:434] relu3 <- conv3
I1203 09:44:19.817054 54779 net.cpp:395] relu3 -> conv3 (in-place)
I1203 09:44:19.817282 54779 net.cpp:150] Setting up relu3
I1203 09:44:19.817296 54779 net.cpp:157] Top shape: 64 384 13 13 (4153344)
I1203 09:44:19.817298 54779 net.cpp:165] Memory required for data: 375021056
I1203 09:44:19.817302 54779 layer_factory.hpp:77] Creating layer conv4
I1203 09:44:19.817313 54779 net.cpp:100] Creating Layer conv4
I1203 09:44:19.817317 54779 net.cpp:434] conv4 <- conv3
I1203 09:44:19.817324 54779 net.cpp:408] conv4 -> conv4
I1203 09:44:19.828972 54779 net.cpp:150] Setting up conv4
I1203 09:44:19.828992 54779 net.cpp:157] Top shape: 64 384 13 13 (4153344)
I1203 09:44:19.828996 54779 net.cpp:165] Memory required for data: 391634432
I1203 09:44:19.829004 54779 layer_factory.hpp:77] Creating layer relu4
I1203 09:44:19.829011 54779 net.cpp:100] Creating Layer relu4
I1203 09:44:19.829015 54779 net.cpp:434] relu4 <- conv4
I1203 09:44:19.829021 54779 net.cpp:395] relu4 -> conv4 (in-place)
I1203 09:44:19.829269 54779 net.cpp:150] Setting up relu4
I1203 09:44:19.829284 54779 net.cpp:157] Top shape: 64 384 13 13 (4153344)
I1203 09:44:19.829287 54779 net.cpp:165] Memory required for data: 408247808
I1203 09:44:19.829290 54779 layer_factory.hpp:77] Creating layer conv5
I1203 09:44:19.829300 54779 net.cpp:100] Creating Layer conv5
I1203 09:44:19.829304 54779 net.cpp:434] conv5 <- conv4
I1203 09:44:19.829313 54779 net.cpp:408] conv5 -> conv5
I1203 09:44:19.846097 54779 net.cpp:150] Setting up conv5
I1203 09:44:19.846118 54779 net.cpp:157] Top shape: 64 256 13 13 (2768896)
I1203 09:44:19.846122 54779 net.cpp:165] Memory required for data: 419323392
I1203 09:44:19.846134 54779 layer_factory.hpp:77] Creating layer relu5
I1203 09:44:19.846143 54779 net.cpp:100] Creating Layer relu5
I1203 09:44:19.846146 54779 net.cpp:434] relu5 <- conv5
I1203 09:44:19.846153 54779 net.cpp:395] relu5 -> conv5 (in-place)
I1203 09:44:19.846382 54779 net.cpp:150] Setting up relu5
I1203 09:44:19.846397 54779 net.cpp:157] Top shape: 64 256 13 13 (2768896)
I1203 09:44:19.846400 54779 net.cpp:165] Memory required for data: 430398976
I1203 09:44:19.846403 54779 layer_factory.hpp:77] Creating layer pool5
I1203 09:44:19.846415 54779 net.cpp:100] Creating Layer pool5
I1203 09:44:19.846418 54779 net.cpp:434] pool5 <- conv5
I1203 09:44:19.846423 54779 net.cpp:408] pool5 -> pool5
I1203 09:44:19.846503 54779 net.cpp:150] Setting up pool5
I1203 09:44:19.846518 54779 net.cpp:157] Top shape: 64 256 6 6 (589824)
I1203 09:44:19.846521 54779 net.cpp:165] Memory required for data: 432758272
I1203 09:44:19.846524 54779 layer_factory.hpp:77] Creating layer fc6
I1203 09:44:19.846534 54779 net.cpp:100] Creating Layer fc6
I1203 09:44:19.846536 54779 net.cpp:434] fc6 <- pool5
I1203 09:44:19.846544 54779 net.cpp:408] fc6 -> fc6
I1203 09:44:20.342324 54779 net.cpp:150] Setting up fc6
I1203 09:44:20.342365 54779 net.cpp:157] Top shape: 64 4096 (262144)
I1203 09:44:20.342368 54779 net.cpp:165] Memory required for data: 433806848
I1203 09:44:20.342382 54779 layer_factory.hpp:77] Creating layer relu6
I1203 09:44:20.342396 54779 net.cpp:100] Creating Layer relu6
I1203 09:44:20.342401 54779 net.cpp:434] relu6 <- fc6
I1203 09:44:20.342411 54779 net.cpp:395] relu6 -> fc6 (in-place)
I1203 09:44:20.343065 54779 net.cpp:150] Setting up relu6
I1203 09:44:20.343080 54779 net.cpp:157] Top shape: 64 4096 (262144)
I1203 09:44:20.343083 54779 net.cpp:165] Memory required for data: 434855424
I1203 09:44:20.343086 54779 layer_factory.hpp:77] Creating layer drop6
I1203 09:44:20.343096 54779 net.cpp:100] Creating Layer drop6
I1203 09:44:20.343101 54779 net.cpp:434] drop6 <- fc6
I1203 09:44:20.343106 54779 net.cpp:395] drop6 -> fc6 (in-place)
I1203 09:44:20.343145 54779 net.cpp:150] Setting up drop6
I1203 09:44:20.343154 54779 net.cpp:157] Top shape: 64 4096 (262144)
I1203 09:44:20.343156 54779 net.cpp:165] Memory required for data: 435904000
I1203 09:44:20.343159 54779 layer_factory.hpp:77] Creating layer fc7
I1203 09:44:20.343170 54779 net.cpp:100] Creating Layer fc7
I1203 09:44:20.343173 54779 net.cpp:434] fc7 <- fc6
I1203 09:44:20.343179 54779 net.cpp:408] fc7 -> fc7
I1203 09:44:20.576870 54779 net.cpp:150] Setting up fc7
I1203 09:44:20.576907 54779 net.cpp:157] Top shape: 64 4096 (262144)
I1203 09:44:20.576911 54779 net.cpp:165] Memory required for data: 436952576
I1203 09:44:20.576925 54779 layer_factory.hpp:77] Creating layer relu7
I1203 09:44:20.576939 54779 net.cpp:100] Creating Layer relu7
I1203 09:44:20.576944 54779 net.cpp:434] relu7 <- fc7
I1203 09:44:20.576953 54779 net.cpp:395] relu7 -> fc7 (in-place)
I1203 09:44:20.577272 54779 net.cpp:150] Setting up relu7
I1203 09:44:20.577285 54779 net.cpp:157] Top shape: 64 4096 (262144)
I1203 09:44:20.577286 54779 net.cpp:165] Memory required for data: 438001152
I1203 09:44:20.577289 54779 layer_factory.hpp:77] Creating layer drop7
I1203 09:44:20.577302 54779 net.cpp:100] Creating Layer drop7
I1203 09:44:20.577306 54779 net.cpp:434] drop7 <- fc7
I1203 09:44:20.577311 54779 net.cpp:395] drop7 -> fc7 (in-place)
I1203 09:44:20.577347 54779 net.cpp:150] Setting up drop7
I1203 09:44:20.577353 54779 net.cpp:157] Top shape: 64 4096 (262144)
I1203 09:44:20.577355 54779 net.cpp:165] Memory required for data: 439049728
I1203 09:44:20.577358 54779 layer_factory.hpp:77] Creating layer fc8_2
I1203 09:44:20.577368 54779 net.cpp:100] Creating Layer fc8_2
I1203 09:44:20.577370 54779 net.cpp:434] fc8_2 <- fc7
I1203 09:44:20.577375 54779 net.cpp:408] fc8_2 -> fc8_2
I1203 09:44:20.577600 54779 net.cpp:150] Setting up fc8_2
I1203 09:44:20.577610 54779 net.cpp:157] Top shape: 64 2 (128)
I1203 09:44:20.577613 54779 net.cpp:165] Memory required for data: 439050240
I1203 09:44:20.577618 54779 layer_factory.hpp:77] Creating layer fc8_2_fc8_2_0_split
I1203 09:44:20.577626 54779 net.cpp:100] Creating Layer fc8_2_fc8_2_0_split
I1203 09:44:20.577630 54779 net.cpp:434] fc8_2_fc8_2_0_split <- fc8_2
I1203 09:44:20.577636 54779 net.cpp:408] fc8_2_fc8_2_0_split -> fc8_2_fc8_2_0_split_0
I1203 09:44:20.577642 54779 net.cpp:408] fc8_2_fc8_2_0_split -> fc8_2_fc8_2_0_split_1
I1203 09:44:20.577685 54779 net.cpp:150] Setting up fc8_2_fc8_2_0_split
I1203 09:44:20.577693 54779 net.cpp:157] Top shape: 64 2 (128)
I1203 09:44:20.577697 54779 net.cpp:157] Top shape: 64 2 (128)
I1203 09:44:20.577699 54779 net.cpp:165] Memory required for data: 439051264
I1203 09:44:20.577702 54779 layer_factory.hpp:77] Creating layer accuracy
I1203 09:44:20.577854 54779 net.cpp:100] Creating Layer accuracy
I1203 09:44:20.577890 54779 net.cpp:434] accuracy <- fc8_2_fc8_2_0_split_0
I1203 09:44:20.577903 54779 net.cpp:434] accuracy <- label_data_1_split_0
I1203 09:44:20.577913 54779 net.cpp:408] accuracy -> accuracy
…
