…
I1203 08:30:45.304999 33884 net.cpp:322] The NetState phase (0) differed from the phase (1) specified by a rule in layer accuracy
I1203 08:30:45.305179 33884 net.cpp:58] Initializing net from parameters: 
name: "VideoPopularityCaffeNet"
state {
  phase: TRAIN
  level: 0
  stage: ""
}
layer {
  name: "data"
  type: "Data"
  top: "data"
  top: "label"
  include {
    phase: TRAIN
  }
  transform_param {
    mirror: true
    crop_size: 227
    mean_file: "/home/tbochens/Nets/FineTuning/imagenet_mean.binaryproto"
  }
  data_param {
    source: "train_thumb_2_lmdb.0"
    batch_size: 64
    backend: LMDB
  }
}
layer {
  name: "conv1"
  type: "Convolution"
  bottom: "data"
  top: "conv1"
  param {
    lr_mult: 1
    decay_mult: 1
  }
  param {
    lr_mult: 2
    decay_mult: 0
  }
  convolution_param {
    num_output: 96
    kernel_size: 11
    stride: 4
    weight_filler {
      type: "gaussian"
      std: 0.01
    }
    bias_filler {
      type: "constant"
      value: 0
    }
  }
}
layer {
  name: "relu1"
  type: "ReLU"
  bottom: "conv1"
  top: "conv1"
}
layer {
  name: "pool1"
  type: "Pooling"
  bottom: "conv1"
  top: "pool1"
  pooling_param {
    pool: MAX
    kernel_size: 3
    stride: 2
  }
}
layer {
  name: "norm1"
  type: "LRN"
  bottom: "pool1"
  top: "norm1"
  lrn_param {
    local_size: 5
    alpha: 0.0001
    beta: 0.75
  }
}
layer {
  name: "conv2"
  type: "Convolution"
  bottom: "norm1"
  top: "conv2"
  param {
    lr_mult: 1
    decay_mult: 1
  }
  param {
    lr_mult: 2
    decay_mult: 0
  }
  convolution_param {
    num_output: 256
    pad: 2
    kernel_size: 5
    group: 2
    weight_filler {
      type: "gaussian"
      std: 0.01
    }
    bias_filler {
      type: "constant"
      value: 1
    }
  }
}
layer {
  name: "relu2"
  type: "ReLU"
  bottom: "conv2"
  top: "conv2"
}
layer {
  name: "pool2"
  type: "Pooling"
  bottom: "conv2"
  top: "pool2"
  pooling_param {
    pool: MAX
    kernel_size: 3
    stride: 2
  }
}
layer {
  name: "norm2"
  type: "LRN"
  bottom: "pool2"
  top: "norm2"
  lrn_param {
    local_size: 5
    alpha: 0.0001
    beta: 0.75
  }
}
layer {
  name: "conv3"
  type: "Convolution"
  bottom: "norm2"
  top: "conv3"
  param {
    lr_mult: 1
    decay_mult: 1
  }
  param {
    lr_mult: 2
    decay_mult: 0
  }
  convolution_param {
    num_output: 384
    pad: 1
    kernel_size: 3
    weight_filler {
      type: "gaussian"
      std: 0.01
    }
    bias_filler {
      type: "constant"
      value: 0
    }
  }
}
layer {
  name: "relu3"
  type: "ReLU"
  bottom: "conv3"
  top: "conv3"
}
layer {
  name: "conv4"
  type: "Convolution"
  bottom: "conv3"
  top: "conv4"
  param {
    lr_mult: 1
    decay_mult: 1
  }
  param {
    lr_mult: 2
    decay_mult: 0
  }
  convolution_param {
    num_output: 384
    pad: 1
    kernel_size: 3
    group: 2
    weight_filler {
      type: "gaussian"
      std: 0.01
    }
    bias_filler {
      type: "constant"
      value: 1
    }
  }
}
layer {
  name: "relu4"
  type: "ReLU"
  bottom: "conv4"
  top: "conv4"
}
layer {
  name: "conv5"
  type: "Convolution"
  bottom: "conv4"
  top: "conv5"
  param {
    lr_mult: 1
    decay_mult: 1
  }
  param {
    lr_mult: 2
    decay_mult: 0
  }
  convolution_param {
    num_output: 256
    pad: 1
    kernel_size: 3
    group: 2
    weight_filler {
      type: "gaussian"
      std: 0.01
    }
    bias_filler {
      type: "constant"
      value: 1
    }
  }
}
layer {
  name: "relu5"
  type: "ReLU"
  bottom: "conv5"
  top: "conv5"
}
layer {
  name: "pool5"
  type: "Pooling"
  bottom: "conv5"
  top: "pool5"
  pooling_param {
    pool: MAX
    kernel_size: 3
    stride: 2
  }
}
layer {
  name: "fc6"
  type: "InnerProduct"
  bottom: "pool5"
  top: "fc6"
  param {
    lr_mult: 1
    decay_mult: 1
  }
  param {
    lr_mult: 2
    decay_mult: 0
  }
  inner_product_param {
    num_output: 4096
    weight_filler {
      type: "gaussian"
      std: 0.005
    }
    bias_filler {
      type: "constant"
      value: 1
    }
  }
}
layer {
  name: "relu6"
  type: "ReLU"
  bottom: "fc6"
  top: "fc6"
}
layer {
  name: "drop6"
  type: "Dropout"
  bottom: "fc6"
  top: "fc6"
  dropout_param {
    dropout_ratio: 0.5
  }
}
layer {
  name: "fc7"
  type: "InnerProduct"
  bottom: "fc6"
  top: "fc7"
  param {
    lr_mult: 1
    decay_mult: 1
  }
  param {
    lr_mult: 2
    decay_mult: 0
  }
  inner_product_param {
    num_output: 4096
    weight_filler {
      type: "gaussian"
      std: 0.005
    }
    bias_filler {
      type: "constant"
      value: 1
    }
  }
}
layer {
  name: "relu7"
  type: "ReLU"
  bottom: "fc7"
  top: "fc7"
}
layer {
  name: "drop7"
  type: "Dropout"
  bottom: "fc7"
  top: "fc7"
  dropout_param {
    dropout_ratio: 0.5
  }
}
layer {
  name: "fc8_2"
  type: "InnerProduct"
  bottom: "fc7"
  top: "fc8_2"
  param {
    lr_mult: 5
    decay_mult: 1
  }
  param {
    lr_mult: 10
    decay_mult: 0
  }
  inner_product_param {
    num_output: 2
    weight_filler {
      type: "gaussian"
      std: 0.01
    }
    bias_filler {
      type: "constant"
      value: 0
    }
  }
}
layer {
  name: "loss"
  type: "SoftmaxWithLoss"
  bottom: "fc8_2"
  bottom: "label"
  top: "loss"
}
I1203 08:30:45.305312 33884 layer_factory.hpp:77] Creating layer data
I1203 08:30:45.305487 33884 net.cpp:100] Creating Layer data
I1203 08:30:45.305500 33884 net.cpp:408] data -> data
I1203 08:30:45.305531 33884 net.cpp:408] data -> label
I1203 08:30:45.305596 33884 data_transformer.cpp:25] Loading mean file from: /home/tbochens/Nets/FineTuning/imagenet_mean.binaryproto
I1203 08:30:45.307332 33891 db_lmdb.cpp:35] Opened lmdb train_thumb_2_lmdb.0
I1203 08:30:45.326275 33884 data_layer.cpp:41] output data size: 64,3,227,227
I1203 08:30:45.419359 33884 net.cpp:150] Setting up data
I1203 08:30:45.419402 33884 net.cpp:157] Top shape: 64 3 227 227 (9893568)
I1203 08:30:45.419409 33884 net.cpp:157] Top shape: 64 (64)
I1203 08:30:45.419410 33884 net.cpp:165] Memory required for data: 39574528
I1203 08:30:45.419430 33884 layer_factory.hpp:77] Creating layer conv1
I1203 08:30:45.419464 33884 net.cpp:100] Creating Layer conv1
I1203 08:30:45.419471 33884 net.cpp:434] conv1 <- data
I1203 08:30:45.419492 33884 net.cpp:408] conv1 -> conv1
I1203 08:30:45.715562 33884 net.cpp:150] Setting up conv1
I1203 08:30:45.715605 33884 net.cpp:157] Top shape: 64 96 55 55 (18585600)
I1203 08:30:45.715610 33884 net.cpp:165] Memory required for data: 113916928
I1203 08:30:45.715644 33884 layer_factory.hpp:77] Creating layer relu1
I1203 08:30:45.715661 33884 net.cpp:100] Creating Layer relu1
I1203 08:30:45.715665 33884 net.cpp:434] relu1 <- conv1
I1203 08:30:45.715672 33884 net.cpp:395] relu1 -> conv1 (in-place)
I1203 08:30:45.716019 33884 net.cpp:150] Setting up relu1
I1203 08:30:45.716035 33884 net.cpp:157] Top shape: 64 96 55 55 (18585600)
I1203 08:30:45.716038 33884 net.cpp:165] Memory required for data: 188259328
I1203 08:30:45.716042 33884 layer_factory.hpp:77] Creating layer pool1
I1203 08:30:45.716051 33884 net.cpp:100] Creating Layer pool1
I1203 08:30:45.716054 33884 net.cpp:434] pool1 <- conv1
I1203 08:30:45.716060 33884 net.cpp:408] pool1 -> pool1
I1203 08:30:45.716120 33884 net.cpp:150] Setting up pool1
I1203 08:30:45.716130 33884 net.cpp:157] Top shape: 64 96 27 27 (4478976)
I1203 08:30:45.716133 33884 net.cpp:165] Memory required for data: 206175232
I1203 08:30:45.716136 33884 layer_factory.hpp:77] Creating layer norm1
I1203 08:30:45.716150 33884 net.cpp:100] Creating Layer norm1
I1203 08:30:45.716152 33884 net.cpp:434] norm1 <- pool1
I1203 08:30:45.716178 33884 net.cpp:408] norm1 -> norm1
I1203 08:30:45.716392 33884 net.cpp:150] Setting up norm1
I1203 08:30:45.716405 33884 net.cpp:157] Top shape: 64 96 27 27 (4478976)
I1203 08:30:45.716408 33884 net.cpp:165] Memory required for data: 224091136
I1203 08:30:45.716411 33884 layer_factory.hpp:77] Creating layer conv2
I1203 08:30:45.716425 33884 net.cpp:100] Creating Layer conv2
I1203 08:30:45.716428 33884 net.cpp:434] conv2 <- norm1
I1203 08:30:45.716434 33884 net.cpp:408] conv2 -> conv2
I1203 08:30:45.723006 33884 net.cpp:150] Setting up conv2
I1203 08:30:45.723023 33884 net.cpp:157] Top shape: 64 256 27 27 (11943936)
I1203 08:30:45.723026 33884 net.cpp:165] Memory required for data: 271866880
I1203 08:30:45.723037 33884 layer_factory.hpp:77] Creating layer relu2
I1203 08:30:45.723045 33884 net.cpp:100] Creating Layer relu2
I1203 08:30:45.723048 33884 net.cpp:434] relu2 <- conv2
I1203 08:30:45.723054 33884 net.cpp:395] relu2 -> conv2 (in-place)
I1203 08:30:45.723258 33884 net.cpp:150] Setting up relu2
I1203 08:30:45.723269 33884 net.cpp:157] Top shape: 64 256 27 27 (11943936)
I1203 08:30:45.723273 33884 net.cpp:165] Memory required for data: 319642624
I1203 08:30:45.723276 33884 layer_factory.hpp:77] Creating layer pool2
I1203 08:30:45.723282 33884 net.cpp:100] Creating Layer pool2
I1203 08:30:45.723285 33884 net.cpp:434] pool2 <- conv2
I1203 08:30:45.723292 33884 net.cpp:408] pool2 -> pool2
I1203 08:30:45.723341 33884 net.cpp:150] Setting up pool2
I1203 08:30:45.723351 33884 net.cpp:157] Top shape: 64 256 13 13 (2768896)
I1203 08:30:45.723354 33884 net.cpp:165] Memory required for data: 330718208
I1203 08:30:45.723357 33884 layer_factory.hpp:77] Creating layer norm2
I1203 08:30:45.723366 33884 net.cpp:100] Creating Layer norm2
I1203 08:30:45.723369 33884 net.cpp:434] norm2 <- pool2
I1203 08:30:45.723374 33884 net.cpp:408] norm2 -> norm2
I1203 08:30:45.723747 33884 net.cpp:150] Setting up norm2
I1203 08:30:45.723762 33884 net.cpp:157] Top shape: 64 256 13 13 (2768896)
I1203 08:30:45.723764 33884 net.cpp:165] Memory required for data: 341793792
I1203 08:30:45.723767 33884 layer_factory.hpp:77] Creating layer conv3
I1203 08:30:45.723780 33884 net.cpp:100] Creating Layer conv3
I1203 08:30:45.723783 33884 net.cpp:434] conv3 <- norm2
I1203 08:30:45.723791 33884 net.cpp:408] conv3 -> conv3
I1203 08:30:45.736408 33884 net.cpp:150] Setting up conv3
I1203 08:30:45.736426 33884 net.cpp:157] Top shape: 64 384 13 13 (4153344)
I1203 08:30:45.736429 33884 net.cpp:165] Memory required for data: 358407168
I1203 08:30:45.736439 33884 layer_factory.hpp:77] Creating layer relu3
I1203 08:30:45.736446 33884 net.cpp:100] Creating Layer relu3
I1203 08:30:45.736449 33884 net.cpp:434] relu3 <- conv3
I1203 08:30:45.736457 33884 net.cpp:395] relu3 -> conv3 (in-place)
I1203 08:30:45.736662 33884 net.cpp:150] Setting up relu3
I1203 08:30:45.736675 33884 net.cpp:157] Top shape: 64 384 13 13 (4153344)
I1203 08:30:45.736677 33884 net.cpp:165] Memory required for data: 375020544
I1203 08:30:45.736680 33884 layer_factory.hpp:77] Creating layer conv4
I1203 08:30:45.736691 33884 net.cpp:100] Creating Layer conv4
I1203 08:30:45.736695 33884 net.cpp:434] conv4 <- conv3
I1203 08:30:45.736701 33884 net.cpp:408] conv4 -> conv4
I1203 08:30:45.747247 33884 net.cpp:150] Setting up conv4
I1203 08:30:45.747265 33884 net.cpp:157] Top shape: 64 384 13 13 (4153344)
I1203 08:30:45.747268 33884 net.cpp:165] Memory required for data: 391633920
I1203 08:30:45.747275 33884 layer_factory.hpp:77] Creating layer relu4
I1203 08:30:45.747282 33884 net.cpp:100] Creating Layer relu4
I1203 08:30:45.747285 33884 net.cpp:434] relu4 <- conv4
I1203 08:30:45.747292 33884 net.cpp:395] relu4 -> conv4 (in-place)
I1203 08:30:45.747491 33884 net.cpp:150] Setting up relu4
I1203 08:30:45.747503 33884 net.cpp:157] Top shape: 64 384 13 13 (4153344)
I1203 08:30:45.747505 33884 net.cpp:165] Memory required for data: 408247296
I1203 08:30:45.747509 33884 layer_factory.hpp:77] Creating layer conv5
I1203 08:30:45.747520 33884 net.cpp:100] Creating Layer conv5
I1203 08:30:45.747524 33884 net.cpp:434] conv5 <- conv4
I1203 08:30:45.747545 33884 net.cpp:408] conv5 -> conv5
I1203 08:30:45.755455 33884 net.cpp:150] Setting up conv5
I1203 08:30:45.755475 33884 net.cpp:157] Top shape: 64 256 13 13 (2768896)
I1203 08:30:45.755477 33884 net.cpp:165] Memory required for data: 419322880
I1203 08:30:45.755488 33884 layer_factory.hpp:77] Creating layer relu5
I1203 08:30:45.755496 33884 net.cpp:100] Creating Layer relu5
I1203 08:30:45.755498 33884 net.cpp:434] relu5 <- conv5
I1203 08:30:45.755506 33884 net.cpp:395] relu5 -> conv5 (in-place)
I1203 08:30:45.755856 33884 net.cpp:150] Setting up relu5
I1203 08:30:45.755870 33884 net.cpp:157] Top shape: 64 256 13 13 (2768896)
I1203 08:30:45.755872 33884 net.cpp:165] Memory required for data: 430398464
I1203 08:30:45.755877 33884 layer_factory.hpp:77] Creating layer pool5
I1203 08:30:45.755885 33884 net.cpp:100] Creating Layer pool5
I1203 08:30:45.755888 33884 net.cpp:434] pool5 <- conv5
I1203 08:30:45.755893 33884 net.cpp:408] pool5 -> pool5
I1203 08:30:45.755947 33884 net.cpp:150] Setting up pool5
I1203 08:30:45.755954 33884 net.cpp:157] Top shape: 64 256 6 6 (589824)
I1203 08:30:45.755956 33884 net.cpp:165] Memory required for data: 432757760
I1203 08:30:45.755959 33884 layer_factory.hpp:77] Creating layer fc6
I1203 08:30:45.755970 33884 net.cpp:100] Creating Layer fc6
I1203 08:30:45.755973 33884 net.cpp:434] fc6 <- pool5
I1203 08:30:45.755978 33884 net.cpp:408] fc6 -> fc6
I1203 08:30:46.244525 33884 net.cpp:150] Setting up fc6
I1203 08:30:46.244598 33884 net.cpp:157] Top shape: 64 4096 (262144)
I1203 08:30:46.244602 33884 net.cpp:165] Memory required for data: 433806336
I1203 08:30:46.244629 33884 layer_factory.hpp:77] Creating layer relu6
I1203 08:30:46.244689 33884 net.cpp:100] Creating Layer relu6
I1203 08:30:46.244724 33884 net.cpp:434] relu6 <- fc6
I1203 08:30:46.244735 33884 net.cpp:395] relu6 -> fc6 (in-place)
I1203 08:30:46.245164 33884 net.cpp:150] Setting up relu6
I1203 08:30:46.245173 33884 net.cpp:157] Top shape: 64 4096 (262144)
I1203 08:30:46.245187 33884 net.cpp:165] Memory required for data: 434854912
I1203 08:30:46.245189 33884 layer_factory.hpp:77] Creating layer drop6
I1203 08:30:46.245209 33884 net.cpp:100] Creating Layer drop6
I1203 08:30:46.245213 33884 net.cpp:434] drop6 <- fc6
I1203 08:30:46.245216 33884 net.cpp:395] drop6 -> fc6 (in-place)
I1203 08:30:46.245260 33884 net.cpp:150] Setting up drop6
I1203 08:30:46.245265 33884 net.cpp:157] Top shape: 64 4096 (262144)
I1203 08:30:46.245268 33884 net.cpp:165] Memory required for data: 435903488
I1203 08:30:46.245270 33884 layer_factory.hpp:77] Creating layer fc7
I1203 08:30:46.245277 33884 net.cpp:100] Creating Layer fc7
I1203 08:30:46.245280 33884 net.cpp:434] fc7 <- fc6
I1203 08:30:46.245285 33884 net.cpp:408] fc7 -> fc7
I1203 08:30:46.421746 33884 net.cpp:150] Setting up fc7
I1203 08:30:46.421804 33884 net.cpp:157] Top shape: 64 4096 (262144)
I1203 08:30:46.421808 33884 net.cpp:165] Memory required for data: 436952064
I1203 08:30:46.421819 33884 layer_factory.hpp:77] Creating layer relu7
I1203 08:30:46.421838 33884 net.cpp:100] Creating Layer relu7
I1203 08:30:46.421841 33884 net.cpp:434] relu7 <- fc7
I1203 08:30:46.421849 33884 net.cpp:395] relu7 -> fc7 (in-place)
I1203 08:30:46.422428 33884 net.cpp:150] Setting up relu7
I1203 08:30:46.422441 33884 net.cpp:157] Top shape: 64 4096 (262144)
I1203 08:30:46.422442 33884 net.cpp:165] Memory required for data: 438000640
I1203 08:30:46.422446 33884 layer_factory.hpp:77] Creating layer drop7
I1203 08:30:46.422453 33884 net.cpp:100] Creating Layer drop7
I1203 08:30:46.422456 33884 net.cpp:434] drop7 <- fc7
I1203 08:30:46.422473 33884 net.cpp:395] drop7 -> fc7 (in-place)
I1203 08:30:46.422502 33884 net.cpp:150] Setting up drop7
I1203 08:30:46.422508 33884 net.cpp:157] Top shape: 64 4096 (262144)
I1203 08:30:46.422509 33884 net.cpp:165] Memory required for data: 439049216
I1203 08:30:46.422511 33884 layer_factory.hpp:77] Creating layer fc8_2
I1203 08:30:46.422518 33884 net.cpp:100] Creating Layer fc8_2
I1203 08:30:46.422520 33884 net.cpp:434] fc8_2 <- fc7
I1203 08:30:46.422541 33884 net.cpp:408] fc8_2 -> fc8_2
I1203 08:30:46.423315 33884 net.cpp:150] Setting up fc8_2
I1203 08:30:46.423326 33884 net.cpp:157] Top shape: 64 2 (128)
I1203 08:30:46.423328 33884 net.cpp:165] Memory required for data: 439049728
I1203 08:30:46.423333 33884 layer_factory.hpp:77] Creating layer loss
I1203 08:30:46.423338 33884 net.cpp:100] Creating Layer loss
I1203 08:30:46.423341 33884 net.cpp:434] loss <- fc8_2
I1203 08:30:46.423343 33884 net.cpp:434] loss <- label
I1203 08:30:46.423372 33884 net.cpp:408] loss -> loss
I1203 08:30:46.423408 33884 layer_factory.hpp:77] Creating layer loss
…
I1203 08:30:46.424343 33884 net.cpp:322] The NetState phase (1) differed from the phase (0) specified by a rule in layer data
I1203 08:30:46.424492 33884 net.cpp:58] Initializing net from parameters: 
name: "VideoPopularityCaffeNet"
state {
  phase: TEST
}
layer {
  name: "data"
  type: "Data"
  top: "data"
  top: "label"
  include {
    phase: TEST
  }
  transform_param {
    mirror: false
    crop_size: 227
    mean_file: "/home/tbochens/Nets/FineTuning/imagenet_mean.binaryproto"
  }
  data_param {
    source: "val_thumb_2_lmdb.0"
    batch_size: 64
    backend: LMDB
  }
}
layer {
  name: "conv1"
  type: "Convolution"
  bottom: "data"
  top: "conv1"
  param {
    lr_mult: 1
    decay_mult: 1
  }
  param {
    lr_mult: 2
    decay_mult: 0
  }
  convolution_param {
    num_output: 96
    kernel_size: 11
    stride: 4
    weight_filler {
      type: "gaussian"
      std: 0.01
    }
    bias_filler {
      type: "constant"
      value: 0
    }
  }
}
layer {
  name: "relu1"
  type: "ReLU"
  bottom: "conv1"
  top: "conv1"
}
layer {
  name: "pool1"
  type: "Pooling"
  bottom: "conv1"
  top: "pool1"
  pooling_param {
    pool: MAX
    kernel_size: 3
    stride: 2
  }
}
layer {
  name: "norm1"
  type: "LRN"
  bottom: "pool1"
  top: "norm1"
  lrn_param {
    local_size: 5
    alpha: 0.0001
    beta: 0.75
  }
}
layer {
  name: "conv2"
  type: "Convolution"
  bottom: "norm1"
  top: "conv2"
  param {
    lr_mult: 1
    decay_mult: 1
  }
  param {
    lr_mult: 2
    decay_mult: 0
  }
  convolution_param {
    num_output: 256
    pad: 2
    kernel_size: 5
    group: 2
    weight_filler {
      type: "gaussian"
      std: 0.01
    }
    bias_filler {
      type: "constant"
      value: 1
    }
  }
}
layer {
  name: "relu2"
  type: "ReLU"
  bottom: "conv2"
  top: "conv2"
}
layer {
  name: "pool2"
  type: "Pooling"
  bottom: "conv2"
  top: "pool2"
  pooling_param {
    pool: MAX
    kernel_size: 3
    stride: 2
  }
}
layer {
  name: "norm2"
  type: "LRN"
  bottom: "pool2"
  top: "norm2"
  lrn_param {
    local_size: 5
    alpha: 0.0001
    beta: 0.75
  }
}
layer {
  name: "conv3"
  type: "Convolution"
  bottom: "norm2"
  top: "conv3"
  param {
    lr_mult: 1
    decay_mult: 1
  }
  param {
    lr_mult: 2
    decay_mult: 0
  }
  convolution_param {
    num_output: 384
    pad: 1
    kernel_size: 3
    weight_filler {
      type: "gaussian"
      std: 0.01
    }
    bias_filler {
      type: "constant"
      value: 0
    }
  }
}
layer {
  name: "relu3"
  type: "ReLU"
  bottom: "conv3"
  top: "conv3"
}
layer {
  name: "conv4"
  type: "Convolution"
  bottom: "conv3"
  top: "conv4"
  param {
    lr_mult: 1
    decay_mult: 1
  }
  param {
    lr_mult: 2
    decay_mult: 0
  }
  convolution_param {
    num_output: 384
    pad: 1
    kernel_size: 3
    group: 2
    weight_filler {
      type: "gaussian"
      std: 0.01
    }
    bias_filler {
      type: "constant"
      value: 1
    }
  }
}
layer {
  name: "relu4"
  type: "ReLU"
  bottom: "conv4"
  top: "conv4"
}
layer {
  name: "conv5"
  type: "Convolution"
  bottom: "conv4"
  top: "conv5"
  param {
    lr_mult: 1
    decay_mult: 1
  }
  param {
    lr_mult: 2
    decay_mult: 0
  }
  convolution_param {
    num_output: 256
    pad: 1
    kernel_size: 3
    group: 2
    weight_filler {
      type: "gaussian"
      std: 0.01
    }
    bias_filler {
      type: "constant"
      value: 1
    }
  }
}
layer {
  name: "relu5"
  type: "ReLU"
  bottom: "conv5"
  top: "conv5"
}
layer {
  name: "pool5"
  type: "Pooling"
  bottom: "conv5"
  top: "pool5"
  pooling_param {
    pool: MAX
    kernel_size: 3
    stride: 2
  }
}
layer {
  name: "fc6"
  type: "InnerProduct"
  bottom: "pool5"
  top: "fc6"
  param {
    lr_mult: 1
    decay_mult: 1
  }
  param {
    lr_mult: 2
    decay_mult: 0
  }
  inner_product_param {
    num_output: 4096
    weight_filler {
      type: "gaussian"
      std: 0.005
    }
    bias_filler {
      type: "constant"
      value: 1
    }
  }
}
layer {
  name: "relu6"
  type: "ReLU"
  bottom: "fc6"
  top: "fc6"
}
layer {
  name: "drop6"
  type: "Dropout"
  bottom: "fc6"
  top: "fc6"
  dropout_param {
    dropout_ratio: 0.5
  }
}
layer {
  name: "fc7"
  type: "InnerProduct"
  bottom: "fc6"
  top: "fc7"
  param {
    lr_mult: 1
    decay_mult: 1
  }
  param {
    lr_mult: 2
    decay_mult: 0
  }
  inner_product_param {
    num_output: 4096
    weight_filler {
      type: "gaussian"
      std: 0.005
    }
    bias_filler {
      type: "constant"
      value: 1
    }
  }
}
layer {
  name: "relu7"
  type: "ReLU"
  bottom: "fc7"
  top: "fc7"
}
layer {
  name: "drop7"
  type: "Dropout"
  bottom: "fc7"
  top: "fc7"
  dropout_param {
    dropout_ratio: 0.5
  }
}
layer {
  name: "fc8_2"
  type: "InnerProduct"
  bottom: "fc7"
  top: "fc8_2"
  param {
    lr_mult: 5
    decay_mult: 1
  }
  param {
    lr_mult: 10
    decay_mult: 0
  }
  inner_product_param {
    num_output: 2
    weight_filler {
      type: "gaussian"
      std: 0.01
    }
    bias_filler {
      type: "constant"
      value: 0
    }
  }
}
layer {
  name: "accuracy"
  type: "Accuracy"
  bottom: "fc8_2"
  bottom: "label"
  top: "accuracy"
  include {
    phase: TEST
  }
}
layer {
  name: "loss"
  type: "SoftmaxWithLoss"
  bottom: "fc8_2"
  bottom: "label"
  top: "loss"
}
I1203 08:30:46.424612 33884 layer_factory.hpp:77] Creating layer data
I1203 08:30:46.424739 33884 net.cpp:100] Creating Layer data
I1203 08:30:46.424746 33884 net.cpp:408] data -> data
I1203 08:30:46.424753 33884 net.cpp:408] data -> label
I1203 08:30:46.424759 33884 data_transformer.cpp:25] Loading mean file from: /home/tbochens/Nets/FineTuning/imagenet_mean.binaryproto
I1203 08:30:46.427039 33893 db_lmdb.cpp:35] Opened lmdb val_thumb_2_lmdb.0
I1203 08:30:46.427683 33884 data_layer.cpp:41] output data size: 64,3,227,227
I1203 08:30:46.516355 33884 net.cpp:150] Setting up data
I1203 08:30:46.516389 33884 net.cpp:157] Top shape: 64 3 227 227 (9893568)
I1203 08:30:46.516393 33884 net.cpp:157] Top shape: 64 (64)
I1203 08:30:46.516396 33884 net.cpp:165] Memory required for data: 39574528
I1203 08:30:46.516402 33884 layer_factory.hpp:77] Creating layer label_data_1_split
I1203 08:30:46.516418 33884 net.cpp:100] Creating Layer label_data_1_split
I1203 08:30:46.516422 33884 net.cpp:434] label_data_1_split <- label
I1203 08:30:46.516428 33884 net.cpp:408] label_data_1_split -> label_data_1_split_0
I1203 08:30:46.516440 33884 net.cpp:408] label_data_1_split -> label_data_1_split_1
I1203 08:30:46.516636 33884 net.cpp:150] Setting up label_data_1_split
I1203 08:30:46.516644 33884 net.cpp:157] Top shape: 64 (64)
I1203 08:30:46.516647 33884 net.cpp:157] Top shape: 64 (64)
I1203 08:30:46.516649 33884 net.cpp:165] Memory required for data: 39575040
I1203 08:30:46.516652 33884 layer_factory.hpp:77] Creating layer conv1
I1203 08:30:46.516666 33884 net.cpp:100] Creating Layer conv1
I1203 08:30:46.516669 33884 net.cpp:434] conv1 <- data
I1203 08:30:46.516674 33884 net.cpp:408] conv1 -> conv1
I1203 08:30:46.518407 33884 net.cpp:150] Setting up conv1
I1203 08:30:46.518430 33884 net.cpp:157] Top shape: 64 96 55 55 (18585600)
I1203 08:30:46.518434 33884 net.cpp:165] Memory required for data: 113917440
I1203 08:30:46.518445 33884 layer_factory.hpp:77] Creating layer relu1
I1203 08:30:46.518452 33884 net.cpp:100] Creating Layer relu1
I1203 08:30:46.518455 33884 net.cpp:434] relu1 <- conv1
I1203 08:30:46.518471 33884 net.cpp:395] relu1 -> conv1 (in-place)
I1203 08:30:46.524950 33884 net.cpp:150] Setting up relu1
I1203 08:30:46.524965 33884 net.cpp:157] Top shape: 64 96 55 55 (18585600)
I1203 08:30:46.524967 33884 net.cpp:165] Memory required for data: 188259840
I1203 08:30:46.524971 33884 layer_factory.hpp:77] Creating layer pool1
I1203 08:30:46.524981 33884 net.cpp:100] Creating Layer pool1
I1203 08:30:46.524983 33884 net.cpp:434] pool1 <- conv1
I1203 08:30:46.524988 33884 net.cpp:408] pool1 -> pool1
I1203 08:30:46.525048 33884 net.cpp:150] Setting up pool1
I1203 08:30:46.525054 33884 net.cpp:157] Top shape: 64 96 27 27 (4478976)
I1203 08:30:46.525056 33884 net.cpp:165] Memory required for data: 206175744
I1203 08:30:46.525058 33884 layer_factory.hpp:77] Creating layer norm1
I1203 08:30:46.525065 33884 net.cpp:100] Creating Layer norm1
I1203 08:30:46.525068 33884 net.cpp:434] norm1 <- pool1
I1203 08:30:46.525073 33884 net.cpp:408] norm1 -> norm1
I1203 08:30:46.525255 33884 net.cpp:150] Setting up norm1
I1203 08:30:46.525265 33884 net.cpp:157] Top shape: 64 96 27 27 (4478976)
I1203 08:30:46.525267 33884 net.cpp:165] Memory required for data: 224091648
I1203 08:30:46.525270 33884 layer_factory.hpp:77] Creating layer conv2
I1203 08:30:46.525279 33884 net.cpp:100] Creating Layer conv2
I1203 08:30:46.525281 33884 net.cpp:434] conv2 <- norm1
I1203 08:30:46.525287 33884 net.cpp:408] conv2 -> conv2
I1203 08:30:46.530026 33884 net.cpp:150] Setting up conv2
I1203 08:30:46.530040 33884 net.cpp:157] Top shape: 64 256 27 27 (11943936)
I1203 08:30:46.530042 33884 net.cpp:165] Memory required for data: 271867392
I1203 08:30:46.530050 33884 layer_factory.hpp:77] Creating layer relu2
I1203 08:30:46.530055 33884 net.cpp:100] Creating Layer relu2
I1203 08:30:46.530058 33884 net.cpp:434] relu2 <- conv2
I1203 08:30:46.530063 33884 net.cpp:395] relu2 -> conv2 (in-place)
I1203 08:30:46.530246 33884 net.cpp:150] Setting up relu2
I1203 08:30:46.530256 33884 net.cpp:157] Top shape: 64 256 27 27 (11943936)
I1203 08:30:46.530278 33884 net.cpp:165] Memory required for data: 319643136
I1203 08:30:46.530280 33884 layer_factory.hpp:77] Creating layer pool2
I1203 08:30:46.530288 33884 net.cpp:100] Creating Layer pool2
I1203 08:30:46.530292 33884 net.cpp:434] pool2 <- conv2
I1203 08:30:46.530297 33884 net.cpp:408] pool2 -> pool2
I1203 08:30:46.530342 33884 net.cpp:150] Setting up pool2
I1203 08:30:46.530350 33884 net.cpp:157] Top shape: 64 256 13 13 (2768896)
I1203 08:30:46.530354 33884 net.cpp:165] Memory required for data: 330718720
I1203 08:30:46.530362 33884 layer_factory.hpp:77] Creating layer norm2
I1203 08:30:46.530371 33884 net.cpp:100] Creating Layer norm2
I1203 08:30:46.530375 33884 net.cpp:434] norm2 <- pool2
I1203 08:30:46.530380 33884 net.cpp:408] norm2 -> norm2
I1203 08:30:46.530694 33884 net.cpp:150] Setting up norm2
I1203 08:30:46.530705 33884 net.cpp:157] Top shape: 64 256 13 13 (2768896)
I1203 08:30:46.530709 33884 net.cpp:165] Memory required for data: 341794304
I1203 08:30:46.530710 33884 layer_factory.hpp:77] Creating layer conv3
I1203 08:30:46.530730 33884 net.cpp:100] Creating Layer conv3
I1203 08:30:46.530731 33884 net.cpp:434] conv3 <- norm2
I1203 08:30:46.530748 33884 net.cpp:408] conv3 -> conv3
I1203 08:30:46.540536 33884 net.cpp:150] Setting up conv3
I1203 08:30:46.540560 33884 net.cpp:157] Top shape: 64 384 13 13 (4153344)
I1203 08:30:46.540563 33884 net.cpp:165] Memory required for data: 358407680
I1203 08:30:46.540571 33884 layer_factory.hpp:77] Creating layer relu3
I1203 08:30:46.540577 33884 net.cpp:100] Creating Layer relu3
I1203 08:30:46.540580 33884 net.cpp:434] relu3 <- conv3
I1203 08:30:46.540585 33884 net.cpp:395] relu3 -> conv3 (in-place)
I1203 08:30:46.540750 33884 net.cpp:150] Setting up relu3
I1203 08:30:46.540758 33884 net.cpp:157] Top shape: 64 384 13 13 (4153344)
I1203 08:30:46.540761 33884 net.cpp:165] Memory required for data: 375021056
I1203 08:30:46.540763 33884 layer_factory.hpp:77] Creating layer conv4
I1203 08:30:46.540771 33884 net.cpp:100] Creating Layer conv4
I1203 08:30:46.540774 33884 net.cpp:434] conv4 <- conv3
I1203 08:30:46.540781 33884 net.cpp:408] conv4 -> conv4
I1203 08:30:46.549098 33884 net.cpp:150] Setting up conv4
I1203 08:30:46.549110 33884 net.cpp:157] Top shape: 64 384 13 13 (4153344)
I1203 08:30:46.549113 33884 net.cpp:165] Memory required for data: 391634432
I1203 08:30:46.549118 33884 layer_factory.hpp:77] Creating layer relu4
I1203 08:30:46.549124 33884 net.cpp:100] Creating Layer relu4
I1203 08:30:46.549126 33884 net.cpp:434] relu4 <- conv4
I1203 08:30:46.549131 33884 net.cpp:395] relu4 -> conv4 (in-place)
I1203 08:30:46.549304 33884 net.cpp:150] Setting up relu4
I1203 08:30:46.549314 33884 net.cpp:157] Top shape: 64 384 13 13 (4153344)
I1203 08:30:46.549315 33884 net.cpp:165] Memory required for data: 408247808
I1203 08:30:46.549319 33884 layer_factory.hpp:77] Creating layer conv5
I1203 08:30:46.549326 33884 net.cpp:100] Creating Layer conv5
I1203 08:30:46.549329 33884 net.cpp:434] conv5 <- conv4
I1203 08:30:46.549335 33884 net.cpp:408] conv5 -> conv5
I1203 08:30:46.555287 33884 net.cpp:150] Setting up conv5
I1203 08:30:46.555300 33884 net.cpp:157] Top shape: 64 256 13 13 (2768896)
I1203 08:30:46.555302 33884 net.cpp:165] Memory required for data: 419323392
I1203 08:30:46.555310 33884 layer_factory.hpp:77] Creating layer relu5
I1203 08:30:46.555315 33884 net.cpp:100] Creating Layer relu5
I1203 08:30:46.555330 33884 net.cpp:434] relu5 <- conv5
I1203 08:30:46.555335 33884 net.cpp:395] relu5 -> conv5 (in-place)
I1203 08:30:46.555500 33884 net.cpp:150] Setting up relu5
I1203 08:30:46.555510 33884 net.cpp:157] Top shape: 64 256 13 13 (2768896)
I1203 08:30:46.555512 33884 net.cpp:165] Memory required for data: 430398976
I1203 08:30:46.555515 33884 layer_factory.hpp:77] Creating layer pool5
I1203 08:30:46.555522 33884 net.cpp:100] Creating Layer pool5
I1203 08:30:46.555526 33884 net.cpp:434] pool5 <- conv5
I1203 08:30:46.555531 33884 net.cpp:408] pool5 -> pool5
I1203 08:30:46.555573 33884 net.cpp:150] Setting up pool5
I1203 08:30:46.555599 33884 net.cpp:157] Top shape: 64 256 6 6 (589824)
I1203 08:30:46.555603 33884 net.cpp:165] Memory required for data: 432758272
I1203 08:30:46.555604 33884 layer_factory.hpp:77] Creating layer fc6
I1203 08:30:46.555611 33884 net.cpp:100] Creating Layer fc6
I1203 08:30:46.555614 33884 net.cpp:434] fc6 <- pool5
I1203 08:30:46.555620 33884 net.cpp:408] fc6 -> fc6
I1203 08:30:46.945039 33884 net.cpp:150] Setting up fc6
I1203 08:30:46.945075 33884 net.cpp:157] Top shape: 64 4096 (262144)
I1203 08:30:46.945077 33884 net.cpp:165] Memory required for data: 433806848
I1203 08:30:46.945089 33884 layer_factory.hpp:77] Creating layer relu6
I1203 08:30:46.945101 33884 net.cpp:100] Creating Layer relu6
I1203 08:30:46.945106 33884 net.cpp:434] relu6 <- fc6
I1203 08:30:46.945113 33884 net.cpp:395] relu6 -> fc6 (in-place)
I1203 08:30:46.945652 33884 net.cpp:150] Setting up relu6
I1203 08:30:46.945662 33884 net.cpp:157] Top shape: 64 4096 (262144)
I1203 08:30:46.945664 33884 net.cpp:165] Memory required for data: 434855424
I1203 08:30:46.945667 33884 layer_factory.hpp:77] Creating layer drop6
I1203 08:30:46.945675 33884 net.cpp:100] Creating Layer drop6
I1203 08:30:46.945677 33884 net.cpp:434] drop6 <- fc6
I1203 08:30:46.945683 33884 net.cpp:395] drop6 -> fc6 (in-place)
I1203 08:30:46.945724 33884 net.cpp:150] Setting up drop6
I1203 08:30:46.945729 33884 net.cpp:157] Top shape: 64 4096 (262144)
I1203 08:30:46.945730 33884 net.cpp:165] Memory required for data: 435904000
I1203 08:30:46.945732 33884 layer_factory.hpp:77] Creating layer fc7
I1203 08:30:46.945741 33884 net.cpp:100] Creating Layer fc7
I1203 08:30:46.945744 33884 net.cpp:434] fc7 <- fc6
I1203 08:30:46.945749 33884 net.cpp:408] fc7 -> fc7
I1203 08:30:47.119201 33884 net.cpp:150] Setting up fc7
I1203 08:30:47.119238 33884 net.cpp:157] Top shape: 64 4096 (262144)
I1203 08:30:47.119241 33884 net.cpp:165] Memory required for data: 436952576
I1203 08:30:47.119259 33884 layer_factory.hpp:77] Creating layer relu7
I1203 08:30:47.119277 33884 net.cpp:100] Creating Layer relu7
I1203 08:30:47.119280 33884 net.cpp:434] relu7 <- fc7
I1203 08:30:47.119289 33884 net.cpp:395] relu7 -> fc7 (in-place)
I1203 08:30:47.119670 33884 net.cpp:150] Setting up relu7
I1203 08:30:47.119680 33884 net.cpp:157] Top shape: 64 4096 (262144)
I1203 08:30:47.119683 33884 net.cpp:165] Memory required for data: 438001152
I1203 08:30:47.119685 33884 layer_factory.hpp:77] Creating layer drop7
I1203 08:30:47.119695 33884 net.cpp:100] Creating Layer drop7
I1203 08:30:47.119698 33884 net.cpp:434] drop7 <- fc7
I1203 08:30:47.119702 33884 net.cpp:395] drop7 -> fc7 (in-place)
I1203 08:30:47.119732 33884 net.cpp:150] Setting up drop7
I1203 08:30:47.119737 33884 net.cpp:157] Top shape: 64 4096 (262144)
I1203 08:30:47.119740 33884 net.cpp:165] Memory required for data: 439049728
I1203 08:30:47.119741 33884 layer_factory.hpp:77] Creating layer fc8_2
I1203 08:30:47.119750 33884 net.cpp:100] Creating Layer fc8_2
I1203 08:30:47.119752 33884 net.cpp:434] fc8_2 <- fc7
I1203 08:30:47.119757 33884 net.cpp:408] fc8_2 -> fc8_2
I1203 08:30:47.119943 33884 net.cpp:150] Setting up fc8_2
I1203 08:30:47.119952 33884 net.cpp:157] Top shape: 64 2 (128)
I1203 08:30:47.119956 33884 net.cpp:165] Memory required for data: 439050240
I1203 08:30:47.119959 33884 layer_factory.hpp:77] Creating layer fc8_2_fc8_2_0_split
I1203 08:30:47.119966 33884 net.cpp:100] Creating Layer fc8_2_fc8_2_0_split
I1203 08:30:47.119969 33884 net.cpp:434] fc8_2_fc8_2_0_split <- fc8_2
I1203 08:30:47.119976 33884 net.cpp:408] fc8_2_fc8_2_0_split -> fc8_2_fc8_2_0_split_0
I1203 08:30:47.119981 33884 net.cpp:408] fc8_2_fc8_2_0_split -> fc8_2_fc8_2_0_split_1
I1203 08:30:47.120018 33884 net.cpp:150] Setting up fc8_2_fc8_2_0_split
I1203 08:30:47.120021 33884 net.cpp:157] Top shape: 64 2 (128)
I1203 08:30:47.120024 33884 net.cpp:157] Top shape: 64 2 (128)
I1203 08:30:47.120026 33884 net.cpp:165] Memory required for data: 439051264
I1203 08:30:47.120028 33884 layer_factory.hpp:77] Creating layer accuracy
I1203 08:30:47.120046 33884 net.cpp:100] Creating Layer accuracy
I1203 08:30:47.120067 33884 net.cpp:434] accuracy <- fc8_2_fc8_2_0_split_0
I1203 08:30:47.120080 33884 net.cpp:434] accuracy <- label_data_1_split_0
I1203 08:30:47.120085 33884 net.cpp:408] accuracy -> accuracy
…
